__________________________________________________________________________________________________
Layer (type)                    Output Shape         Param #     Connected to                     
==================================================================================================
input_13 (InputLayer)           (None, 224, 224, 3)  0                                            
__________________________________________________________________________________________________
conv2d_1 (Conv2D)               (None, 111, 111, 32) 864         input_13[0][0]                   
__________________________________________________________________________________________________
conv2d_2 (Conv2D)               (None, 109, 109, 64) 18432       conv2d_1[0][0]                   
__________________________________________________________________________________________________
lambda_211 (Lambda)             [(None, 109, 109, 21 0           conv2d_2[0][0]                   
__________________________________________________________________________________________________
xception_filter_2_dconv_0 (Dept (None, 109, 109, 21) 189         lambda_211[0][0]                 
__________________________________________________________________________________________________
xception_filter_2_dconv_1 (Dept (None, 109, 109, 21) 189         lambda_211[0][1]                 
__________________________________________________________________________________________________
xception_filter_2_dconv_2 (Dept (None, 109, 109, 22) 198         lambda_211[0][2]                 
__________________________________________________________________________________________________
xception_filter_2_1x1_conv_0 (C (None, 109, 109, 128 2688        xception_filter_2_dconv_0[0][0]  
__________________________________________________________________________________________________
xception_filter_2_1x1_conv_1 (C (None, 109, 109, 128 2688        xception_filter_2_dconv_1[0][0]  
…
xception_filter_3_1x1_conv_2 (C (None, 109, 109, 128 5504        xception_filter_3_dconv_2[0][0]  
__________________________________________________________________________________________________
add_136 (Add)                   (None, 109, 109, 128 0           xception_filter_3_1x1_conv_0[0][0
                                                                 xception_filter_3_1x1_conv_1[0][0
                                                                 xception_filter_3_1x1_conv_2[0][0
__________________________________________________________________________________________________
max_pooling2d_37 (MaxPooling2D) (None, 55, 55, 128)  0           add_136[0][0]                    
__________________________________________________________________________________________________
xception_filter_1_conv (Conv2D) (None, 55, 55, 128)  8192        conv2d_2[0][0]                   
__________________________________________________________________________________________________
add_137 (Add)                   (None, 55, 55, 128)  0           max_pooling2d_37[0][0]           
                                                                 xception_filter_1_conv[0][0]     
__________________________________________________________________________________________________
activation_104 (Activation)     (None, 55, 55, 128)  0           add_137[0][0]                    
__________________________________________________________________________________________________
lambda_213 (Lambda)             [(None, 55, 55, 42), 0           activation_104[0][0]             
__________________________________________________________________________________________________
xception_filter_5_dconv_0 (Dept (None, 55, 55, 42)   378         lambda_213[0][0]                 
__________________________________________________________________________________________________
xception_filter_5_dconv_1 (Dept (None, 55, 55, 43)   387         lambda_213[0][1]                 
__________________________________________________________________________________________________
xception_filter_5_dconv_2 (Dept (None, 55, 55, 43)   387         lambda_213[0][2]                 
__________________________________________________________________________________________________
xception_filter_5_1x1_conv_0 (C (None, 55, 55, 256)  10752       xception_filter_5_dconv_0[0][0]  
__________________________________________________________________________________________________
xception_filter_5_1x1_conv_1 (C (None, 55, 55, 256)  11008       xception_filter_5_dconv_1[0][0]  
__________________________________________________________________________________________________
xception_filter_5_1x1_conv_2 (C (None, 55, 55, 256)  11008       xception_filter_5_dconv_2[0][0]  
__________________________________________________________________________________________________
add_138 (Add)                   (None, 55, 55, 256)  0           xception_filter_5_1x1_conv_0[0][0
                                                                 xception_filter_5_1x1_conv_1[0][0
                                                                 xception_filter_5_1x1_conv_2[0][0
__________________________________________________________________________________________________
activation_105 (Activation)     (None, 55, 55, 256)  0           add_138[0][0]                    
__________________________________________________________________________________________________
lambda_214 (Lambda)             [(None, 55, 55, 85), 0           activation_105[0][0]             
__________________________________________________________________________________________________
xception_filter_6_dconv_0 (Dept (None, 55, 55, 85)   765         lambda_214[0][0]                 
__________________________________________________________________________________________________
xception_filter_6_dconv_1 (Dept (None, 55, 55, 85)   765         lambda_214[0][1]                 
__________________________________________________________________________________________________
xception_filter_6_dconv_2 (Dept (None, 55, 55, 86)   774         lambda_214[0][2]                 
__________________________________________________________________________________________________
xception_filter_6_1x1_conv_0 (C (None, 55, 55, 256)  21760       xception_filter_6_dconv_0[0][0]  
__________________________________________________________________________________________________
xception_filter_6_1x1_conv_1 (C (None, 55, 55, 256)  21760       xception_filter_6_dconv_1[0][0]  
__________________________________________________________________________________________________
xception_filter_6_1x1_conv_2 (C (None, 55, 55, 256)  22016       xception_filter_6_dconv_2[0][0]  
__________________________________________________________________________________________________
add_139 (Add)                   (None, 55, 55, 256)  0           xception_filter_6_1x1_conv_0[0][0
                                                                 xception_filter_6_1x1_conv_1[0][0
                                                                 xception_filter_6_1x1_conv_2[0][0
__________________________________________________________________________________________________
max_pooling2d_38 (MaxPooling2D) (None, 28, 28, 256)  0           add_139[0][0]                    
__________________________________________________________________________________________________
xception_filter_4_conv (Conv2D) (None, 28, 28, 256)  32768       add_137[0][0]                    
__________________________________________________________________________________________________
add_140 (Add)                   (None, 28, 28, 256)  0           max_pooling2d_38[0][0]           
                                                                 xception_filter_4_conv[0][0]     
__________________________________________________________________________________________________
activation_106 (Activation)     (None, 28, 28, 256)  0           add_140[0][0]                    
__________________________________________________________________________________________________
lambda_215 (Lambda)             [(None, 28, 28, 85), 0           activation_106[0][0]             
__________________________________________________________________________________________________
xception_filter_8_dconv_0 (Dept (None, 28, 28, 85)   765         lambda_215[0][0]                 
__________________________________________________________________________________________________
xception_filter_8_dconv_1 (Dept (None, 28, 28, 85)   765         lambda_215[0][1]                 
__________________________________________________________________________________________________
xception_filter_8_dconv_2 (Dept (None, 28, 28, 86)   774         lambda_215[0][2]                 
__________________________________________________________________________________________________
xception_filter_8_1x1_conv_0 (C (None, 28, 28, 728)  61880       xception_filter_8_dconv_0[0][0]  
__________________________________________________________________________________________________
xception_filter_8_1x1_conv_1 (C (None, 28, 28, 728)  61880       xception_filter_8_dconv_1[0][0]  
__________________________________________________________________________________________________
xception_filter_8_1x1_conv_2 (C (None, 28, 28, 728)  62608       xception_filter_8_dconv_2[0][0]  
__________________________________________________________________________________________________
add_141 (Add)                   (None, 28, 28, 728)  0           xception_filter_8_1x1_conv_0[0][0
                                                                 xception_filter_8_1x1_conv_1[0][0
                                                                 xception_filter_8_1x1_conv_2[0][0
__________________________________________________________________________________________________
activation_107 (Activation)     (None, 28, 28, 728)  0           add_141[0][0]                    
__________________________________________________________________________________________________
lambda_216 (Lambda)             [(None, 28, 28, 242) 0           activation_107[0][0]             
__________________________________________________________________________________________________
xception_filter_9_dconv_0 (Dept (None, 28, 28, 242)  2178        lambda_216[0][0]                 
__________________________________________________________________________________________________
xception_filter_9_dconv_1 (Dept (None, 28, 28, 243)  2187        lambda_216[0][1]                 
__________________________________________________________________________________________________
xception_filter_9_dconv_2 (Dept (None, 28, 28, 243)  2187        lambda_216[0][2]                 
__________________________________________________________________________________________________
xception_filter_9_1x1_conv_0 (C (None, 28, 28, 728)  176176      xception_filter_9_dconv_0[0][0]  
__________________________________________________________________________________________________
xception_filter_9_1x1_conv_1 (C (None, 28, 28, 728)  176904      xception_filter_9_dconv_1[0][0]  
__________________________________________________________________________________________________
xception_filter_9_1x1_conv_2 (C (None, 28, 28, 728)  176904      xception_filter_9_dconv_2[0][0]  
__________________________________________________________________________________________________
add_142 (Add)                   (None, 28, 28, 728)  0           xception_filter_9_1x1_conv_0[0][0
                                                                 xception_filter_9_1x1_conv_1[0][0
                                                                 xception_filter_9_1x1_conv_2[0][0
__________________________________________________________________________________________________
max_pooling2d_39 (MaxPooling2D) (None, 14, 14, 728)  0           add_142[0][0]                    
__________________________________________________________________________________________________
xception_filter_7_conv (Conv2D) (None, 14, 14, 728)  186368      add_140[0][0]                    
__________________________________________________________________________________________________
add_143 (Add)                   (None, 14, 14, 728)  0           max_pooling2d_39[0][0]           
                                                                 xception_filter_7_conv[0][0]     
__________________________________________________________________________________________________
activation_108 (Activation)     (None, 14, 14, 728)  0           add_143[0][0]                    
__________________________________________________________________________________________________
lambda_217 (Lambda)             [(None, 14, 14, 242) 0           activation_108[0][0]             
__________________________________________________________________________________________________
xception_filter_10_dconv_0 (Dep (None, 14, 14, 242)  2178        lambda_217[0][0]                 
__________________________________________________________________________________________________
xception_filter_10_dconv_1 (Dep (None, 14, 14, 243)  2187        lambda_217[0][1]                 
__________________________________________________________________________________________________
xception_filter_10_dconv_2 (Dep (None, 14, 14, 243)  2187        lambda_217[0][2]                 
__________________________________________________________________________________________________
xception_filter_10_1x1_conv_0 ( (None, 14, 14, 728)  176176      xception_filter_10_dconv_0[0][0] 
__________________________________________________________________________________________________
xception_filter_10_1x1_conv_1 ( (None, 14, 14, 728)  176904      xception_filter_10_dconv_1[0][0] 
__________________________________________________________________________________________________
xception_filter_10_1x1_conv_2 ( (None, 14, 14, 728)  176904      xception_filter_10_dconv_2[0][0] 
__________________________________________________________________________________________________
add_144 (Add)                   (None, 14, 14, 728)  0           xception_filter_10_1x1_conv_0[0][
                                                                 xception_filter_10_1x1_conv_1[0][
                                                                 xception_filter_10_1x1_conv_2[0][
__________________________________________________________________________________________________
activation_109 (Activation)     (None, 14, 14, 728)  0           add_144[0][0]                    
__________________________________________________________________________________________________
lambda_218 (Lambda)             [(None, 14, 14, 242) 0           activation_109[0][0]             
__________________________________________________________________________________________________
xception_filter_11_dconv_0 (Dep (None, 14, 14, 242)  2178        lambda_218[0][0]                 
__________________________________________________________________________________________________
xception_filter_11_dconv_1 (Dep (None, 14, 14, 243)  2187        lambda_218[0][1]                 
__________________________________________________________________________________________________
xception_filter_11_dconv_2 (Dep (None, 14, 14, 243)  2187        lambda_218[0][2]                 
__________________________________________________________________________________________________
xception_filter_11_1x1_conv_0 ( (None, 14, 14, 728)  176176      xception_filter_11_dconv_0[0][0] 
__________________________________________________________________________________________________
xception_filter_11_1x1_conv_1 ( (None, 14, 14, 728)  176904      xception_filter_11_dconv_1[0][0] 
__________________________________________________________________________________________________
xception_filter_11_1x1_conv_2 ( (None, 14, 14, 728)  176904      xception_filter_11_dconv_2[0][0] 
__________________________________________________________________________________________________
add_145 (Add)                   (None, 14, 14, 728)  0           xception_filter_11_1x1_conv_0[0][
                                                                 xception_filter_11_1x1_conv_1[0][
                                                                 xception_filter_11_1x1_conv_2[0][
__________________________________________________________________________________________________
activation_110 (Activation)     (None, 14, 14, 728)  0           add_145[0][0]                    
__________________________________________________________________________________________________
lambda_219 (Lambda)             [(None, 14, 14, 242) 0           activation_110[0][0]             
__________________________________________________________________________________________________
xception_filter_12_dconv_0 (Dep (None, 14, 14, 242)  2178        lambda_219[0][0]                 
__________________________________________________________________________________________________
xception_filter_12_dconv_1 (Dep (None, 14, 14, 243)  2187        lambda_219[0][1]                 
__________________________________________________________________________________________________
xception_filter_12_dconv_2 (Dep (None, 14, 14, 243)  2187        lambda_219[0][2]                 
__________________________________________________________________________________________________
xception_filter_12_1x1_conv_0 ( (None, 14, 14, 728)  176176      xception_filter_12_dconv_0[0][0] 
__________________________________________________________________________________________________
xception_filter_12_1x1_conv_1 ( (None, 14, 14, 728)  176904      xception_filter_12_dconv_1[0][0] 
__________________________________________________________________________________________________
xception_filter_12_1x1_conv_2 ( (None, 14, 14, 728)  176904      xception_filter_12_dconv_2[0][0] 
__________________________________________________________________________________________________
add_146 (Add)                   (None, 14, 14, 728)  0           xception_filter_12_1x1_conv_0[0][
                                                                 xception_filter_12_1x1_conv_1[0][
                                                                 xception_filter_12_1x1_conv_2[0][
__________________________________________________________________________________________________
add_147 (Add)                   (None, 14, 14, 728)  0           add_146[0][0]                    
                                                                 add_143[0][0]                    
__________________________________________________________________________________________________
activation_111 (Activation)     (None, 14, 14, 728)  0           add_147[0][0]                    
__________________________________________________________________________________________________
lambda_220 (Lambda)             [(None, 14, 14, 242) 0           activation_111[0][0]             
__________________________________________________________________________________________________
xception_filter_13_dconv_0 (Dep (None, 14, 14, 242)  2178        lambda_220[0][0]                 
__________________________________________________________________________________________________
xception_filter_13_dconv_1 (Dep (None, 14, 14, 243)  2187        lambda_220[0][1]                 
__________________________________________________________________________________________________
xception_filter_13_dconv_2 (Dep (None, 14, 14, 243)  2187        lambda_220[0][2]                 
__________________________________________________________________________________________________
xception_filter_13_1x1_conv_0 ( (None, 14, 14, 728)  176176      xception_filter_13_dconv_0[0][0] 
__________________________________________________________________________________________________
xception_filter_13_1x1_conv_1 ( (None, 14, 14, 728)  176904      xception_filter_13_dconv_1[0][0] 
__________________________________________________________________________________________________
xception_filter_13_1x1_conv_2 ( (None, 14, 14, 728)  176904      xception_filter_13_dconv_2[0][0] 
__________________________________________________________________________________________________
add_148 (Add)                   (None, 14, 14, 728)  0           xception_filter_13_1x1_conv_0[0][
                                                                 xception_filter_13_1x1_conv_1[0][
                                                                 xception_filter_13_1x1_conv_2[0][
__________________________________________________________________________________________________
activation_112 (Activation)     (None, 14, 14, 728)  0           add_148[0][0]                    
__________________________________________________________________________________________________
lambda_221 (Lambda)             [(None, 14, 14, 242) 0           activation_112[0][0]             
__________________________________________________________________________________________________
xception_filter_14_dconv_0 (Dep (None, 14, 14, 242)  2178        lambda_221[0][0]                 
__________________________________________________________________________________________________
xception_filter_14_dconv_1 (Dep (None, 14, 14, 243)  2187        lambda_221[0][1]                 
__________________________________________________________________________________________________
xception_filter_14_dconv_2 (Dep (None, 14, 14, 243)  2187        lambda_221[0][2]                 
__________________________________________________________________________________________________
xception_filter_14_1x1_conv_0 ( (None, 14, 14, 728)  176176      xception_filter_14_dconv_0[0][0] 
__________________________________________________________________________________________________
xception_filter_14_1x1_conv_1 ( (None, 14, 14, 728)  176904      xception_filter_14_dconv_1[0][0] 
__________________________________________________________________________________________________
xception_filter_14_1x1_conv_2 ( (None, 14, 14, 728)  176904      xception_filter_14_dconv_2[0][0] 
__________________________________________________________________________________________________
add_149 (Add)                   (None, 14, 14, 728)  0           xception_filter_14_1x1_conv_0[0][
                                                                 xception_filter_14_1x1_conv_1[0][
                                                                 xception_filter_14_1x1_conv_2[0][
__________________________________________________________________________________________________
activation_113 (Activation)     (None, 14, 14, 728)  0           add_149[0][0]                    
__________________________________________________________________________________________________
lambda_222 (Lambda)             [(None, 14, 14, 242) 0           activation_113[0][0]             
__________________________________________________________________________________________________
xception_filter_15_dconv_0 (Dep (None, 14, 14, 242)  2178        lambda_222[0][0]                 
__________________________________________________________________________________________________
xception_filter_15_dconv_1 (Dep (None, 14, 14, 243)  2187        lambda_222[0][1]                 
__________________________________________________________________________________________________
xception_filter_15_dconv_2 (Dep (None, 14, 14, 243)  2187        lambda_222[0][2]                 
__________________________________________________________________________________________________
xception_filter_15_1x1_conv_0 ( (None, 14, 14, 728)  176176      xception_filter_15_dconv_0[0][0] 
__________________________________________________________________________________________________
xception_filter_15_1x1_conv_1 ( (None, 14, 14, 728)  176904      xception_filter_15_dconv_1[0][0] 
__________________________________________________________________________________________________
xception_filter_15_1x1_conv_2 ( (None, 14, 14, 728)  176904      xception_filter_15_dconv_2[0][0] 
__________________________________________________________________________________________________
add_150 (Add)                   (None, 14, 14, 728)  0           xception_filter_15_1x1_conv_0[0][
                                                                 xception_filter_15_1x1_conv_1[0][
                                                                 xception_filter_15_1x1_conv_2[0][
__________________________________________________________________________________________________
add_151 (Add)                   (None, 14, 14, 728)  0           add_150[0][0]                    
                                                                 add_147[0][0]                    
__________________________________________________________________________________________________
activation_114 (Activation)     (None, 14, 14, 728)  0           add_151[0][0]                    
__________________________________________________________________________________________________
lambda_223 (Lambda)             [(None, 14, 14, 242) 0           activation_114[0][0]             
__________________________________________________________________________________________________
xception_filter_16_dconv_0 (Dep (None, 14, 14, 242)  2178        lambda_223[0][0]                 
__________________________________________________________________________________________________
xception_filter_16_dconv_1 (Dep (None, 14, 14, 243)  2187        lambda_223[0][1]                 
__________________________________________________________________________________________________
xception_filter_16_dconv_2 (Dep (None, 14, 14, 243)  2187        lambda_223[0][2]                 
__________________________________________________________________________________________________
xception_filter_16_1x1_conv_0 ( (None, 14, 14, 728)  176176      xception_filter_16_dconv_0[0][0] 
__________________________________________________________________________________________________
xception_filter_16_1x1_conv_1 ( (None, 14, 14, 728)  176904      xception_filter_16_dconv_1[0][0] 
__________________________________________________________________________________________________
xception_filter_16_1x1_conv_2 ( (None, 14, 14, 728)  176904      xception_filter_16_dconv_2[0][0] 
__________________________________________________________________________________________________
add_152 (Add)                   (None, 14, 14, 728)  0           xception_filter_16_1x1_conv_0[0][
                                                                 xception_filter_16_1x1_conv_1[0][
                                                                 xception_filter_16_1x1_conv_2[0][
__________________________________________________________________________________________________
activation_115 (Activation)     (None, 14, 14, 728)  0           add_152[0][0]                    
__________________________________________________________________________________________________
lambda_224 (Lambda)             [(None, 14, 14, 242) 0           activation_115[0][0]             
__________________________________________________________________________________________________
xception_filter_17_dconv_0 (Dep (None, 14, 14, 242)  2178        lambda_224[0][0]                 
__________________________________________________________________________________________________
xception_filter_17_dconv_1 (Dep (None, 14, 14, 243)  2187        lambda_224[0][1]                 
__________________________________________________________________________________________________
xception_filter_17_dconv_2 (Dep (None, 14, 14, 243)  2187        lambda_224[0][2]                 
__________________________________________________________________________________________________
xception_filter_17_1x1_conv_0 ( (None, 14, 14, 728)  176176      xception_filter_17_dconv_0[0][0] 
__________________________________________________________________________________________________
xception_filter_17_1x1_conv_1 ( (None, 14, 14, 728)  176904      xception_filter_17_dconv_1[0][0] 
__________________________________________________________________________________________________
xception_filter_17_1x1_conv_2 ( (None, 14, 14, 728)  176904      xception_filter_17_dconv_2[0][0] 
__________________________________________________________________________________________________
add_153 (Add)                   (None, 14, 14, 728)  0           xception_filter_17_1x1_conv_0[0][
                                                                 xception_filter_17_1x1_conv_1[0][
                                                                 xception_filter_17_1x1_conv_2[0][
__________________________________________________________________________________________________
activation_116 (Activation)     (None, 14, 14, 728)  0           add_153[0][0]                    
__________________________________________________________________________________________________
lambda_225 (Lambda)             [(None, 14, 14, 242) 0           activation_116[0][0]             
__________________________________________________________________________________________________
xception_filter_18_dconv_0 (Dep (None, 14, 14, 242)  2178        lambda_225[0][0]                 
__________________________________________________________________________________________________
xception_filter_18_dconv_1 (Dep (None, 14, 14, 243)  2187        lambda_225[0][1]                 
__________________________________________________________________________________________________
xception_filter_18_dconv_2 (Dep (None, 14, 14, 243)  2187        lambda_225[0][2]                 
__________________________________________________________________________________________________
xception_filter_18_1x1_conv_0 ( (None, 14, 14, 728)  176176      xception_filter_18_dconv_0[0][0] 
__________________________________________________________________________________________________
xception_filter_18_1x1_conv_1 ( (None, 14, 14, 728)  176904      xception_filter_18_dconv_1[0][0] 
__________________________________________________________________________________________________
xception_filter_18_1x1_conv_2 ( (None, 14, 14, 728)  176904      xception_filter_18_dconv_2[0][0] 
__________________________________________________________________________________________________
add_154 (Add)                   (None, 14, 14, 728)  0           xception_filter_18_1x1_conv_0[0][
                                                                 xception_filter_18_1x1_conv_1[0][
                                                                 xception_filter_18_1x1_conv_2[0][
__________________________________________________________________________________________________
add_155 (Add)                   (None, 14, 14, 728)  0           add_154[0][0]                    
                                                                 add_151[0][0]                    
__________________________________________________________________________________________________
activation_117 (Activation)     (None, 14, 14, 728)  0           add_155[0][0]                    
__________________________________________________________________________________________________
lambda_226 (Lambda)             [(None, 14, 14, 242) 0           activation_117[0][0]             
__________________________________________________________________________________________________
xception_filter_19_dconv_0 (Dep (None, 14, 14, 242)  2178        lambda_226[0][0]                 
__________________________________________________________________________________________________
xception_filter_19_dconv_1 (Dep (None, 14, 14, 243)  2187        lambda_226[0][1]                 
__________________________________________________________________________________________________
xception_filter_19_dconv_2 (Dep (None, 14, 14, 243)  2187        lambda_226[0][2]                 
__________________________________________________________________________________________________
xception_filter_19_1x1_conv_0 ( (None, 14, 14, 728)  176176      xception_filter_19_dconv_0[0][0] 
__________________________________________________________________________________________________
xception_filter_19_1x1_conv_1 ( (None, 14, 14, 728)  176904      xception_filter_19_dconv_1[0][0] 
__________________________________________________________________________________________________
xception_filter_19_1x1_conv_2 ( (None, 14, 14, 728)  176904      xception_filter_19_dconv_2[0][0] 
__________________________________________________________________________________________________
add_156 (Add)                   (None, 14, 14, 728)  0           xception_filter_19_1x1_conv_0[0][
                                                                 xception_filter_19_1x1_conv_1[0][
                                                                 xception_filter_19_1x1_conv_2[0][
__________________________________________________________________________________________________
activation_118 (Activation)     (None, 14, 14, 728)  0           add_156[0][0]                    
__________________________________________________________________________________________________
lambda_227 (Lambda)             [(None, 14, 14, 242) 0           activation_118[0][0]             
__________________________________________________________________________________________________
xception_filter_20_dconv_0 (Dep (None, 14, 14, 242)  2178        lambda_227[0][0]                 
__________________________________________________________________________________________________
xception_filter_20_dconv_1 (Dep (None, 14, 14, 243)  2187        lambda_227[0][1]                 
__________________________________________________________________________________________________
xception_filter_20_dconv_2 (Dep (None, 14, 14, 243)  2187        lambda_227[0][2]                 
__________________________________________________________________________________________________
xception_filter_20_1x1_conv_0 ( (None, 14, 14, 728)  176176      xception_filter_20_dconv_0[0][0] 
__________________________________________________________________________________________________
xception_filter_20_1x1_conv_1 ( (None, 14, 14, 728)  176904      xception_filter_20_dconv_1[0][0] 
__________________________________________________________________________________________________
xception_filter_20_1x1_conv_2 ( (None, 14, 14, 728)  176904      xception_filter_20_dconv_2[0][0] 
__________________________________________________________________________________________________
add_157 (Add)                   (None, 14, 14, 728)  0           xception_filter_20_1x1_conv_0[0][
                                                                 xception_filter_20_1x1_conv_1[0][
                                                                 xception_filter_20_1x1_conv_2[0][
__________________________________________________________________________________________________
activation_119 (Activation)     (None, 14, 14, 728)  0           add_157[0][0]                    
__________________________________________________________________________________________________
lambda_228 (Lambda)             [(None, 14, 14, 242) 0           activation_119[0][0]             
__________________________________________________________________________________________________
xception_filter_21_dconv_0 (Dep (None, 14, 14, 242)  2178        lambda_228[0][0]                 
__________________________________________________________________________________________________
xception_filter_21_dconv_1 (Dep (None, 14, 14, 243)  2187        lambda_228[0][1]                 
__________________________________________________________________________________________________
xception_filter_21_dconv_2 (Dep (None, 14, 14, 243)  2187        lambda_228[0][2]                 
__________________________________________________________________________________________________
xception_filter_21_1x1_conv_0 ( (None, 14, 14, 728)  176176      xception_filter_21_dconv_0[0][0] 
__________________________________________________________________________________________________
xception_filter_21_1x1_conv_1 ( (None, 14, 14, 728)  176904      xception_filter_21_dconv_1[0][0] 
__________________________________________________________________________________________________
xception_filter_21_1x1_conv_2 ( (None, 14, 14, 728)  176904      xception_filter_21_dconv_2[0][0] 
__________________________________________________________________________________________________
add_158 (Add)                   (None, 14, 14, 728)  0           xception_filter_21_1x1_conv_0[0][
                                                                 xception_filter_21_1x1_conv_1[0][
                                                                 xception_filter_21_1x1_conv_2[0][
__________________________________________________________________________________________________
add_159 (Add)                   (None, 14, 14, 728)  0           add_158[0][0]                    
                                                                 add_155[0][0]                    
__________________________________________________________________________________________________
activation_120 (Activation)     (None, 14, 14, 728)  0           add_159[0][0]                    
__________________________________________________________________________________________________
lambda_229 (Lambda)             [(None, 14, 14, 242) 0           activation_120[0][0]             
__________________________________________________________________________________________________
xception_filter_22_dconv_0 (Dep (None, 14, 14, 242)  2178        lambda_229[0][0]                 
__________________________________________________________________________________________________
xception_filter_22_dconv_1 (Dep (None, 14, 14, 243)  2187        lambda_229[0][1]                 
__________________________________________________________________________________________________
xception_filter_22_dconv_2 (Dep (None, 14, 14, 243)  2187        lambda_229[0][2]                 
__________________________________________________________________________________________________
xception_filter_22_1x1_conv_0 ( (None, 14, 14, 728)  176176      xception_filter_22_dconv_0[0][0] 
__________________________________________________________________________________________________
xception_filter_22_1x1_conv_1 ( (None, 14, 14, 728)  176904      xception_filter_22_dconv_1[0][0] 
__________________________________________________________________________________________________
xception_filter_22_1x1_conv_2 ( (None, 14, 14, 728)  176904      xception_filter_22_dconv_2[0][0] 
__________________________________________________________________________________________________
add_160 (Add)                   (None, 14, 14, 728)  0           xception_filter_22_1x1_conv_0[0][
                                                                 xception_filter_22_1x1_conv_1[0][
                                                                 xception_filter_22_1x1_conv_2[0][
__________________________________________________________________________________________________
activation_121 (Activation)     (None, 14, 14, 728)  0           add_160[0][0]                    
__________________________________________________________________________________________________
lambda_230 (Lambda)             [(None, 14, 14, 242) 0           activation_121[0][0]             
__________________________________________________________________________________________________
xception_filter_23_dconv_0 (Dep (None, 14, 14, 242)  2178        lambda_230[0][0]                 
__________________________________________________________________________________________________
xception_filter_23_dconv_1 (Dep (None, 14, 14, 243)  2187        lambda_230[0][1]                 
__________________________________________________________________________________________________
xception_filter_23_dconv_2 (Dep (None, 14, 14, 243)  2187        lambda_230[0][2]                 
__________________________________________________________________________________________________
xception_filter_23_1x1_conv_0 ( (None, 14, 14, 728)  176176      xception_filter_23_dconv_0[0][0] 
__________________________________________________________________________________________________
xception_filter_23_1x1_conv_1 ( (None, 14, 14, 728)  176904      xception_filter_23_dconv_1[0][0] 
__________________________________________________________________________________________________
xception_filter_23_1x1_conv_2 ( (None, 14, 14, 728)  176904      xception_filter_23_dconv_2[0][0] 
__________________________________________________________________________________________________
add_161 (Add)                   (None, 14, 14, 728)  0           xception_filter_23_1x1_conv_0[0][
                                                                 xception_filter_23_1x1_conv_1[0][
                                                                 xception_filter_23_1x1_conv_2[0][
__________________________________________________________________________________________________
activation_122 (Activation)     (None, 14, 14, 728)  0           add_161[0][0]                    
__________________________________________________________________________________________________
lambda_231 (Lambda)             [(None, 14, 14, 242) 0           activation_122[0][0]             
__________________________________________________________________________________________________
xception_filter_24_dconv_0 (Dep (None, 14, 14, 242)  2178        lambda_231[0][0]                 
__________________________________________________________________________________________________
xception_filter_24_dconv_1 (Dep (None, 14, 14, 243)  2187        lambda_231[0][1]                 
__________________________________________________________________________________________________
xception_filter_24_dconv_2 (Dep (None, 14, 14, 243)  2187        lambda_231[0][2]                 
__________________________________________________________________________________________________
xception_filter_24_1x1_conv_0 ( (None, 14, 14, 728)  176176      xception_filter_24_dconv_0[0][0] 
__________________________________________________________________________________________________
xception_filter_24_1x1_conv_1 ( (None, 14, 14, 728)  176904      xception_filter_24_dconv_1[0][0] 
__________________________________________________________________________________________________
xception_filter_24_1x1_conv_2 ( (None, 14, 14, 728)  176904      xception_filter_24_dconv_2[0][0] 
__________________________________________________________________________________________________
add_162 (Add)                   (None, 14, 14, 728)  0           xception_filter_24_1x1_conv_0[0][
                                                                 xception_filter_24_1x1_conv_1[0][
                                                                 xception_filter_24_1x1_conv_2[0][
__________________________________________________________________________________________________
add_163 (Add)                   (None, 14, 14, 728)  0           add_162[0][0]                    
                                                                 add_159[0][0]                    
__________________________________________________________________________________________________
activation_123 (Activation)     (None, 14, 14, 728)  0           add_163[0][0]                    
__________________________________________________________________________________________________
lambda_232 (Lambda)             [(None, 14, 14, 242) 0           activation_123[0][0]             
__________________________________________________________________________________________________
xception_filter_25_dconv_0 (Dep (None, 14, 14, 242)  2178        lambda_232[0][0]                 
__________________________________________________________________________________________________
xception_filter_25_dconv_1 (Dep (None, 14, 14, 243)  2187        lambda_232[0][1]                 
__________________________________________________________________________________________________
xception_filter_25_dconv_2 (Dep (None, 14, 14, 243)  2187        lambda_232[0][2]                 
__________________________________________________________________________________________________
xception_filter_25_1x1_conv_0 ( (None, 14, 14, 728)  176176      xception_filter_25_dconv_0[0][0] 
__________________________________________________________________________________________________
xception_filter_25_1x1_conv_1 ( (None, 14, 14, 728)  176904      xception_filter_25_dconv_1[0][0] 
__________________________________________________________________________________________________
xception_filter_25_1x1_conv_2 ( (None, 14, 14, 728)  176904      xception_filter_25_dconv_2[0][0] 
__________________________________________________________________________________________________
add_164 (Add)                   (None, 14, 14, 728)  0           xception_filter_25_1x1_conv_0[0][
                                                                 xception_filter_25_1x1_conv_1[0][
                                                                 xception_filter_25_1x1_conv_2[0][
__________________________________________________________________________________________________
activation_124 (Activation)     (None, 14, 14, 728)  0           add_164[0][0]                    
__________________________________________________________________________________________________
lambda_233 (Lambda)             [(None, 14, 14, 242) 0           activation_124[0][0]             
__________________________________________________________________________________________________
xception_filter_26_dconv_0 (Dep (None, 14, 14, 242)  2178        lambda_233[0][0]                 
__________________________________________________________________________________________________
xception_filter_26_dconv_1 (Dep (None, 14, 14, 243)  2187        lambda_233[0][1]                 
__________________________________________________________________________________________________
xception_filter_26_dconv_2 (Dep (None, 14, 14, 243)  2187        lambda_233[0][2]                 
__________________________________________________________________________________________________
xception_filter_26_1x1_conv_0 ( (None, 14, 14, 728)  176176      xception_filter_26_dconv_0[0][0] 
__________________________________________________________________________________________________
xception_filter_26_1x1_conv_1 ( (None, 14, 14, 728)  176904      xception_filter_26_dconv_1[0][0] 
__________________________________________________________________________________________________
xception_filter_26_1x1_conv_2 ( (None, 14, 14, 728)  176904      xception_filter_26_dconv_2[0][0] 
__________________________________________________________________________________________________
add_165 (Add)                   (None, 14, 14, 728)  0           xception_filter_26_1x1_conv_0[0][
                                                                 xception_filter_26_1x1_conv_1[0][
                                                                 xception_filter_26_1x1_conv_2[0][
__________________________________________________________________________________________________
activation_125 (Activation)     (None, 14, 14, 728)  0           add_165[0][0]                    
__________________________________________________________________________________________________
lambda_234 (Lambda)             [(None, 14, 14, 242) 0           activation_125[0][0]             
__________________________________________________________________________________________________
xception_filter_27_dconv_0 (Dep (None, 14, 14, 242)  2178        lambda_234[0][0]                 
__________________________________________________________________________________________________
xception_filter_27_dconv_1 (Dep (None, 14, 14, 243)  2187        lambda_234[0][1]                 
__________________________________________________________________________________________________
xception_filter_27_dconv_2 (Dep (None, 14, 14, 243)  2187        lambda_234[0][2]                 
__________________________________________________________________________________________________
xception_filter_27_1x1_conv_0 ( (None, 14, 14, 728)  176176      xception_filter_27_dconv_0[0][0] 
__________________________________________________________________________________________________
xception_filter_27_1x1_conv_1 ( (None, 14, 14, 728)  176904      xception_filter_27_dconv_1[0][0] 
__________________________________________________________________________________________________
xception_filter_27_1x1_conv_2 ( (None, 14, 14, 728)  176904      xception_filter_27_dconv_2[0][0] 
__________________________________________________________________________________________________
add_166 (Add)                   (None, 14, 14, 728)  0           xception_filter_27_1x1_conv_0[0][
                                                                 xception_filter_27_1x1_conv_1[0][
                                                                 xception_filter_27_1x1_conv_2[0][
__________________________________________________________________________________________________
add_167 (Add)                   (None, 14, 14, 728)  0           add_166[0][0]                    
                                                                 add_163[0][0]                    
__________________________________________________________________________________________________
activation_126 (Activation)     (None, 14, 14, 728)  0           add_167[0][0]                    
__________________________________________________________________________________________________
lambda_235 (Lambda)             [(None, 14, 14, 242) 0           activation_126[0][0]             
__________________________________________________________________________________________________
xception_filter_28_dconv_0 (Dep (None, 14, 14, 242)  2178        lambda_235[0][0]                 
__________________________________________________________________________________________________
xception_filter_28_dconv_1 (Dep (None, 14, 14, 243)  2187        lambda_235[0][1]                 
__________________________________________________________________________________________________
xception_filter_28_dconv_2 (Dep (None, 14, 14, 243)  2187        lambda_235[0][2]                 
__________________________________________________________________________________________________
xception_filter_28_1x1_conv_0 ( (None, 14, 14, 728)  176176      xception_filter_28_dconv_0[0][0] 
__________________________________________________________________________________________________
xception_filter_28_1x1_conv_1 ( (None, 14, 14, 728)  176904      xception_filter_28_dconv_1[0][0] 
__________________________________________________________________________________________________
xception_filter_28_1x1_conv_2 ( (None, 14, 14, 728)  176904      xception_filter_28_dconv_2[0][0] 
__________________________________________________________________________________________________
add_168 (Add)                   (None, 14, 14, 728)  0           xception_filter_28_1x1_conv_0[0][
                                                                 xception_filter_28_1x1_conv_1[0][
                                                                 xception_filter_28_1x1_conv_2[0][
__________________________________________________________________________________________________
activation_127 (Activation)     (None, 14, 14, 728)  0           add_168[0][0]                    
__________________________________________________________________________________________________
lambda_236 (Lambda)             [(None, 14, 14, 242) 0           activation_127[0][0]             
__________________________________________________________________________________________________
xception_filter_29_dconv_0 (Dep (None, 14, 14, 242)  2178        lambda_236[0][0]                 
__________________________________________________________________________________________________
xception_filter_29_dconv_1 (Dep (None, 14, 14, 243)  2187        lambda_236[0][1]                 
__________________________________________________________________________________________________
xception_filter_29_dconv_2 (Dep (None, 14, 14, 243)  2187        lambda_236[0][2]                 
__________________________________________________________________________________________________
xception_filter_29_1x1_conv_0 ( (None, 14, 14, 728)  176176      xception_filter_29_dconv_0[0][0] 
__________________________________________________________________________________________________
xception_filter_29_1x1_conv_1 ( (None, 14, 14, 728)  176904      xception_filter_29_dconv_1[0][0] 
__________________________________________________________________________________________________
xception_filter_29_1x1_conv_2 ( (None, 14, 14, 728)  176904      xception_filter_29_dconv_2[0][0] 
__________________________________________________________________________________________________
add_169 (Add)                   (None, 14, 14, 728)  0           xception_filter_29_1x1_conv_0[0][
                                                                 xception_filter_29_1x1_conv_1[0][
                                                                 xception_filter_29_1x1_conv_2[0][
__________________________________________________________________________________________________
activation_128 (Activation)     (None, 14, 14, 728)  0           add_169[0][0]                    
__________________________________________________________________________________________________
lambda_237 (Lambda)             [(None, 14, 14, 242) 0           activation_128[0][0]             
__________________________________________________________________________________________________
xception_filter_30_dconv_0 (Dep (None, 14, 14, 242)  2178        lambda_237[0][0]                 
__________________________________________________________________________________________________
xception_filter_30_dconv_1 (Dep (None, 14, 14, 243)  2187        lambda_237[0][1]                 
__________________________________________________________________________________________________
xception_filter_30_dconv_2 (Dep (None, 14, 14, 243)  2187        lambda_237[0][2]                 
__________________________________________________________________________________________________
xception_filter_30_1x1_conv_0 ( (None, 14, 14, 728)  176176      xception_filter_30_dconv_0[0][0] 
__________________________________________________________________________________________________
xception_filter_30_1x1_conv_1 ( (None, 14, 14, 728)  176904      xception_filter_30_dconv_1[0][0] 
__________________________________________________________________________________________________
xception_filter_30_1x1_conv_2 ( (None, 14, 14, 728)  176904      xception_filter_30_dconv_2[0][0] 
__________________________________________________________________________________________________
add_170 (Add)                   (None, 14, 14, 728)  0           xception_filter_30_1x1_conv_0[0][
                                                                 xception_filter_30_1x1_conv_1[0][
                                                                 xception_filter_30_1x1_conv_2[0][
__________________________________________________________________________________________________
add_171 (Add)                   (None, 14, 14, 728)  0           add_170[0][0]                    
                                                                 add_167[0][0]                    
__________________________________________________________________________________________________
activation_129 (Activation)     (None, 14, 14, 728)  0           add_171[0][0]                    
__________________________________________________________________________________________________
lambda_238 (Lambda)             [(None, 14, 14, 242) 0           activation_129[0][0]             
__________________________________________________________________________________________________
xception_filter_31_dconv_0 (Dep (None, 14, 14, 242)  2178        lambda_238[0][0]                 
__________________________________________________________________________________________________
xception_filter_31_dconv_1 (Dep (None, 14, 14, 243)  2187        lambda_238[0][1]                 
__________________________________________________________________________________________________
xception_filter_31_dconv_2 (Dep (None, 14, 14, 243)  2187        lambda_238[0][2]                 
__________________________________________________________________________________________________
xception_filter_31_1x1_conv_0 ( (None, 14, 14, 728)  176176      xception_filter_31_dconv_0[0][0] 
__________________________________________________________________________________________________
xception_filter_31_1x1_conv_1 ( (None, 14, 14, 728)  176904      xception_filter_31_dconv_1[0][0] 
__________________________________________________________________________________________________
xception_filter_31_1x1_conv_2 ( (None, 14, 14, 728)  176904      xception_filter_31_dconv_2[0][0] 
__________________________________________________________________________________________________
add_172 (Add)                   (None, 14, 14, 728)  0           xception_filter_31_1x1_conv_0[0][
                                                                 xception_filter_31_1x1_conv_1[0][
                                                                 xception_filter_31_1x1_conv_2[0][
__________________________________________________________________________________________________
activation_130 (Activation)     (None, 14, 14, 728)  0           add_172[0][0]                    
__________________________________________________________________________________________________
lambda_239 (Lambda)             [(None, 14, 14, 242) 0           activation_130[0][0]             
__________________________________________________________________________________________________
xception_filter_32_dconv_0 (Dep (None, 14, 14, 242)  2178        lambda_239[0][0]                 
__________________________________________________________________________________________________
xception_filter_32_dconv_1 (Dep (None, 14, 14, 243)  2187        lambda_239[0][1]                 
__________________________________________________________________________________________________
xception_filter_32_dconv_2 (Dep (None, 14, 14, 243)  2187        lambda_239[0][2]                 
__________________________________________________________________________________________________
xception_filter_32_1x1_conv_0 ( (None, 14, 14, 728)  176176      xception_filter_32_dconv_0[0][0] 
__________________________________________________________________________________________________
xception_filter_32_1x1_conv_1 ( (None, 14, 14, 728)  176904      xception_filter_32_dconv_1[0][0] 
__________________________________________________________________________________________________
xception_filter_32_1x1_conv_2 ( (None, 14, 14, 728)  176904      xception_filter_32_dconv_2[0][0] 
__________________________________________________________________________________________________
add_173 (Add)                   (None, 14, 14, 728)  0           xception_filter_32_1x1_conv_0[0][
                                                                 xception_filter_32_1x1_conv_1[0][
                                                                 xception_filter_32_1x1_conv_2[0][
__________________________________________________________________________________________________
activation_131 (Activation)     (None, 14, 14, 728)  0           add_173[0][0]                    
__________________________________________________________________________________________________
lambda_240 (Lambda)             [(None, 14, 14, 242) 0           activation_131[0][0]             
__________________________________________________________________________________________________
xception_filter_33_dconv_0 (Dep (None, 14, 14, 242)  2178        lambda_240[0][0]                 
__________________________________________________________________________________________________
xception_filter_33_dconv_1 (Dep (None, 14, 14, 243)  2187        lambda_240[0][1]                 
__________________________________________________________________________________________________
xception_filter_33_dconv_2 (Dep (None, 14, 14, 243)  2187        lambda_240[0][2]                 
__________________________________________________________________________________________________
xception_filter_33_1x1_conv_0 ( (None, 14, 14, 728)  176176      xception_filter_33_dconv_0[0][0] 
__________________________________________________________________________________________________
xception_filter_33_1x1_conv_1 ( (None, 14, 14, 728)  176904      xception_filter_33_dconv_1[0][0] 
__________________________________________________________________________________________________
xception_filter_33_1x1_conv_2 ( (None, 14, 14, 728)  176904      xception_filter_33_dconv_2[0][0] 
__________________________________________________________________________________________________
add_174 (Add)                   (None, 14, 14, 728)  0           xception_filter_33_1x1_conv_0[0][
                                                                 xception_filter_33_1x1_conv_1[0][
                                                                 xception_filter_33_1x1_conv_2[0][
__________________________________________________________________________________________________
add_175 (Add)                   (None, 14, 14, 728)  0           add_174[0][0]                    
                                                                 add_171[0][0]                    
__________________________________________________________________________________________________
activation_132 (Activation)     (None, 14, 14, 728)  0           add_175[0][0]                    
__________________________________________________________________________________________________
lambda_241 (Lambda)             [(None, 14, 14, 242) 0           activation_132[0][0]             
__________________________________________________________________________________________________
xception_filter_36_dconv_0 (Dep (None, 14, 14, 242)  2178        lambda_241[0][0]                 
__________________________________________________________________________________________________
xception_filter_36_dconv_1 (Dep (None, 14, 14, 243)  2187        lambda_241[0][1]                 
__________________________________________________________________________________________________
xception_filter_36_dconv_2 (Dep (None, 14, 14, 243)  2187        lambda_241[0][2]                 
__________________________________________________________________________________________________
xception_filter_36_1x1_conv_0 ( (None, 14, 14, 728)  176176      xception_filter_36_dconv_0[0][0] 
__________________________________________________________________________________________________
xception_filter_36_1x1_conv_1 ( (None, 14, 14, 728)  176904      xception_filter_36_dconv_1[0][0] 
__________________________________________________________________________________________________
xception_filter_36_1x1_conv_2 ( (None, 14, 14, 728)  176904      xception_filter_36_dconv_2[0][0] 
__________________________________________________________________________________________________
add_176 (Add)                   (None, 14, 14, 728)  0           xception_filter_36_1x1_conv_0[0][
                                                                 xception_filter_36_1x1_conv_1[0][
                                                                 xception_filter_36_1x1_conv_2[0][
__________________________________________________________________________________________________
activation_133 (Activation)     (None, 14, 14, 728)  0           add_176[0][0]                    
__________________________________________________________________________________________________
lambda_242 (Lambda)             [(None, 14, 14, 242) 0           activation_133[0][0]             
__________________________________________________________________________________________________
xception_filter_37_dconv_0 (Dep (None, 14, 14, 242)  2178        lambda_242[0][0]                 
__________________________________________________________________________________________________
xception_filter_37_dconv_1 (Dep (None, 14, 14, 243)  2187        lambda_242[0][1]                 
__________________________________________________________________________________________________
xception_filter_37_dconv_2 (Dep (None, 14, 14, 243)  2187        lambda_242[0][2]                 
__________________________________________________________________________________________________
xception_filter_37_1x1_conv_0 ( (None, 14, 14, 1024) 247808      xception_filter_37_dconv_0[0][0] 
__________________________________________________________________________________________________
xception_filter_37_1x1_conv_1 ( (None, 14, 14, 1024) 248832      xception_filter_37_dconv_1[0][0] 
__________________________________________________________________________________________________
xception_filter_37_1x1_conv_2 ( (None, 14, 14, 1024) 248832      xception_filter_37_dconv_2[0][0] 
__________________________________________________________________________________________________
add_177 (Add)                   (None, 14, 14, 1024) 0           xception_filter_37_1x1_conv_0[0][
                                                                 xception_filter_37_1x1_conv_1[0][
                                                                 xception_filter_37_1x1_conv_2[0][
__________________________________________________________________________________________________
max_pooling2d_40 (MaxPooling2D) (None, 7, 7, 1024)   0           add_177[0][0]                    
__________________________________________________________________________________________________
xception_filter_35_conv (Conv2D (None, 7, 7, 1024)   745472      add_175[0][0]                    
__________________________________________________________________________________________________
add_178 (Add)                   (None, 7, 7, 1024)   0           max_pooling2d_40[0][0]           
                                                                 xception_filter_35_conv[0][0]    
__________________________________________________________________________________________________
lambda_243 (Lambda)             [(None, 7, 7, 341),  0           add_178[0][0]                    
__________________________________________________________________________________________________
xception_filter_38_dconv_0 (Dep (None, 7, 7, 341)    3069        lambda_243[0][0]                 
__________________________________________________________________________________________________
xception_filter_38_dconv_1 (Dep (None, 7, 7, 341)    3069        lambda_243[0][1]                 
__________________________________________________________________________________________________
xception_filter_38_dconv_2 (Dep (None, 7, 7, 342)    3078        lambda_243[0][2]                 
__________________________________________________________________________________________________
xception_filter_38_1x1_conv_0 ( (None, 7, 7, 1536)   523776      xception_filter_38_dconv_0[0][0] 
__________________________________________________________________________________________________
xception_filter_38_1x1_conv_1 ( (None, 7, 7, 1536)   523776      xception_filter_38_dconv_1[0][0] 
__________________________________________________________________________________________________
xception_filter_38_1x1_conv_2 ( (None, 7, 7, 1536)   525312      xception_filter_38_dconv_2[0][0] 
__________________________________________________________________________________________________
add_179 (Add)                   (None, 7, 7, 1536)   0           xception_filter_38_1x1_conv_0[0][
                                                                 xception_filter_38_1x1_conv_1[0][
                                                                 xception_filter_38_1x1_conv_2[0][
__________________________________________________________________________________________________
activation_134 (Activation)     (None, 7, 7, 1536)   0           add_179[0][0]                    
__________________________________________________________________________________________________
lambda_244 (Lambda)             [(None, 7, 7, 512),  0           activation_134[0][0]             
__________________________________________________________________________________________________
xception_filter_39_dconv_0 (Dep (None, 7, 7, 512)    4608        lambda_244[0][0]                 
__________________________________________________________________________________________________
xception_filter_39_dconv_1 (Dep (None, 7, 7, 512)    4608        lambda_244[0][1]                 
__________________________________________________________________________________________________
xception_filter_39_dconv_2 (Dep (None, 7, 7, 512)    4608        lambda_244[0][2]                 
__________________________________________________________________________________________________
xception_filter_39_1x1_conv_0 ( (None, 7, 7, 2048)   1048576     xception_filter_39_dconv_0[0][0] 
__________________________________________________________________________________________________
xception_filter_39_1x1_conv_1 ( (None, 7, 7, 2048)   1048576     xception_filter_39_dconv_1[0][0] 
__________________________________________________________________________________________________
xception_filter_39_1x1_conv_2 ( (None, 7, 7, 2048)   1048576     xception_filter_39_dconv_2[0][0] 
__________________________________________________________________________________________________
add_180 (Add)                   (None, 7, 7, 2048)   0           xception_filter_39_1x1_conv_0[0][
                                                                 xception_filter_39_1x1_conv_1[0][
                                                                 xception_filter_39_1x1_conv_2[0][
__________________________________________________________________________________________________
activation_135 (Activation)     (None, 7, 7, 2048)   0           add_180[0][0]                    
__________________________________________________________________________________________________
global_average_pooling2d_1 (Glo (None, 2048)         0           activation_135[0][0]             
__________________________________________________________________________________________________
xception_filter_40_dense (Dense (None, 1000)         2049000     global_average_pooling2d_1[0][0] 
==================================================================================================
Total params: 22,801,424
Trainable params: 22,801,424
Non-trainable params: 0
__________________________________________________________________________________________________
None
