__________________________________________________________________________________________________
Layer (type)                    Output Shape         Param #     Connected to                     
==================================================================================================
input_1 (InputLayer)            (None, 224, 224, 3)  0                                            
__________________________________________________________________________________________________
conv2d_1 (Conv2D)               (None, 111, 111, 32) 864         input_1[0][0]                    
__________________________________________________________________________________________________
conv2d_2 (Conv2D)               (None, 109, 109, 64) 18432       conv2d_1[0][0]                   
__________________________________________________________________________________________________
lambda_1 (Lambda)               [(None, 109, 109, 21 0           conv2d_2[0][0]                   
__________________________________________________________________________________________________
conv2d_4 (Conv2D)               (None, 109, 109, 1)  189         lambda_1[0][0]                   
__________________________________________________________________________________________________
conv2d_5 (Conv2D)               (None, 109, 109, 1)  189         lambda_1[0][1]                   
__________________________________________________________________________________________________
conv2d_6 (Conv2D)               (None, 109, 109, 1)  198         lambda_1[0][2]                   
__________________________________________________________________________________________________
conv2d_7 (Conv2D)               (None, 109, 109, 128 128         conv2d_4[0][0]                   
__________________________________________________________________________________________________
conv2d_8 (Conv2D)               (None, 109, 109, 128 128         conv2d_5[0][0]                   
…
conv2d_15 (Conv2D)              (None, 109, 109, 128 256         conv2d_12[0][0]                  
__________________________________________________________________________________________________
add_2 (Add)                     (None, 109, 109, 128 0           conv2d_13[0][0]                  
                                                                 conv2d_14[0][0]                  
                                                                 conv2d_15[0][0]                  
__________________________________________________________________________________________________
max_pooling2d_1 (MaxPooling2D)  (None, 55, 55, 128)  0           add_2[0][0]                      
__________________________________________________________________________________________________
conv2d_3 (Conv2D)               (None, 55, 55, 128)  8192        conv2d_2[0][0]                   
__________________________________________________________________________________________________
add_3 (Add)                     (None, 55, 55, 128)  0           max_pooling2d_1[0][0]            
                                                                 conv2d_3[0][0]                   
__________________________________________________________________________________________________
activation_2 (Activation)       (None, 55, 55, 128)  0           add_3[0][0]                      
__________________________________________________________________________________________________
lambda_3 (Lambda)               [(None, 55, 55, 42), 0           activation_2[0][0]               
__________________________________________________________________________________________________
conv2d_17 (Conv2D)              (None, 55, 55, 1)    378         lambda_3[0][0]                   
__________________________________________________________________________________________________
conv2d_18 (Conv2D)              (None, 55, 55, 1)    387         lambda_3[0][1]                   
__________________________________________________________________________________________________
conv2d_19 (Conv2D)              (None, 55, 55, 1)    387         lambda_3[0][2]                   
__________________________________________________________________________________________________
conv2d_20 (Conv2D)              (None, 55, 55, 256)  256         conv2d_17[0][0]                  
__________________________________________________________________________________________________
conv2d_21 (Conv2D)              (None, 55, 55, 256)  256         conv2d_18[0][0]                  
__________________________________________________________________________________________________
conv2d_22 (Conv2D)              (None, 55, 55, 256)  512         conv2d_19[0][0]                  
__________________________________________________________________________________________________
add_4 (Add)                     (None, 55, 55, 256)  0           conv2d_20[0][0]                  
                                                                 conv2d_21[0][0]                  
                                                                 conv2d_22[0][0]                  
__________________________________________________________________________________________________
activation_3 (Activation)       (None, 55, 55, 256)  0           add_4[0][0]                      
__________________________________________________________________________________________________
lambda_4 (Lambda)               [(None, 55, 55, 85), 0           activation_3[0][0]               
__________________________________________________________________________________________________
conv2d_23 (Conv2D)              (None, 55, 55, 1)    765         lambda_4[0][0]                   
__________________________________________________________________________________________________
conv2d_24 (Conv2D)              (None, 55, 55, 1)    765         lambda_4[0][1]                   
__________________________________________________________________________________________________
conv2d_25 (Conv2D)              (None, 55, 55, 1)    774         lambda_4[0][2]                   
__________________________________________________________________________________________________
conv2d_26 (Conv2D)              (None, 55, 55, 256)  256         conv2d_23[0][0]                  
__________________________________________________________________________________________________
conv2d_27 (Conv2D)              (None, 55, 55, 256)  256         conv2d_24[0][0]                  
__________________________________________________________________________________________________
conv2d_28 (Conv2D)              (None, 55, 55, 256)  512         conv2d_25[0][0]                  
__________________________________________________________________________________________________
add_5 (Add)                     (None, 55, 55, 256)  0           conv2d_26[0][0]                  
                                                                 conv2d_27[0][0]                  
                                                                 conv2d_28[0][0]                  
__________________________________________________________________________________________________
max_pooling2d_2 (MaxPooling2D)  (None, 28, 28, 256)  0           add_5[0][0]                      
__________________________________________________________________________________________________
conv2d_16 (Conv2D)              (None, 28, 28, 256)  32768       add_3[0][0]                      
__________________________________________________________________________________________________
add_6 (Add)                     (None, 28, 28, 256)  0           max_pooling2d_2[0][0]            
                                                                 conv2d_16[0][0]                  
__________________________________________________________________________________________________
activation_4 (Activation)       (None, 28, 28, 256)  0           add_6[0][0]                      
__________________________________________________________________________________________________
lambda_5 (Lambda)               [(None, 28, 28, 85), 0           activation_4[0][0]               
__________________________________________________________________________________________________
conv2d_30 (Conv2D)              (None, 28, 28, 1)    765         lambda_5[0][0]                   
__________________________________________________________________________________________________
conv2d_31 (Conv2D)              (None, 28, 28, 1)    765         lambda_5[0][1]                   
__________________________________________________________________________________________________
conv2d_32 (Conv2D)              (None, 28, 28, 1)    774         lambda_5[0][2]                   
__________________________________________________________________________________________________
conv2d_33 (Conv2D)              (None, 28, 28, 728)  728         conv2d_30[0][0]                  
__________________________________________________________________________________________________
conv2d_34 (Conv2D)              (None, 28, 28, 728)  728         conv2d_31[0][0]                  
__________________________________________________________________________________________________
conv2d_35 (Conv2D)              (None, 28, 28, 728)  1456        conv2d_32[0][0]                  
__________________________________________________________________________________________________
add_7 (Add)                     (None, 28, 28, 728)  0           conv2d_33[0][0]                  
                                                                 conv2d_34[0][0]                  
                                                                 conv2d_35[0][0]                  
__________________________________________________________________________________________________
activation_5 (Activation)       (None, 28, 28, 728)  0           add_7[0][0]                      
__________________________________________________________________________________________________
lambda_6 (Lambda)               [(None, 28, 28, 242) 0           activation_5[0][0]               
__________________________________________________________________________________________________
conv2d_36 (Conv2D)              (None, 28, 28, 1)    2178        lambda_6[0][0]                   
__________________________________________________________________________________________________
conv2d_37 (Conv2D)              (None, 28, 28, 1)    2187        lambda_6[0][1]                   
__________________________________________________________________________________________________
conv2d_38 (Conv2D)              (None, 28, 28, 1)    2187        lambda_6[0][2]                   
__________________________________________________________________________________________________
conv2d_39 (Conv2D)              (None, 28, 28, 728)  728         conv2d_36[0][0]                  
__________________________________________________________________________________________________
conv2d_40 (Conv2D)              (None, 28, 28, 728)  728         conv2d_37[0][0]                  
__________________________________________________________________________________________________
conv2d_41 (Conv2D)              (None, 28, 28, 728)  1456        conv2d_38[0][0]                  
__________________________________________________________________________________________________
add_8 (Add)                     (None, 28, 28, 728)  0           conv2d_39[0][0]                  
                                                                 conv2d_40[0][0]                  
                                                                 conv2d_41[0][0]                  
__________________________________________________________________________________________________
max_pooling2d_3 (MaxPooling2D)  (None, 14, 14, 728)  0           add_8[0][0]                      
__________________________________________________________________________________________________
conv2d_29 (Conv2D)              (None, 14, 14, 728)  186368      add_6[0][0]                      
__________________________________________________________________________________________________
add_9 (Add)                     (None, 14, 14, 728)  0           max_pooling2d_3[0][0]            
                                                                 conv2d_29[0][0]                  
__________________________________________________________________________________________________
activation_6 (Activation)       (None, 14, 14, 728)  0           add_9[0][0]                      
__________________________________________________________________________________________________
lambda_7 (Lambda)               [(None, 14, 14, 242) 0           activation_6[0][0]               
__________________________________________________________________________________________________
conv2d_42 (Conv2D)              (None, 14, 14, 1)    2178        lambda_7[0][0]                   
__________________________________________________________________________________________________
conv2d_43 (Conv2D)              (None, 14, 14, 1)    2187        lambda_7[0][1]                   
__________________________________________________________________________________________________
conv2d_44 (Conv2D)              (None, 14, 14, 1)    2187        lambda_7[0][2]                   
__________________________________________________________________________________________________
conv2d_45 (Conv2D)              (None, 14, 14, 728)  728         conv2d_42[0][0]                  
__________________________________________________________________________________________________
conv2d_46 (Conv2D)              (None, 14, 14, 728)  728         conv2d_43[0][0]                  
__________________________________________________________________________________________________
conv2d_47 (Conv2D)              (None, 14, 14, 728)  1456        conv2d_44[0][0]                  
__________________________________________________________________________________________________
add_10 (Add)                    (None, 14, 14, 728)  0           conv2d_45[0][0]                  
                                                                 conv2d_46[0][0]                  
                                                                 conv2d_47[0][0]                  
__________________________________________________________________________________________________
activation_7 (Activation)       (None, 14, 14, 728)  0           add_10[0][0]                     
__________________________________________________________________________________________________
lambda_8 (Lambda)               [(None, 14, 14, 242) 0           activation_7[0][0]               
__________________________________________________________________________________________________
conv2d_48 (Conv2D)              (None, 14, 14, 1)    2178        lambda_8[0][0]                   
__________________________________________________________________________________________________
conv2d_49 (Conv2D)              (None, 14, 14, 1)    2187        lambda_8[0][1]                   
__________________________________________________________________________________________________
conv2d_50 (Conv2D)              (None, 14, 14, 1)    2187        lambda_8[0][2]                   
__________________________________________________________________________________________________
conv2d_51 (Conv2D)              (None, 14, 14, 728)  728         conv2d_48[0][0]                  
__________________________________________________________________________________________________
conv2d_52 (Conv2D)              (None, 14, 14, 728)  728         conv2d_49[0][0]                  
__________________________________________________________________________________________________
conv2d_53 (Conv2D)              (None, 14, 14, 728)  1456        conv2d_50[0][0]                  
__________________________________________________________________________________________________
add_11 (Add)                    (None, 14, 14, 728)  0           conv2d_51[0][0]                  
                                                                 conv2d_52[0][0]                  
                                                                 conv2d_53[0][0]                  
__________________________________________________________________________________________________
activation_8 (Activation)       (None, 14, 14, 728)  0           add_11[0][0]                     
__________________________________________________________________________________________________
lambda_9 (Lambda)               [(None, 14, 14, 242) 0           activation_8[0][0]               
__________________________________________________________________________________________________
conv2d_54 (Conv2D)              (None, 14, 14, 1)    2178        lambda_9[0][0]                   
__________________________________________________________________________________________________
conv2d_55 (Conv2D)              (None, 14, 14, 1)    2187        lambda_9[0][1]                   
__________________________________________________________________________________________________
conv2d_56 (Conv2D)              (None, 14, 14, 1)    2187        lambda_9[0][2]                   
__________________________________________________________________________________________________
conv2d_57 (Conv2D)              (None, 14, 14, 728)  728         conv2d_54[0][0]                  
__________________________________________________________________________________________________
conv2d_58 (Conv2D)              (None, 14, 14, 728)  728         conv2d_55[0][0]                  
__________________________________________________________________________________________________
conv2d_59 (Conv2D)              (None, 14, 14, 728)  1456        conv2d_56[0][0]                  
__________________________________________________________________________________________________
add_12 (Add)                    (None, 14, 14, 728)  0           conv2d_57[0][0]                  
                                                                 conv2d_58[0][0]                  
                                                                 conv2d_59[0][0]                  
__________________________________________________________________________________________________
add_13 (Add)                    (None, 14, 14, 728)  0           add_12[0][0]                     
                                                                 add_9[0][0]                      
__________________________________________________________________________________________________
activation_9 (Activation)       (None, 14, 14, 728)  0           add_13[0][0]                     
__________________________________________________________________________________________________
lambda_10 (Lambda)              [(None, 14, 14, 242) 0           activation_9[0][0]               
__________________________________________________________________________________________________
conv2d_60 (Conv2D)              (None, 14, 14, 1)    2178        lambda_10[0][0]                  
__________________________________________________________________________________________________
conv2d_61 (Conv2D)              (None, 14, 14, 1)    2187        lambda_10[0][1]                  
__________________________________________________________________________________________________
conv2d_62 (Conv2D)              (None, 14, 14, 1)    2187        lambda_10[0][2]                  
__________________________________________________________________________________________________
conv2d_63 (Conv2D)              (None, 14, 14, 728)  728         conv2d_60[0][0]                  
__________________________________________________________________________________________________
conv2d_64 (Conv2D)              (None, 14, 14, 728)  728         conv2d_61[0][0]                  
__________________________________________________________________________________________________
conv2d_65 (Conv2D)              (None, 14, 14, 728)  1456        conv2d_62[0][0]                  
__________________________________________________________________________________________________
add_14 (Add)                    (None, 14, 14, 728)  0           conv2d_63[0][0]                  
                                                                 conv2d_64[0][0]                  
                                                                 conv2d_65[0][0]                  
__________________________________________________________________________________________________
activation_10 (Activation)      (None, 14, 14, 728)  0           add_14[0][0]                     
__________________________________________________________________________________________________
lambda_11 (Lambda)              [(None, 14, 14, 242) 0           activation_10[0][0]              
__________________________________________________________________________________________________
conv2d_66 (Conv2D)              (None, 14, 14, 1)    2178        lambda_11[0][0]                  
__________________________________________________________________________________________________
conv2d_67 (Conv2D)              (None, 14, 14, 1)    2187        lambda_11[0][1]                  
__________________________________________________________________________________________________
conv2d_68 (Conv2D)              (None, 14, 14, 1)    2187        lambda_11[0][2]                  
__________________________________________________________________________________________________
conv2d_69 (Conv2D)              (None, 14, 14, 728)  728         conv2d_66[0][0]                  
__________________________________________________________________________________________________
conv2d_70 (Conv2D)              (None, 14, 14, 728)  728         conv2d_67[0][0]                  
__________________________________________________________________________________________________
conv2d_71 (Conv2D)              (None, 14, 14, 728)  1456        conv2d_68[0][0]                  
__________________________________________________________________________________________________
add_15 (Add)                    (None, 14, 14, 728)  0           conv2d_69[0][0]                  
                                                                 conv2d_70[0][0]                  
                                                                 conv2d_71[0][0]                  
__________________________________________________________________________________________________
activation_11 (Activation)      (None, 14, 14, 728)  0           add_15[0][0]                     
__________________________________________________________________________________________________
lambda_12 (Lambda)              [(None, 14, 14, 242) 0           activation_11[0][0]              
__________________________________________________________________________________________________
conv2d_72 (Conv2D)              (None, 14, 14, 1)    2178        lambda_12[0][0]                  
__________________________________________________________________________________________________
conv2d_73 (Conv2D)              (None, 14, 14, 1)    2187        lambda_12[0][1]                  
__________________________________________________________________________________________________
conv2d_74 (Conv2D)              (None, 14, 14, 1)    2187        lambda_12[0][2]                  
__________________________________________________________________________________________________
conv2d_75 (Conv2D)              (None, 14, 14, 728)  728         conv2d_72[0][0]                  
__________________________________________________________________________________________________
conv2d_76 (Conv2D)              (None, 14, 14, 728)  728         conv2d_73[0][0]                  
__________________________________________________________________________________________________
conv2d_77 (Conv2D)              (None, 14, 14, 728)  1456        conv2d_74[0][0]                  
__________________________________________________________________________________________________
add_16 (Add)                    (None, 14, 14, 728)  0           conv2d_75[0][0]                  
                                                                 conv2d_76[0][0]                  
                                                                 conv2d_77[0][0]                  
__________________________________________________________________________________________________
add_17 (Add)                    (None, 14, 14, 728)  0           add_16[0][0]                     
                                                                 add_13[0][0]                     
__________________________________________________________________________________________________
activation_12 (Activation)      (None, 14, 14, 728)  0           add_17[0][0]                     
__________________________________________________________________________________________________
lambda_13 (Lambda)              [(None, 14, 14, 242) 0           activation_12[0][0]              
__________________________________________________________________________________________________
conv2d_78 (Conv2D)              (None, 14, 14, 1)    2178        lambda_13[0][0]                  
__________________________________________________________________________________________________
conv2d_79 (Conv2D)              (None, 14, 14, 1)    2187        lambda_13[0][1]                  
__________________________________________________________________________________________________
conv2d_80 (Conv2D)              (None, 14, 14, 1)    2187        lambda_13[0][2]                  
__________________________________________________________________________________________________
conv2d_81 (Conv2D)              (None, 14, 14, 728)  728         conv2d_78[0][0]                  
__________________________________________________________________________________________________
conv2d_82 (Conv2D)              (None, 14, 14, 728)  728         conv2d_79[0][0]                  
__________________________________________________________________________________________________
conv2d_83 (Conv2D)              (None, 14, 14, 728)  1456        conv2d_80[0][0]                  
__________________________________________________________________________________________________
add_18 (Add)                    (None, 14, 14, 728)  0           conv2d_81[0][0]                  
                                                                 conv2d_82[0][0]                  
                                                                 conv2d_83[0][0]                  
__________________________________________________________________________________________________
activation_13 (Activation)      (None, 14, 14, 728)  0           add_18[0][0]                     
__________________________________________________________________________________________________
lambda_14 (Lambda)              [(None, 14, 14, 242) 0           activation_13[0][0]              
__________________________________________________________________________________________________
conv2d_84 (Conv2D)              (None, 14, 14, 1)    2178        lambda_14[0][0]                  
__________________________________________________________________________________________________
conv2d_85 (Conv2D)              (None, 14, 14, 1)    2187        lambda_14[0][1]                  
__________________________________________________________________________________________________
conv2d_86 (Conv2D)              (None, 14, 14, 1)    2187        lambda_14[0][2]                  
__________________________________________________________________________________________________
conv2d_87 (Conv2D)              (None, 14, 14, 728)  728         conv2d_84[0][0]                  
__________________________________________________________________________________________________
conv2d_88 (Conv2D)              (None, 14, 14, 728)  728         conv2d_85[0][0]                  
__________________________________________________________________________________________________
conv2d_89 (Conv2D)              (None, 14, 14, 728)  1456        conv2d_86[0][0]                  
__________________________________________________________________________________________________
add_19 (Add)                    (None, 14, 14, 728)  0           conv2d_87[0][0]                  
                                                                 conv2d_88[0][0]                  
                                                                 conv2d_89[0][0]                  
__________________________________________________________________________________________________
activation_14 (Activation)      (None, 14, 14, 728)  0           add_19[0][0]                     
__________________________________________________________________________________________________
lambda_15 (Lambda)              [(None, 14, 14, 242) 0           activation_14[0][0]              
__________________________________________________________________________________________________
conv2d_90 (Conv2D)              (None, 14, 14, 1)    2178        lambda_15[0][0]                  
__________________________________________________________________________________________________
conv2d_91 (Conv2D)              (None, 14, 14, 1)    2187        lambda_15[0][1]                  
__________________________________________________________________________________________________
conv2d_92 (Conv2D)              (None, 14, 14, 1)    2187        lambda_15[0][2]                  
__________________________________________________________________________________________________
conv2d_93 (Conv2D)              (None, 14, 14, 728)  728         conv2d_90[0][0]                  
__________________________________________________________________________________________________
conv2d_94 (Conv2D)              (None, 14, 14, 728)  728         conv2d_91[0][0]                  
__________________________________________________________________________________________________
conv2d_95 (Conv2D)              (None, 14, 14, 728)  1456        conv2d_92[0][0]                  
__________________________________________________________________________________________________
add_20 (Add)                    (None, 14, 14, 728)  0           conv2d_93[0][0]                  
                                                                 conv2d_94[0][0]                  
                                                                 conv2d_95[0][0]                  
__________________________________________________________________________________________________
add_21 (Add)                    (None, 14, 14, 728)  0           add_20[0][0]                     
                                                                 add_17[0][0]                     
__________________________________________________________________________________________________
activation_15 (Activation)      (None, 14, 14, 728)  0           add_21[0][0]                     
__________________________________________________________________________________________________
lambda_16 (Lambda)              [(None, 14, 14, 242) 0           activation_15[0][0]              
__________________________________________________________________________________________________
conv2d_96 (Conv2D)              (None, 14, 14, 1)    2178        lambda_16[0][0]                  
__________________________________________________________________________________________________
conv2d_97 (Conv2D)              (None, 14, 14, 1)    2187        lambda_16[0][1]                  
__________________________________________________________________________________________________
conv2d_98 (Conv2D)              (None, 14, 14, 1)    2187        lambda_16[0][2]                  
__________________________________________________________________________________________________
conv2d_99 (Conv2D)              (None, 14, 14, 728)  728         conv2d_96[0][0]                  
__________________________________________________________________________________________________
conv2d_100 (Conv2D)             (None, 14, 14, 728)  728         conv2d_97[0][0]                  
__________________________________________________________________________________________________
conv2d_101 (Conv2D)             (None, 14, 14, 728)  1456        conv2d_98[0][0]                  
__________________________________________________________________________________________________
add_22 (Add)                    (None, 14, 14, 728)  0           conv2d_99[0][0]                  
                                                                 conv2d_100[0][0]                 
                                                                 conv2d_101[0][0]                 
__________________________________________________________________________________________________
activation_16 (Activation)      (None, 14, 14, 728)  0           add_22[0][0]                     
__________________________________________________________________________________________________
lambda_17 (Lambda)              [(None, 14, 14, 242) 0           activation_16[0][0]              
__________________________________________________________________________________________________
conv2d_102 (Conv2D)             (None, 14, 14, 1)    2178        lambda_17[0][0]                  
__________________________________________________________________________________________________
conv2d_103 (Conv2D)             (None, 14, 14, 1)    2187        lambda_17[0][1]                  
__________________________________________________________________________________________________
conv2d_104 (Conv2D)             (None, 14, 14, 1)    2187        lambda_17[0][2]                  
__________________________________________________________________________________________________
conv2d_105 (Conv2D)             (None, 14, 14, 728)  728         conv2d_102[0][0]                 
__________________________________________________________________________________________________
conv2d_106 (Conv2D)             (None, 14, 14, 728)  728         conv2d_103[0][0]                 
__________________________________________________________________________________________________
conv2d_107 (Conv2D)             (None, 14, 14, 728)  1456        conv2d_104[0][0]                 
__________________________________________________________________________________________________
add_23 (Add)                    (None, 14, 14, 728)  0           conv2d_105[0][0]                 
                                                                 conv2d_106[0][0]                 
                                                                 conv2d_107[0][0]                 
__________________________________________________________________________________________________
activation_17 (Activation)      (None, 14, 14, 728)  0           add_23[0][0]                     
__________________________________________________________________________________________________
lambda_18 (Lambda)              [(None, 14, 14, 242) 0           activation_17[0][0]              
__________________________________________________________________________________________________
conv2d_108 (Conv2D)             (None, 14, 14, 1)    2178        lambda_18[0][0]                  
__________________________________________________________________________________________________
conv2d_109 (Conv2D)             (None, 14, 14, 1)    2187        lambda_18[0][1]                  
__________________________________________________________________________________________________
conv2d_110 (Conv2D)             (None, 14, 14, 1)    2187        lambda_18[0][2]                  
__________________________________________________________________________________________________
conv2d_111 (Conv2D)             (None, 14, 14, 728)  728         conv2d_108[0][0]                 
__________________________________________________________________________________________________
conv2d_112 (Conv2D)             (None, 14, 14, 728)  728         conv2d_109[0][0]                 
__________________________________________________________________________________________________
conv2d_113 (Conv2D)             (None, 14, 14, 728)  1456        conv2d_110[0][0]                 
__________________________________________________________________________________________________
add_24 (Add)                    (None, 14, 14, 728)  0           conv2d_111[0][0]                 
                                                                 conv2d_112[0][0]                 
                                                                 conv2d_113[0][0]                 
__________________________________________________________________________________________________
add_25 (Add)                    (None, 14, 14, 728)  0           add_24[0][0]                     
                                                                 add_21[0][0]                     
__________________________________________________________________________________________________
activation_18 (Activation)      (None, 14, 14, 728)  0           add_25[0][0]                     
__________________________________________________________________________________________________
lambda_19 (Lambda)              [(None, 14, 14, 242) 0           activation_18[0][0]              
__________________________________________________________________________________________________
conv2d_114 (Conv2D)             (None, 14, 14, 1)    2178        lambda_19[0][0]                  
__________________________________________________________________________________________________
conv2d_115 (Conv2D)             (None, 14, 14, 1)    2187        lambda_19[0][1]                  
__________________________________________________________________________________________________
conv2d_116 (Conv2D)             (None, 14, 14, 1)    2187        lambda_19[0][2]                  
__________________________________________________________________________________________________
conv2d_117 (Conv2D)             (None, 14, 14, 728)  728         conv2d_114[0][0]                 
__________________________________________________________________________________________________
conv2d_118 (Conv2D)             (None, 14, 14, 728)  728         conv2d_115[0][0]                 
__________________________________________________________________________________________________
conv2d_119 (Conv2D)             (None, 14, 14, 728)  1456        conv2d_116[0][0]                 
__________________________________________________________________________________________________
add_26 (Add)                    (None, 14, 14, 728)  0           conv2d_117[0][0]                 
                                                                 conv2d_118[0][0]                 
                                                                 conv2d_119[0][0]                 
__________________________________________________________________________________________________
activation_19 (Activation)      (None, 14, 14, 728)  0           add_26[0][0]                     
__________________________________________________________________________________________________
lambda_20 (Lambda)              [(None, 14, 14, 242) 0           activation_19[0][0]              
__________________________________________________________________________________________________
conv2d_120 (Conv2D)             (None, 14, 14, 1)    2178        lambda_20[0][0]                  
__________________________________________________________________________________________________
conv2d_121 (Conv2D)             (None, 14, 14, 1)    2187        lambda_20[0][1]                  
__________________________________________________________________________________________________
conv2d_122 (Conv2D)             (None, 14, 14, 1)    2187        lambda_20[0][2]                  
__________________________________________________________________________________________________
conv2d_123 (Conv2D)             (None, 14, 14, 728)  728         conv2d_120[0][0]                 
__________________________________________________________________________________________________
conv2d_124 (Conv2D)             (None, 14, 14, 728)  728         conv2d_121[0][0]                 
__________________________________________________________________________________________________
conv2d_125 (Conv2D)             (None, 14, 14, 728)  1456        conv2d_122[0][0]                 
__________________________________________________________________________________________________
add_27 (Add)                    (None, 14, 14, 728)  0           conv2d_123[0][0]                 
                                                                 conv2d_124[0][0]                 
                                                                 conv2d_125[0][0]                 
__________________________________________________________________________________________________
activation_20 (Activation)      (None, 14, 14, 728)  0           add_27[0][0]                     
__________________________________________________________________________________________________
lambda_21 (Lambda)              [(None, 14, 14, 242) 0           activation_20[0][0]              
__________________________________________________________________________________________________
conv2d_126 (Conv2D)             (None, 14, 14, 1)    2178        lambda_21[0][0]                  
__________________________________________________________________________________________________
conv2d_127 (Conv2D)             (None, 14, 14, 1)    2187        lambda_21[0][1]                  
__________________________________________________________________________________________________
conv2d_128 (Conv2D)             (None, 14, 14, 1)    2187        lambda_21[0][2]                  
__________________________________________________________________________________________________
conv2d_129 (Conv2D)             (None, 14, 14, 728)  728         conv2d_126[0][0]                 
__________________________________________________________________________________________________
conv2d_130 (Conv2D)             (None, 14, 14, 728)  728         conv2d_127[0][0]                 
__________________________________________________________________________________________________
conv2d_131 (Conv2D)             (None, 14, 14, 728)  1456        conv2d_128[0][0]                 
__________________________________________________________________________________________________
add_28 (Add)                    (None, 14, 14, 728)  0           conv2d_129[0][0]                 
                                                                 conv2d_130[0][0]                 
                                                                 conv2d_131[0][0]                 
__________________________________________________________________________________________________
add_29 (Add)                    (None, 14, 14, 728)  0           add_28[0][0]                     
                                                                 add_25[0][0]                     
__________________________________________________________________________________________________
activation_21 (Activation)      (None, 14, 14, 728)  0           add_29[0][0]                     
__________________________________________________________________________________________________
lambda_22 (Lambda)              [(None, 14, 14, 242) 0           activation_21[0][0]              
__________________________________________________________________________________________________
conv2d_132 (Conv2D)             (None, 14, 14, 1)    2178        lambda_22[0][0]                  
__________________________________________________________________________________________________
conv2d_133 (Conv2D)             (None, 14, 14, 1)    2187        lambda_22[0][1]                  
__________________________________________________________________________________________________
conv2d_134 (Conv2D)             (None, 14, 14, 1)    2187        lambda_22[0][2]                  
__________________________________________________________________________________________________
conv2d_135 (Conv2D)             (None, 14, 14, 728)  728         conv2d_132[0][0]                 
__________________________________________________________________________________________________
conv2d_136 (Conv2D)             (None, 14, 14, 728)  728         conv2d_133[0][0]                 
__________________________________________________________________________________________________
conv2d_137 (Conv2D)             (None, 14, 14, 728)  1456        conv2d_134[0][0]                 
__________________________________________________________________________________________________
add_30 (Add)                    (None, 14, 14, 728)  0           conv2d_135[0][0]                 
                                                                 conv2d_136[0][0]                 
                                                                 conv2d_137[0][0]                 
__________________________________________________________________________________________________
activation_22 (Activation)      (None, 14, 14, 728)  0           add_30[0][0]                     
__________________________________________________________________________________________________
lambda_23 (Lambda)              [(None, 14, 14, 242) 0           activation_22[0][0]              
__________________________________________________________________________________________________
conv2d_138 (Conv2D)             (None, 14, 14, 1)    2178        lambda_23[0][0]                  
__________________________________________________________________________________________________
conv2d_139 (Conv2D)             (None, 14, 14, 1)    2187        lambda_23[0][1]                  
__________________________________________________________________________________________________
conv2d_140 (Conv2D)             (None, 14, 14, 1)    2187        lambda_23[0][2]                  
__________________________________________________________________________________________________
conv2d_141 (Conv2D)             (None, 14, 14, 728)  728         conv2d_138[0][0]                 
__________________________________________________________________________________________________
conv2d_142 (Conv2D)             (None, 14, 14, 728)  728         conv2d_139[0][0]                 
__________________________________________________________________________________________________
conv2d_143 (Conv2D)             (None, 14, 14, 728)  1456        conv2d_140[0][0]                 
__________________________________________________________________________________________________
add_31 (Add)                    (None, 14, 14, 728)  0           conv2d_141[0][0]                 
                                                                 conv2d_142[0][0]                 
                                                                 conv2d_143[0][0]                 
__________________________________________________________________________________________________
activation_23 (Activation)      (None, 14, 14, 728)  0           add_31[0][0]                     
__________________________________________________________________________________________________
lambda_24 (Lambda)              [(None, 14, 14, 242) 0           activation_23[0][0]              
__________________________________________________________________________________________________
conv2d_144 (Conv2D)             (None, 14, 14, 1)    2178        lambda_24[0][0]                  
__________________________________________________________________________________________________
conv2d_145 (Conv2D)             (None, 14, 14, 1)    2187        lambda_24[0][1]                  
__________________________________________________________________________________________________
conv2d_146 (Conv2D)             (None, 14, 14, 1)    2187        lambda_24[0][2]                  
__________________________________________________________________________________________________
conv2d_147 (Conv2D)             (None, 14, 14, 728)  728         conv2d_144[0][0]                 
__________________________________________________________________________________________________
conv2d_148 (Conv2D)             (None, 14, 14, 728)  728         conv2d_145[0][0]                 
__________________________________________________________________________________________________
conv2d_149 (Conv2D)             (None, 14, 14, 728)  1456        conv2d_146[0][0]                 
__________________________________________________________________________________________________
add_32 (Add)                    (None, 14, 14, 728)  0           conv2d_147[0][0]                 
                                                                 conv2d_148[0][0]                 
                                                                 conv2d_149[0][0]                 
__________________________________________________________________________________________________
add_33 (Add)                    (None, 14, 14, 728)  0           add_32[0][0]                     
                                                                 add_29[0][0]                     
__________________________________________________________________________________________________
activation_24 (Activation)      (None, 14, 14, 728)  0           add_33[0][0]                     
__________________________________________________________________________________________________
lambda_25 (Lambda)              [(None, 14, 14, 242) 0           activation_24[0][0]              
__________________________________________________________________________________________________
conv2d_150 (Conv2D)             (None, 14, 14, 1)    2178        lambda_25[0][0]                  
__________________________________________________________________________________________________
conv2d_151 (Conv2D)             (None, 14, 14, 1)    2187        lambda_25[0][1]                  
__________________________________________________________________________________________________
conv2d_152 (Conv2D)             (None, 14, 14, 1)    2187        lambda_25[0][2]                  
__________________________________________________________________________________________________
conv2d_153 (Conv2D)             (None, 14, 14, 728)  728         conv2d_150[0][0]                 
__________________________________________________________________________________________________
conv2d_154 (Conv2D)             (None, 14, 14, 728)  728         conv2d_151[0][0]                 
__________________________________________________________________________________________________
conv2d_155 (Conv2D)             (None, 14, 14, 728)  1456        conv2d_152[0][0]                 
__________________________________________________________________________________________________
add_34 (Add)                    (None, 14, 14, 728)  0           conv2d_153[0][0]                 
                                                                 conv2d_154[0][0]                 
                                                                 conv2d_155[0][0]                 
__________________________________________________________________________________________________
activation_25 (Activation)      (None, 14, 14, 728)  0           add_34[0][0]                     
__________________________________________________________________________________________________
lambda_26 (Lambda)              [(None, 14, 14, 242) 0           activation_25[0][0]              
__________________________________________________________________________________________________
conv2d_156 (Conv2D)             (None, 14, 14, 1)    2178        lambda_26[0][0]                  
__________________________________________________________________________________________________
conv2d_157 (Conv2D)             (None, 14, 14, 1)    2187        lambda_26[0][1]                  
__________________________________________________________________________________________________
conv2d_158 (Conv2D)             (None, 14, 14, 1)    2187        lambda_26[0][2]                  
__________________________________________________________________________________________________
conv2d_159 (Conv2D)             (None, 14, 14, 728)  728         conv2d_156[0][0]                 
__________________________________________________________________________________________________
conv2d_160 (Conv2D)             (None, 14, 14, 728)  728         conv2d_157[0][0]                 
__________________________________________________________________________________________________
conv2d_161 (Conv2D)             (None, 14, 14, 728)  1456        conv2d_158[0][0]                 
__________________________________________________________________________________________________
add_35 (Add)                    (None, 14, 14, 728)  0           conv2d_159[0][0]                 
                                                                 conv2d_160[0][0]                 
                                                                 conv2d_161[0][0]                 
__________________________________________________________________________________________________
activation_26 (Activation)      (None, 14, 14, 728)  0           add_35[0][0]                     
__________________________________________________________________________________________________
lambda_27 (Lambda)              [(None, 14, 14, 242) 0           activation_26[0][0]              
__________________________________________________________________________________________________
conv2d_162 (Conv2D)             (None, 14, 14, 1)    2178        lambda_27[0][0]                  
__________________________________________________________________________________________________
conv2d_163 (Conv2D)             (None, 14, 14, 1)    2187        lambda_27[0][1]                  
__________________________________________________________________________________________________
conv2d_164 (Conv2D)             (None, 14, 14, 1)    2187        lambda_27[0][2]                  
__________________________________________________________________________________________________
conv2d_165 (Conv2D)             (None, 14, 14, 728)  728         conv2d_162[0][0]                 
__________________________________________________________________________________________________
conv2d_166 (Conv2D)             (None, 14, 14, 728)  728         conv2d_163[0][0]                 
__________________________________________________________________________________________________
conv2d_167 (Conv2D)             (None, 14, 14, 728)  1456        conv2d_164[0][0]                 
__________________________________________________________________________________________________
add_36 (Add)                    (None, 14, 14, 728)  0           conv2d_165[0][0]                 
                                                                 conv2d_166[0][0]                 
                                                                 conv2d_167[0][0]                 
__________________________________________________________________________________________________
add_37 (Add)                    (None, 14, 14, 728)  0           add_36[0][0]                     
                                                                 add_33[0][0]                     
__________________________________________________________________________________________________
activation_27 (Activation)      (None, 14, 14, 728)  0           add_37[0][0]                     
__________________________________________________________________________________________________
lambda_28 (Lambda)              [(None, 14, 14, 242) 0           activation_27[0][0]              
__________________________________________________________________________________________________
conv2d_168 (Conv2D)             (None, 14, 14, 1)    2178        lambda_28[0][0]                  
__________________________________________________________________________________________________
conv2d_169 (Conv2D)             (None, 14, 14, 1)    2187        lambda_28[0][1]                  
__________________________________________________________________________________________________
conv2d_170 (Conv2D)             (None, 14, 14, 1)    2187        lambda_28[0][2]                  
__________________________________________________________________________________________________
conv2d_171 (Conv2D)             (None, 14, 14, 728)  728         conv2d_168[0][0]                 
__________________________________________________________________________________________________
conv2d_172 (Conv2D)             (None, 14, 14, 728)  728         conv2d_169[0][0]                 
__________________________________________________________________________________________________
conv2d_173 (Conv2D)             (None, 14, 14, 728)  1456        conv2d_170[0][0]                 
__________________________________________________________________________________________________
add_38 (Add)                    (None, 14, 14, 728)  0           conv2d_171[0][0]                 
                                                                 conv2d_172[0][0]                 
                                                                 conv2d_173[0][0]                 
__________________________________________________________________________________________________
activation_28 (Activation)      (None, 14, 14, 728)  0           add_38[0][0]                     
__________________________________________________________________________________________________
lambda_29 (Lambda)              [(None, 14, 14, 242) 0           activation_28[0][0]              
__________________________________________________________________________________________________
conv2d_174 (Conv2D)             (None, 14, 14, 1)    2178        lambda_29[0][0]                  
__________________________________________________________________________________________________
conv2d_175 (Conv2D)             (None, 14, 14, 1)    2187        lambda_29[0][1]                  
__________________________________________________________________________________________________
conv2d_176 (Conv2D)             (None, 14, 14, 1)    2187        lambda_29[0][2]                  
__________________________________________________________________________________________________
conv2d_177 (Conv2D)             (None, 14, 14, 728)  728         conv2d_174[0][0]                 
__________________________________________________________________________________________________
conv2d_178 (Conv2D)             (None, 14, 14, 728)  728         conv2d_175[0][0]                 
__________________________________________________________________________________________________
conv2d_179 (Conv2D)             (None, 14, 14, 728)  1456        conv2d_176[0][0]                 
__________________________________________________________________________________________________
add_39 (Add)                    (None, 14, 14, 728)  0           conv2d_177[0][0]                 
                                                                 conv2d_178[0][0]                 
                                                                 conv2d_179[0][0]                 
__________________________________________________________________________________________________
activation_29 (Activation)      (None, 14, 14, 728)  0           add_39[0][0]                     
__________________________________________________________________________________________________
lambda_30 (Lambda)              [(None, 14, 14, 242) 0           activation_29[0][0]              
__________________________________________________________________________________________________
conv2d_180 (Conv2D)             (None, 14, 14, 1)    2178        lambda_30[0][0]                  
__________________________________________________________________________________________________
conv2d_181 (Conv2D)             (None, 14, 14, 1)    2187        lambda_30[0][1]                  
__________________________________________________________________________________________________
conv2d_182 (Conv2D)             (None, 14, 14, 1)    2187        lambda_30[0][2]                  
__________________________________________________________________________________________________
conv2d_183 (Conv2D)             (None, 14, 14, 728)  728         conv2d_180[0][0]                 
__________________________________________________________________________________________________
conv2d_184 (Conv2D)             (None, 14, 14, 728)  728         conv2d_181[0][0]                 
__________________________________________________________________________________________________
conv2d_185 (Conv2D)             (None, 14, 14, 728)  1456        conv2d_182[0][0]                 
__________________________________________________________________________________________________
add_40 (Add)                    (None, 14, 14, 728)  0           conv2d_183[0][0]                 
                                                                 conv2d_184[0][0]                 
                                                                 conv2d_185[0][0]                 
__________________________________________________________________________________________________
add_41 (Add)                    (None, 14, 14, 728)  0           add_40[0][0]                     
                                                                 add_37[0][0]                     
__________________________________________________________________________________________________
activation_30 (Activation)      (None, 14, 14, 728)  0           add_41[0][0]                     
__________________________________________________________________________________________________
lambda_31 (Lambda)              [(None, 14, 14, 242) 0           activation_30[0][0]              
__________________________________________________________________________________________________
conv2d_187 (Conv2D)             (None, 14, 14, 1)    2178        lambda_31[0][0]                  
__________________________________________________________________________________________________
conv2d_188 (Conv2D)             (None, 14, 14, 1)    2187        lambda_31[0][1]                  
__________________________________________________________________________________________________
conv2d_189 (Conv2D)             (None, 14, 14, 1)    2187        lambda_31[0][2]                  
__________________________________________________________________________________________________
conv2d_190 (Conv2D)             (None, 14, 14, 728)  728         conv2d_187[0][0]                 
__________________________________________________________________________________________________
conv2d_191 (Conv2D)             (None, 14, 14, 728)  728         conv2d_188[0][0]                 
__________________________________________________________________________________________________
conv2d_192 (Conv2D)             (None, 14, 14, 728)  1456        conv2d_189[0][0]                 
__________________________________________________________________________________________________
add_42 (Add)                    (None, 14, 14, 728)  0           conv2d_190[0][0]                 
                                                                 conv2d_191[0][0]                 
                                                                 conv2d_192[0][0]                 
__________________________________________________________________________________________________
activation_31 (Activation)      (None, 14, 14, 728)  0           add_42[0][0]                     
__________________________________________________________________________________________________
lambda_32 (Lambda)              [(None, 14, 14, 242) 0           activation_31[0][0]              
__________________________________________________________________________________________________
conv2d_193 (Conv2D)             (None, 14, 14, 1)    2178        lambda_32[0][0]                  
__________________________________________________________________________________________________
conv2d_194 (Conv2D)             (None, 14, 14, 1)    2187        lambda_32[0][1]                  
__________________________________________________________________________________________________
conv2d_195 (Conv2D)             (None, 14, 14, 1)    2187        lambda_32[0][2]                  
__________________________________________________________________________________________________
conv2d_196 (Conv2D)             (None, 14, 14, 1024) 1024        conv2d_193[0][0]                 
__________________________________________________________________________________________________
conv2d_197 (Conv2D)             (None, 14, 14, 1024) 1024        conv2d_194[0][0]                 
__________________________________________________________________________________________________
conv2d_198 (Conv2D)             (None, 14, 14, 1024) 2048        conv2d_195[0][0]                 
__________________________________________________________________________________________________
add_43 (Add)                    (None, 14, 14, 1024) 0           conv2d_196[0][0]                 
                                                                 conv2d_197[0][0]                 
                                                                 conv2d_198[0][0]                 
__________________________________________________________________________________________________
max_pooling2d_4 (MaxPooling2D)  (None, 7, 7, 1024)   0           add_43[0][0]                     
__________________________________________________________________________________________________
conv2d_186 (Conv2D)             (None, 7, 7, 1024)   745472      add_41[0][0]                     
__________________________________________________________________________________________________
add_44 (Add)                    (None, 7, 7, 1024)   0           max_pooling2d_4[0][0]            
                                                                 conv2d_186[0][0]                 
__________________________________________________________________________________________________
lambda_33 (Lambda)              [(None, 7, 7, 341),  0           add_44[0][0]                     
__________________________________________________________________________________________________
conv2d_199 (Conv2D)             (None, 7, 7, 1)      3069        lambda_33[0][0]                  
__________________________________________________________________________________________________
conv2d_200 (Conv2D)             (None, 7, 7, 1)      3069        lambda_33[0][1]                  
__________________________________________________________________________________________________
conv2d_201 (Conv2D)             (None, 7, 7, 1)      3078        lambda_33[0][2]                  
__________________________________________________________________________________________________
conv2d_202 (Conv2D)             (None, 7, 7, 1536)   1536        conv2d_199[0][0]                 
__________________________________________________________________________________________________
conv2d_203 (Conv2D)             (None, 7, 7, 1536)   1536        conv2d_200[0][0]                 
__________________________________________________________________________________________________
conv2d_204 (Conv2D)             (None, 7, 7, 1536)   3072        conv2d_201[0][0]                 
__________________________________________________________________________________________________
add_45 (Add)                    (None, 7, 7, 1536)   0           conv2d_202[0][0]                 
                                                                 conv2d_203[0][0]                 
                                                                 conv2d_204[0][0]                 
__________________________________________________________________________________________________
activation_32 (Activation)      (None, 7, 7, 1536)   0           add_45[0][0]                     
__________________________________________________________________________________________________
lambda_34 (Lambda)              [(None, 7, 7, 512),  0           activation_32[0][0]              
__________________________________________________________________________________________________
conv2d_205 (Conv2D)             (None, 7, 7, 1)      4608        lambda_34[0][0]                  
__________________________________________________________________________________________________
conv2d_206 (Conv2D)             (None, 7, 7, 1)      4608        lambda_34[0][1]                  
__________________________________________________________________________________________________
conv2d_207 (Conv2D)             (None, 7, 7, 1)      4608        lambda_34[0][2]                  
__________________________________________________________________________________________________
conv2d_208 (Conv2D)             (None, 7, 7, 2048)   2048        conv2d_205[0][0]                 
__________________________________________________________________________________________________
conv2d_209 (Conv2D)             (None, 7, 7, 2048)   2048        conv2d_206[0][0]                 
__________________________________________________________________________________________________
conv2d_210 (Conv2D)             (None, 7, 7, 2048)   4096        conv2d_207[0][0]                 
__________________________________________________________________________________________________
add_46 (Add)                    (None, 7, 7, 2048)   0           conv2d_208[0][0]                 
                                                                 conv2d_209[0][0]                 
                                                                 conv2d_210[0][0]                 
__________________________________________________________________________________________________
activation_33 (Activation)      (None, 7, 7, 2048)   0           add_46[0][0]                     
__________________________________________________________________________________________________
global_average_pooling2d_1 (Glo (None, 2048)         0           activation_33[0][0]              
__________________________________________________________________________________________________
dense_1 (Dense)                 (None, 1000)         2049000     global_average_pooling2d_1[0][0] 
==================================================================================================
Total params: 3,348,656
Trainable params: 3,348,656
Non-trainable params: 0
__________________________________________________________________________________________________
None
