__________________________________________________________________________________________________
Layer (type)                    Output Shape         Param #     Connected to                     
==================================================================================================
input_10 (InputLayer)           (None, 224, 224, 3)  0                                            
__________________________________________________________________________________________________
zero_padding2d_20 (ZeroPadding2 (None, 230, 230, 3)  0           input_10[0][0]                   
__________________________________________________________________________________________________
resnet50_filter_1 (Conv2D)      (None, 112, 112, 64) 9472        zero_padding2d_20[0][0]          
__________________________________________________________________________________________________
max_pooling2d_34 (MaxPooling2D) (None, 55, 55, 64)   0           resnet50_filter_1[0][0]          
__________________________________________________________________________________________________
lambda_55 (Lambda)              [(None, 55, 55, 21), 0           max_pooling2d_34[0][0]           
__________________________________________________________________________________________________
resnet50_filter_2a_conv_0 (Conv (None, 55, 55, 64)   1344        lambda_55[0][0]                  
__________________________________________________________________________________________________
resnet50_filter_2a_conv_1 (Conv (None, 55, 55, 64)   1344        lambda_55[0][1]                  
__________________________________________________________________________________________________
resnet50_filter_2a_conv_2 (Conv (None, 55, 55, 64)   1472        lambda_55[0][2]                  
__________________________________________________________________________________________________
add_35 (Add)                    (None, 55, 55, 64)   0           resnet50_filter_2a_conv_0[0][0]  
                                                                 resnet50_filter_2a_conv_1[0][0]  
                                                                 resnet50_filter_2a_conv_2[0][0]  
__________________________________________________________________________________________________
activation_35 (Activation)      (None, 55, 55, 64)   0           add_35[0][0]                     
__________________________________________________________________________________________________
lambda_56 (Lambda)              [(None, 55, 55, 21), 0           activation_35[0][0]              
__________________________________________________________________________________________________
resnet50_filter_2b_conv_0 (Conv (None, 55, 55, 64)   12096       lambda_56[0][0]                  
__________________________________________________________________________________________________
resnet50_filter_2b_conv_1 (Conv (None, 55, 55, 64)   12096       lambda_56[0][1]                  
__________________________________________________________________________________________________
resnet50_filter_2b_conv_2 (Conv (None, 55, 55, 64)   12736       lambda_56[0][2]                  
__________________________________________________________________________________________________
add_36 (Add)                    (None, 55, 55, 64)   0           resnet50_filter_2b_conv_0[0][0]  
                                                                 resnet50_filter_2b_conv_1[0][0]  
                                                                 resnet50_filter_2b_conv_2[0][0]  
__________________________________________________________________________________________________
activation_36 (Activation)      (None, 55, 55, 64)   0           add_36[0][0]                     
__________________________________________________________________________________________________
lambda_57 (Lambda)              [(None, 55, 55, 21), 0           activation_36[0][0]              
__________________________________________________________________________________________________
lambda_58 (Lambda)              [(None, 55, 55, 21), 0           max_pooling2d_34[0][0]           
__________________________________________________________________________________________________
resnet50_filter_2c_conv_0 (Conv (None, 55, 55, 256)  5376        lambda_57[0][0]                  
__________________________________________________________________________________________________
resnet50_filter_2c_conv_1 (Conv (None, 55, 55, 256)  5376        lambda_57[0][1]                  
__________________________________________________________________________________________________
resnet50_filter_2c_conv_2 (Conv (None, 55, 55, 256)  5888        lambda_57[0][2]                  
__________________________________________________________________________________________________
resnet50_filter_2s_conv_0 (Conv (None, 55, 55, 256)  5376        lambda_58[0][0]                  
__________________________________________________________________________________________________
resnet50_filter_2s_conv_1 (Conv (None, 55, 55, 256)  5376        lambda_58[0][1]                  
__________________________________________________________________________________________________
resnet50_filter_2s_conv_2 (Conv (None, 55, 55, 256)  5888        lambda_58[0][2]                  
__________________________________________________________________________________________________
add_37 (Add)                    (None, 55, 55, 256)  0           resnet50_filter_2c_conv_0[0][0]  
                                                                 resnet50_filter_2c_conv_1[0][0]  
                                                                 resnet50_filter_2c_conv_2[0][0]  
__________________________________________________________________________________________________
add_38 (Add)                    (None, 55, 55, 256)  0           resnet50_filter_2s_conv_0[0][0]  
                                                                 resnet50_filter_2s_conv_1[0][0]  
                                                                 resnet50_filter_2s_conv_2[0][0]  
__________________________________________________________________________________________________
add_39 (Add)                    (None, 55, 55, 256)  0           add_37[0][0]                     
                                                                 add_38[0][0]                     
__________________________________________________________________________________________________
activation_37 (Activation)      (None, 55, 55, 256)  0           add_39[0][0]                     
__________________________________________________________________________________________________
lambda_59 (Lambda)              [(None, 55, 55, 85), 0           activation_37[0][0]              
__________________________________________________________________________________________________
resnet50_filter_3a_conv_0 (Conv (None, 55, 55, 64)   5440        lambda_59[0][0]                  
__________________________________________________________________________________________________
resnet50_filter_3a_conv_1 (Conv (None, 55, 55, 64)   5440        lambda_59[0][1]                  
__________________________________________________________________________________________________
resnet50_filter_3a_conv_2 (Conv (None, 55, 55, 64)   5568        lambda_59[0][2]                  
__________________________________________________________________________________________________
add_40 (Add)                    (None, 55, 55, 64)   0           resnet50_filter_3a_conv_0[0][0]  
                                                                 resnet50_filter_3a_conv_1[0][0]  
                                                                 resnet50_filter_3a_conv_2[0][0]  
__________________________________________________________________________________________________
activation_38 (Activation)      (None, 55, 55, 64)   0           add_40[0][0]                     
__________________________________________________________________________________________________
lambda_60 (Lambda)              [(None, 55, 55, 21), 0           activation_38[0][0]              
__________________________________________________________________________________________________
resnet50_filter_3b_conv_0 (Conv (None, 55, 55, 64)   12096       lambda_60[0][0]                  
__________________________________________________________________________________________________
resnet50_filter_3b_conv_1 (Conv (None, 55, 55, 64)   12096       lambda_60[0][1]                  
__________________________________________________________________________________________________
resnet50_filter_3b_conv_2 (Conv (None, 55, 55, 64)   12736       lambda_60[0][2]                  
__________________________________________________________________________________________________
add_41 (Add)                    (None, 55, 55, 64)   0           resnet50_filter_3b_conv_0[0][0]  
                                                                 resnet50_filter_3b_conv_1[0][0]  
                                                                 resnet50_filter_3b_conv_2[0][0]  
__________________________________________________________________________________________________
lambda_61 (Lambda)              [(None, 55, 55, 21), 0           add_41[0][0]                     
__________________________________________________________________________________________________
resnet50_filter_3c_conv_0 (Conv (None, 55, 55, 256)  5376        lambda_61[0][0]                  
__________________________________________________________________________________________________
resnet50_filter_3c_conv_1 (Conv (None, 55, 55, 256)  5376        lambda_61[0][1]                  
__________________________________________________________________________________________________
resnet50_filter_3c_conv_2 (Conv (None, 55, 55, 256)  5888        lambda_61[0][2]                  
__________________________________________________________________________________________________
add_42 (Add)                    (None, 55, 55, 256)  0           resnet50_filter_3c_conv_0[0][0]  
                                                                 resnet50_filter_3c_conv_1[0][0]  
                                                                 resnet50_filter_3c_conv_2[0][0]  
__________________________________________________________________________________________________
add_43 (Add)                    (None, 55, 55, 256)  0           add_42[0][0]                     
                                                                 activation_37[0][0]              
__________________________________________________________________________________________________
activation_39 (Activation)      (None, 55, 55, 256)  0           add_43[0][0]                     
__________________________________________________________________________________________________
lambda_62 (Lambda)              [(None, 55, 55, 85), 0           activation_39[0][0]              
__________________________________________________________________________________________________
resnet50_filter_4a_conv_0 (Conv (None, 55, 55, 64)   5440        lambda_62[0][0]                  
__________________________________________________________________________________________________
resnet50_filter_4a_conv_1 (Conv (None, 55, 55, 64)   5440        lambda_62[0][1]                  
__________________________________________________________________________________________________
resnet50_filter_4a_conv_2 (Conv (None, 55, 55, 64)   5568        lambda_62[0][2]                  
__________________________________________________________________________________________________
add_44 (Add)                    (None, 55, 55, 64)   0           resnet50_filter_4a_conv_0[0][0]  
                                                                 resnet50_filter_4a_conv_1[0][0]  
                                                                 resnet50_filter_4a_conv_2[0][0]  
__________________________________________________________________________________________________
activation_40 (Activation)      (None, 55, 55, 64)   0           add_44[0][0]                     
__________________________________________________________________________________________________
lambda_63 (Lambda)              [(None, 55, 55, 21), 0           activation_40[0][0]              
__________________________________________________________________________________________________
resnet50_filter_4b_conv_0 (Conv (None, 55, 55, 64)   12096       lambda_63[0][0]                  
__________________________________________________________________________________________________
resnet50_filter_4b_conv_1 (Conv (None, 55, 55, 64)   12096       lambda_63[0][1]                  
__________________________________________________________________________________________________
resnet50_filter_4b_conv_2 (Conv (None, 55, 55, 64)   12736       lambda_63[0][2]                  
__________________________________________________________________________________________________
add_45 (Add)                    (None, 55, 55, 64)   0           resnet50_filter_4b_conv_0[0][0]  
                                                                 resnet50_filter_4b_conv_1[0][0]  
                                                                 resnet50_filter_4b_conv_2[0][0]  
__________________________________________________________________________________________________
lambda_64 (Lambda)              [(None, 55, 55, 21), 0           add_45[0][0]                     
__________________________________________________________________________________________________
resnet50_filter_4c_conv_0 (Conv (None, 55, 55, 256)  5376        lambda_64[0][0]                  
__________________________________________________________________________________________________
resnet50_filter_4c_conv_1 (Conv (None, 55, 55, 256)  5376        lambda_64[0][1]                  
__________________________________________________________________________________________________
resnet50_filter_4c_conv_2 (Conv (None, 55, 55, 256)  5888        lambda_64[0][2]                  
__________________________________________________________________________________________________
add_46 (Add)                    (None, 55, 55, 256)  0           resnet50_filter_4c_conv_0[0][0]  
                                                                 resnet50_filter_4c_conv_1[0][0]  
                                                                 resnet50_filter_4c_conv_2[0][0]  
__________________________________________________________________________________________________
add_47 (Add)                    (None, 55, 55, 256)  0           add_46[0][0]                     
                                                                 activation_39[0][0]              
__________________________________________________________________________________________________
activation_41 (Activation)      (None, 55, 55, 256)  0           add_47[0][0]                     
__________________________________________________________________________________________________
lambda_65 (Lambda)              [(None, 55, 55, 85), 0           activation_41[0][0]              
__________________________________________________________________________________________________
resnet50_filter_5a_conv_0 (Conv (None, 28, 28, 128)  10880       lambda_65[0][0]                  
__________________________________________________________________________________________________
resnet50_filter_5a_conv_1 (Conv (None, 28, 28, 128)  10880       lambda_65[0][1]                  
__________________________________________________________________________________________________
resnet50_filter_5a_conv_2 (Conv (None, 28, 28, 128)  11136       lambda_65[0][2]                  
__________________________________________________________________________________________________
add_48 (Add)                    (None, 28, 28, 128)  0           resnet50_filter_5a_conv_0[0][0]  
                                                                 resnet50_filter_5a_conv_1[0][0]  
                                                                 resnet50_filter_5a_conv_2[0][0]  
__________________________________________________________________________________________________
activation_42 (Activation)      (None, 28, 28, 128)  0           add_48[0][0]                     
__________________________________________________________________________________________________
lambda_66 (Lambda)              [(None, 28, 28, 42), 0           activation_42[0][0]              
__________________________________________________________________________________________________
resnet50_filter_5b_conv_0 (Conv (None, 28, 28, 128)  48384       lambda_66[0][0]                  
__________________________________________________________________________________________________
resnet50_filter_5b_conv_1 (Conv (None, 28, 28, 128)  48384       lambda_66[0][1]                  
__________________________________________________________________________________________________
resnet50_filter_5b_conv_2 (Conv (None, 28, 28, 128)  50816       lambda_66[0][2]                  
__________________________________________________________________________________________________
add_49 (Add)                    (None, 28, 28, 128)  0           resnet50_filter_5b_conv_0[0][0]  
                                                                 resnet50_filter_5b_conv_1[0][0]  
                                                                 resnet50_filter_5b_conv_2[0][0]  
__________________________________________________________________________________________________
activation_43 (Activation)      (None, 28, 28, 128)  0           add_49[0][0]                     
__________________________________________________________________________________________________
lambda_67 (Lambda)              [(None, 28, 28, 42), 0           activation_43[0][0]              
__________________________________________________________________________________________________
lambda_68 (Lambda)              [(None, 55, 55, 85), 0           activation_41[0][0]              
__________________________________________________________________________________________________
resnet50_filter_5c_conv_0 (Conv (None, 28, 28, 512)  21504       lambda_67[0][0]                  
__________________________________________________________________________________________________
resnet50_filter_5c_conv_1 (Conv (None, 28, 28, 512)  21504       lambda_67[0][1]                  
__________________________________________________________________________________________________
resnet50_filter_5c_conv_2 (Conv (None, 28, 28, 512)  23040       lambda_67[0][2]                  
__________________________________________________________________________________________________
resnet50_filter_5s_conv_0 (Conv (None, 28, 28, 512)  43520       lambda_68[0][0]                  
__________________________________________________________________________________________________
resnet50_filter_5s_conv_1 (Conv (None, 28, 28, 512)  43520       lambda_68[0][1]                  
__________________________________________________________________________________________________
resnet50_filter_5s_conv_2 (Conv (None, 28, 28, 512)  44544       lambda_68[0][2]                  
__________________________________________________________________________________________________
add_50 (Add)                    (None, 28, 28, 512)  0           resnet50_filter_5c_conv_0[0][0]  
                                                                 resnet50_filter_5c_conv_1[0][0]  
                                                                 resnet50_filter_5c_conv_2[0][0]  
__________________________________________________________________________________________________
add_51 (Add)                    (None, 28, 28, 512)  0           resnet50_filter_5s_conv_0[0][0]  
                                                                 resnet50_filter_5s_conv_1[0][0]  
                                                                 resnet50_filter_5s_conv_2[0][0]  
__________________________________________________________________________________________________
add_52 (Add)                    (None, 28, 28, 512)  0           add_50[0][0]                     
                                                                 add_51[0][0]                     
__________________________________________________________________________________________________
activation_44 (Activation)      (None, 28, 28, 512)  0           add_52[0][0]                     
__________________________________________________________________________________________________
lambda_69 (Lambda)              [(None, 28, 28, 170) 0           activation_44[0][0]              
__________________________________________________________________________________________________
resnet50_filter_6a_conv_0 (Conv (None, 28, 28, 128)  21760       lambda_69[0][0]                  
__________________________________________________________________________________________________
resnet50_filter_6a_conv_1 (Conv (None, 28, 28, 128)  21760       lambda_69[0][1]                  
__________________________________________________________________________________________________
resnet50_filter_6a_conv_2 (Conv (None, 28, 28, 128)  22144       lambda_69[0][2]                  
__________________________________________________________________________________________________
add_53 (Add)                    (None, 28, 28, 128)  0           resnet50_filter_6a_conv_0[0][0]  
                                                                 resnet50_filter_6a_conv_1[0][0]  
                                                                 resnet50_filter_6a_conv_2[0][0]  
__________________________________________________________________________________________________
activation_45 (Activation)      (None, 28, 28, 128)  0           add_53[0][0]                     
__________________________________________________________________________________________________
lambda_70 (Lambda)              [(None, 28, 28, 42), 0           activation_45[0][0]              
__________________________________________________________________________________________________
resnet50_filter_6b_conv_0 (Conv (None, 28, 28, 128)  48384       lambda_70[0][0]                  
__________________________________________________________________________________________________
resnet50_filter_6b_conv_1 (Conv (None, 28, 28, 128)  48384       lambda_70[0][1]                  
__________________________________________________________________________________________________
resnet50_filter_6b_conv_2 (Conv (None, 28, 28, 128)  50816       lambda_70[0][2]                  
__________________________________________________________________________________________________
add_54 (Add)                    (None, 28, 28, 128)  0           resnet50_filter_6b_conv_0[0][0]  
                                                                 resnet50_filter_6b_conv_1[0][0]  
                                                                 resnet50_filter_6b_conv_2[0][0]  
__________________________________________________________________________________________________
lambda_71 (Lambda)              [(None, 28, 28, 42), 0           add_54[0][0]                     
__________________________________________________________________________________________________
resnet50_filter_6c_conv_0 (Conv (None, 28, 28, 512)  21504       lambda_71[0][0]                  
__________________________________________________________________________________________________
resnet50_filter_6c_conv_1 (Conv (None, 28, 28, 512)  21504       lambda_71[0][1]                  
__________________________________________________________________________________________________
resnet50_filter_6c_conv_2 (Conv (None, 28, 28, 512)  23040       lambda_71[0][2]                  
__________________________________________________________________________________________________
add_55 (Add)                    (None, 28, 28, 512)  0           resnet50_filter_6c_conv_0[0][0]  
                                                                 resnet50_filter_6c_conv_1[0][0]  
                                                                 resnet50_filter_6c_conv_2[0][0]  
__________________________________________________________________________________________________
add_56 (Add)                    (None, 28, 28, 512)  0           add_55[0][0]                     
                                                                 activation_44[0][0]              
__________________________________________________________________________________________________
activation_46 (Activation)      (None, 28, 28, 512)  0           add_56[0][0]                     
__________________________________________________________________________________________________
lambda_72 (Lambda)              [(None, 28, 28, 170) 0           activation_46[0][0]              
__________________________________________________________________________________________________
resnet50_filter_7a_conv_0 (Conv (None, 28, 28, 128)  21760       lambda_72[0][0]                  
__________________________________________________________________________________________________
resnet50_filter_7a_conv_1 (Conv (None, 28, 28, 128)  21760       lambda_72[0][1]                  
__________________________________________________________________________________________________
resnet50_filter_7a_conv_2 (Conv (None, 28, 28, 128)  22144       lambda_72[0][2]                  
__________________________________________________________________________________________________
add_57 (Add)                    (None, 28, 28, 128)  0           resnet50_filter_7a_conv_0[0][0]  
                                                                 resnet50_filter_7a_conv_1[0][0]  
                                                                 resnet50_filter_7a_conv_2[0][0]  
__________________________________________________________________________________________________
activation_47 (Activation)      (None, 28, 28, 128)  0           add_57[0][0]                     
__________________________________________________________________________________________________
lambda_73 (Lambda)              [(None, 28, 28, 42), 0           activation_47[0][0]              
__________________________________________________________________________________________________
resnet50_filter_7b_conv_0 (Conv (None, 28, 28, 128)  48384       lambda_73[0][0]                  
__________________________________________________________________________________________________
resnet50_filter_7b_conv_1 (Conv (None, 28, 28, 128)  48384       lambda_73[0][1]                  
__________________________________________________________________________________________________
resnet50_filter_7b_conv_2 (Conv (None, 28, 28, 128)  50816       lambda_73[0][2]                  
__________________________________________________________________________________________________
add_58 (Add)                    (None, 28, 28, 128)  0           resnet50_filter_7b_conv_0[0][0]  
                                                                 resnet50_filter_7b_conv_1[0][0]  
                                                                 resnet50_filter_7b_conv_2[0][0]  
__________________________________________________________________________________________________
lambda_74 (Lambda)              [(None, 28, 28, 42), 0           add_58[0][0]                     
__________________________________________________________________________________________________
resnet50_filter_7c_conv_0 (Conv (None, 28, 28, 512)  21504       lambda_74[0][0]                  
__________________________________________________________________________________________________
resnet50_filter_7c_conv_1 (Conv (None, 28, 28, 512)  21504       lambda_74[0][1]                  
__________________________________________________________________________________________________
resnet50_filter_7c_conv_2 (Conv (None, 28, 28, 512)  23040       lambda_74[0][2]                  
__________________________________________________________________________________________________
add_59 (Add)                    (None, 28, 28, 512)  0           resnet50_filter_7c_conv_0[0][0]  
                                                                 resnet50_filter_7c_conv_1[0][0]  
                                                                 resnet50_filter_7c_conv_2[0][0]  
__________________________________________________________________________________________________
add_60 (Add)                    (None, 28, 28, 512)  0           add_59[0][0]                     
                                                                 activation_46[0][0]              
__________________________________________________________________________________________________
activation_48 (Activation)      (None, 28, 28, 512)  0           add_60[0][0]                     
__________________________________________________________________________________________________
lambda_75 (Lambda)              [(None, 28, 28, 170) 0           activation_48[0][0]              
__________________________________________________________________________________________________
resnet50_filter_8a_conv_0 (Conv (None, 28, 28, 128)  21760       lambda_75[0][0]                  
__________________________________________________________________________________________________
resnet50_filter_8a_conv_1 (Conv (None, 28, 28, 128)  21760       lambda_75[0][1]                  
__________________________________________________________________________________________________
resnet50_filter_8a_conv_2 (Conv (None, 28, 28, 128)  22144       lambda_75[0][2]                  
__________________________________________________________________________________________________
add_61 (Add)                    (None, 28, 28, 128)  0           resnet50_filter_8a_conv_0[0][0]  
                                                                 resnet50_filter_8a_conv_1[0][0]  
                                                                 resnet50_filter_8a_conv_2[0][0]  
__________________________________________________________________________________________________
activation_49 (Activation)      (None, 28, 28, 128)  0           add_61[0][0]                     
__________________________________________________________________________________________________
lambda_76 (Lambda)              [(None, 28, 28, 42), 0           activation_49[0][0]              
__________________________________________________________________________________________________
resnet50_filter_8b_conv_0 (Conv (None, 28, 28, 128)  48384       lambda_76[0][0]                  
__________________________________________________________________________________________________
resnet50_filter_8b_conv_1 (Conv (None, 28, 28, 128)  48384       lambda_76[0][1]                  
__________________________________________________________________________________________________
resnet50_filter_8b_conv_2 (Conv (None, 28, 28, 128)  50816       lambda_76[0][2]                  
__________________________________________________________________________________________________
add_62 (Add)                    (None, 28, 28, 128)  0           resnet50_filter_8b_conv_0[0][0]  
                                                                 resnet50_filter_8b_conv_1[0][0]  
                                                                 resnet50_filter_8b_conv_2[0][0]  
__________________________________________________________________________________________________
lambda_77 (Lambda)              [(None, 28, 28, 42), 0           add_62[0][0]                     
__________________________________________________________________________________________________
resnet50_filter_8c_conv_0 (Conv (None, 28, 28, 512)  21504       lambda_77[0][0]                  
__________________________________________________________________________________________________
resnet50_filter_8c_conv_1 (Conv (None, 28, 28, 512)  21504       lambda_77[0][1]                  
__________________________________________________________________________________________________
resnet50_filter_8c_conv_2 (Conv (None, 28, 28, 512)  23040       lambda_77[0][2]                  
__________________________________________________________________________________________________
add_63 (Add)                    (None, 28, 28, 512)  0           resnet50_filter_8c_conv_0[0][0]  
                                                                 resnet50_filter_8c_conv_1[0][0]  
                                                                 resnet50_filter_8c_conv_2[0][0]  
__________________________________________________________________________________________________
add_64 (Add)                    (None, 28, 28, 512)  0           add_63[0][0]                     
                                                                 activation_48[0][0]              
__________________________________________________________________________________________________
activation_50 (Activation)      (None, 28, 28, 512)  0           add_64[0][0]                     
__________________________________________________________________________________________________
lambda_78 (Lambda)              [(None, 28, 28, 170) 0           activation_50[0][0]              
__________________________________________________________________________________________________
resnet50_filter_9a_conv_0 (Conv (None, 14, 14, 256)  43520       lambda_78[0][0]                  
__________________________________________________________________________________________________
resnet50_filter_9a_conv_1 (Conv (None, 14, 14, 256)  43520       lambda_78[0][1]                  
__________________________________________________________________________________________________
resnet50_filter_9a_conv_2 (Conv (None, 14, 14, 256)  44288       lambda_78[0][2]                  
__________________________________________________________________________________________________
add_65 (Add)                    (None, 14, 14, 256)  0           resnet50_filter_9a_conv_0[0][0]  
                                                                 resnet50_filter_9a_conv_1[0][0]  
                                                                 resnet50_filter_9a_conv_2[0][0]  
__________________________________________________________________________________________________
activation_51 (Activation)      (None, 14, 14, 256)  0           add_65[0][0]                     
__________________________________________________________________________________________________
lambda_79 (Lambda)              [(None, 14, 14, 85), 0           activation_51[0][0]              
__________________________________________________________________________________________________
resnet50_filter_9b_conv_0 (Conv (None, 14, 14, 256)  195840      lambda_79[0][0]                  
__________________________________________________________________________________________________
resnet50_filter_9b_conv_1 (Conv (None, 14, 14, 256)  195840      lambda_79[0][1]                  
__________________________________________________________________________________________________
resnet50_filter_9b_conv_2 (Conv (None, 14, 14, 256)  198400      lambda_79[0][2]                  
__________________________________________________________________________________________________
add_66 (Add)                    (None, 14, 14, 256)  0           resnet50_filter_9b_conv_0[0][0]  
                                                                 resnet50_filter_9b_conv_1[0][0]  
                                                                 resnet50_filter_9b_conv_2[0][0]  
__________________________________________________________________________________________________
activation_52 (Activation)      (None, 14, 14, 256)  0           add_66[0][0]                     
__________________________________________________________________________________________________
lambda_80 (Lambda)              [(None, 14, 14, 85), 0           activation_52[0][0]              
__________________________________________________________________________________________________
lambda_81 (Lambda)              [(None, 28, 28, 170) 0           activation_50[0][0]              
__________________________________________________________________________________________________
resnet50_filter_9c_conv_0 (Conv (None, 14, 14, 1024) 87040       lambda_80[0][0]                  
__________________________________________________________________________________________________
resnet50_filter_9c_conv_1 (Conv (None, 14, 14, 1024) 87040       lambda_80[0][1]                  
__________________________________________________________________________________________________
resnet50_filter_9c_conv_2 (Conv (None, 14, 14, 1024) 89088       lambda_80[0][2]                  
__________________________________________________________________________________________________
resnet50_filter_9s_conv_0 (Conv (None, 14, 14, 1024) 174080      lambda_81[0][0]                  
__________________________________________________________________________________________________
resnet50_filter_9s_conv_1 (Conv (None, 14, 14, 1024) 174080      lambda_81[0][1]                  
__________________________________________________________________________________________________
resnet50_filter_9s_conv_2 (Conv (None, 14, 14, 1024) 177152      lambda_81[0][2]                  
__________________________________________________________________________________________________
add_67 (Add)                    (None, 14, 14, 1024) 0           resnet50_filter_9c_conv_0[0][0]  
                                                                 resnet50_filter_9c_conv_1[0][0]  
                                                                 resnet50_filter_9c_conv_2[0][0]  
__________________________________________________________________________________________________
add_68 (Add)                    (None, 14, 14, 1024) 0           resnet50_filter_9s_conv_0[0][0]  
                                                                 resnet50_filter_9s_conv_1[0][0]  
                                                                 resnet50_filter_9s_conv_2[0][0]  
__________________________________________________________________________________________________
add_69 (Add)                    (None, 14, 14, 1024) 0           add_67[0][0]                     
                                                                 add_68[0][0]                     
__________________________________________________________________________________________________
activation_53 (Activation)      (None, 14, 14, 1024) 0           add_69[0][0]                     
__________________________________________________________________________________________________
lambda_82 (Lambda)              [(None, 14, 14, 341) 0           activation_53[0][0]              
__________________________________________________________________________________________________
resnet50_filter_10a_conv_0 (Con (None, 14, 14, 256)  87296       lambda_82[0][0]                  
__________________________________________________________________________________________________
resnet50_filter_10a_conv_1 (Con (None, 14, 14, 256)  87296       lambda_82[0][1]                  
__________________________________________________________________________________________________
resnet50_filter_10a_conv_2 (Con (None, 14, 14, 256)  87808       lambda_82[0][2]                  
__________________________________________________________________________________________________
add_70 (Add)                    (None, 14, 14, 256)  0           resnet50_filter_10a_conv_0[0][0] 
                                                                 resnet50_filter_10a_conv_1[0][0] 
                                                                 resnet50_filter_10a_conv_2[0][0] 
__________________________________________________________________________________________________
activation_54 (Activation)      (None, 14, 14, 256)  0           add_70[0][0]                     
__________________________________________________________________________________________________
lambda_83 (Lambda)              [(None, 14, 14, 85), 0           activation_54[0][0]              
__________________________________________________________________________________________________
resnet50_filter_10b_conv_0 (Con (None, 14, 14, 256)  195840      lambda_83[0][0]                  
__________________________________________________________________________________________________
resnet50_filter_10b_conv_1 (Con (None, 14, 14, 256)  195840      lambda_83[0][1]                  
__________________________________________________________________________________________________
resnet50_filter_10b_conv_2 (Con (None, 14, 14, 256)  198400      lambda_83[0][2]                  
__________________________________________________________________________________________________
add_71 (Add)                    (None, 14, 14, 256)  0           resnet50_filter_10b_conv_0[0][0] 
                                                                 resnet50_filter_10b_conv_1[0][0] 
                                                                 resnet50_filter_10b_conv_2[0][0] 
__________________________________________________________________________________________________
lambda_84 (Lambda)              [(None, 14, 14, 85), 0           add_71[0][0]                     
__________________________________________________________________________________________________
resnet50_filter_10c_conv_0 (Con (None, 14, 14, 1024) 87040       lambda_84[0][0]                  
__________________________________________________________________________________________________
resnet50_filter_10c_conv_1 (Con (None, 14, 14, 1024) 87040       lambda_84[0][1]                  
__________________________________________________________________________________________________
resnet50_filter_10c_conv_2 (Con (None, 14, 14, 1024) 89088       lambda_84[0][2]                  
__________________________________________________________________________________________________
add_72 (Add)                    (None, 14, 14, 1024) 0           resnet50_filter_10c_conv_0[0][0] 
                                                                 resnet50_filter_10c_conv_1[0][0] 
                                                                 resnet50_filter_10c_conv_2[0][0] 
__________________________________________________________________________________________________
add_73 (Add)                    (None, 14, 14, 1024) 0           add_72[0][0]                     
                                                                 activation_53[0][0]              
__________________________________________________________________________________________________
activation_55 (Activation)      (None, 14, 14, 1024) 0           add_73[0][0]                     
__________________________________________________________________________________________________
lambda_85 (Lambda)              [(None, 14, 14, 341) 0           activation_55[0][0]              
__________________________________________________________________________________________________
resnet50_filter_11a_conv_0 (Con (None, 14, 14, 256)  87296       lambda_85[0][0]                  
__________________________________________________________________________________________________
resnet50_filter_11a_conv_1 (Con (None, 14, 14, 256)  87296       lambda_85[0][1]                  
__________________________________________________________________________________________________
resnet50_filter_11a_conv_2 (Con (None, 14, 14, 256)  87808       lambda_85[0][2]                  
__________________________________________________________________________________________________
add_74 (Add)                    (None, 14, 14, 256)  0           resnet50_filter_11a_conv_0[0][0] 
                                                                 resnet50_filter_11a_conv_1[0][0] 
                                                                 resnet50_filter_11a_conv_2[0][0] 
__________________________________________________________________________________________________
activation_56 (Activation)      (None, 14, 14, 256)  0           add_74[0][0]                     
__________________________________________________________________________________________________
lambda_86 (Lambda)              [(None, 14, 14, 85), 0           activation_56[0][0]              
__________________________________________________________________________________________________
resnet50_filter_11b_conv_0 (Con (None, 14, 14, 256)  195840      lambda_86[0][0]                  
__________________________________________________________________________________________________
resnet50_filter_11b_conv_1 (Con (None, 14, 14, 256)  195840      lambda_86[0][1]                  
__________________________________________________________________________________________________
resnet50_filter_11b_conv_2 (Con (None, 14, 14, 256)  198400      lambda_86[0][2]                  
__________________________________________________________________________________________________
add_75 (Add)                    (None, 14, 14, 256)  0           resnet50_filter_11b_conv_0[0][0] 
                                                                 resnet50_filter_11b_conv_1[0][0] 
                                                                 resnet50_filter_11b_conv_2[0][0] 
__________________________________________________________________________________________________
lambda_87 (Lambda)              [(None, 14, 14, 85), 0           add_75[0][0]                     
__________________________________________________________________________________________________
resnet50_filter_11c_conv_0 (Con (None, 14, 14, 1024) 87040       lambda_87[0][0]                  
__________________________________________________________________________________________________
resnet50_filter_11c_conv_1 (Con (None, 14, 14, 1024) 87040       lambda_87[0][1]                  
__________________________________________________________________________________________________
resnet50_filter_11c_conv_2 (Con (None, 14, 14, 1024) 89088       lambda_87[0][2]                  
__________________________________________________________________________________________________
add_76 (Add)                    (None, 14, 14, 1024) 0           resnet50_filter_11c_conv_0[0][0] 
                                                                 resnet50_filter_11c_conv_1[0][0] 
                                                                 resnet50_filter_11c_conv_2[0][0] 
__________________________________________________________________________________________________
add_77 (Add)                    (None, 14, 14, 1024) 0           add_76[0][0]                     
                                                                 activation_55[0][0]              
__________________________________________________________________________________________________
activation_57 (Activation)      (None, 14, 14, 1024) 0           add_77[0][0]                     
__________________________________________________________________________________________________
lambda_88 (Lambda)              [(None, 14, 14, 341) 0           activation_57[0][0]              
__________________________________________________________________________________________________
resnet50_filter_12a_conv_0 (Con (None, 14, 14, 256)  87296       lambda_88[0][0]                  
__________________________________________________________________________________________________
resnet50_filter_12a_conv_1 (Con (None, 14, 14, 256)  87296       lambda_88[0][1]                  
__________________________________________________________________________________________________
resnet50_filter_12a_conv_2 (Con (None, 14, 14, 256)  87808       lambda_88[0][2]                  
__________________________________________________________________________________________________
add_78 (Add)                    (None, 14, 14, 256)  0           resnet50_filter_12a_conv_0[0][0] 
                                                                 resnet50_filter_12a_conv_1[0][0] 
                                                                 resnet50_filter_12a_conv_2[0][0] 
__________________________________________________________________________________________________
activation_58 (Activation)      (None, 14, 14, 256)  0           add_78[0][0]                     
__________________________________________________________________________________________________
lambda_89 (Lambda)              [(None, 14, 14, 85), 0           activation_58[0][0]              
__________________________________________________________________________________________________
resnet50_filter_12b_conv_0 (Con (None, 14, 14, 256)  195840      lambda_89[0][0]                  
__________________________________________________________________________________________________
resnet50_filter_12b_conv_1 (Con (None, 14, 14, 256)  195840      lambda_89[0][1]                  
__________________________________________________________________________________________________
resnet50_filter_12b_conv_2 (Con (None, 14, 14, 256)  198400      lambda_89[0][2]                  
__________________________________________________________________________________________________
add_79 (Add)                    (None, 14, 14, 256)  0           resnet50_filter_12b_conv_0[0][0] 
                                                                 resnet50_filter_12b_conv_1[0][0] 
                                                                 resnet50_filter_12b_conv_2[0][0] 
__________________________________________________________________________________________________
lambda_90 (Lambda)              [(None, 14, 14, 85), 0           add_79[0][0]                     
__________________________________________________________________________________________________
resnet50_filter_12c_conv_0 (Con (None, 14, 14, 1024) 87040       lambda_90[0][0]                  
__________________________________________________________________________________________________
resnet50_filter_12c_conv_1 (Con (None, 14, 14, 1024) 87040       lambda_90[0][1]                  
__________________________________________________________________________________________________
resnet50_filter_12c_conv_2 (Con (None, 14, 14, 1024) 89088       lambda_90[0][2]                  
__________________________________________________________________________________________________
add_80 (Add)                    (None, 14, 14, 1024) 0           resnet50_filter_12c_conv_0[0][0] 
                                                                 resnet50_filter_12c_conv_1[0][0] 
                                                                 resnet50_filter_12c_conv_2[0][0] 
__________________________________________________________________________________________________
add_81 (Add)                    (None, 14, 14, 1024) 0           add_80[0][0]                     
                                                                 activation_57[0][0]              
__________________________________________________________________________________________________
activation_59 (Activation)      (None, 14, 14, 1024) 0           add_81[0][0]                     
__________________________________________________________________________________________________
lambda_91 (Lambda)              [(None, 14, 14, 341) 0           activation_59[0][0]              
__________________________________________________________________________________________________
resnet50_filter_13a_conv_0 (Con (None, 14, 14, 256)  87296       lambda_91[0][0]                  
__________________________________________________________________________________________________
resnet50_filter_13a_conv_1 (Con (None, 14, 14, 256)  87296       lambda_91[0][1]                  
__________________________________________________________________________________________________
resnet50_filter_13a_conv_2 (Con (None, 14, 14, 256)  87808       lambda_91[0][2]                  
__________________________________________________________________________________________________
add_82 (Add)                    (None, 14, 14, 256)  0           resnet50_filter_13a_conv_0[0][0] 
                                                                 resnet50_filter_13a_conv_1[0][0] 
                                                                 resnet50_filter_13a_conv_2[0][0] 
__________________________________________________________________________________________________
activation_60 (Activation)      (None, 14, 14, 256)  0           add_82[0][0]                     
__________________________________________________________________________________________________
lambda_92 (Lambda)              [(None, 14, 14, 85), 0           activation_60[0][0]              
__________________________________________________________________________________________________
resnet50_filter_13b_conv_0 (Con (None, 14, 14, 256)  195840      lambda_92[0][0]                  
__________________________________________________________________________________________________
resnet50_filter_13b_conv_1 (Con (None, 14, 14, 256)  195840      lambda_92[0][1]                  
__________________________________________________________________________________________________
resnet50_filter_13b_conv_2 (Con (None, 14, 14, 256)  198400      lambda_92[0][2]                  
__________________________________________________________________________________________________
add_83 (Add)                    (None, 14, 14, 256)  0           resnet50_filter_13b_conv_0[0][0] 
                                                                 resnet50_filter_13b_conv_1[0][0] 
                                                                 resnet50_filter_13b_conv_2[0][0] 
__________________________________________________________________________________________________
lambda_93 (Lambda)              [(None, 14, 14, 85), 0           add_83[0][0]                     
__________________________________________________________________________________________________
resnet50_filter_13c_conv_0 (Con (None, 14, 14, 1024) 87040       lambda_93[0][0]                  
__________________________________________________________________________________________________
resnet50_filter_13c_conv_1 (Con (None, 14, 14, 1024) 87040       lambda_93[0][1]                  
__________________________________________________________________________________________________
resnet50_filter_13c_conv_2 (Con (None, 14, 14, 1024) 89088       lambda_93[0][2]                  
__________________________________________________________________________________________________
add_84 (Add)                    (None, 14, 14, 1024) 0           resnet50_filter_13c_conv_0[0][0] 
                                                                 resnet50_filter_13c_conv_1[0][0] 
                                                                 resnet50_filter_13c_conv_2[0][0] 
__________________________________________________________________________________________________
add_85 (Add)                    (None, 14, 14, 1024) 0           add_84[0][0]                     
                                                                 activation_59[0][0]              
__________________________________________________________________________________________________
activation_61 (Activation)      (None, 14, 14, 1024) 0           add_85[0][0]                     
__________________________________________________________________________________________________
lambda_94 (Lambda)              [(None, 14, 14, 341) 0           activation_61[0][0]              
__________________________________________________________________________________________________
resnet50_filter_14a_conv_0 (Con (None, 14, 14, 256)  87296       lambda_94[0][0]                  
__________________________________________________________________________________________________
resnet50_filter_14a_conv_1 (Con (None, 14, 14, 256)  87296       lambda_94[0][1]                  
__________________________________________________________________________________________________
resnet50_filter_14a_conv_2 (Con (None, 14, 14, 256)  87808       lambda_94[0][2]                  
__________________________________________________________________________________________________
add_86 (Add)                    (None, 14, 14, 256)  0           resnet50_filter_14a_conv_0[0][0] 
                                                                 resnet50_filter_14a_conv_1[0][0] 
                                                                 resnet50_filter_14a_conv_2[0][0] 
__________________________________________________________________________________________________
activation_62 (Activation)      (None, 14, 14, 256)  0           add_86[0][0]                     
__________________________________________________________________________________________________
lambda_95 (Lambda)              [(None, 14, 14, 85), 0           activation_62[0][0]              
__________________________________________________________________________________________________
resnet50_filter_14b_conv_0 (Con (None, 14, 14, 256)  195840      lambda_95[0][0]                  
__________________________________________________________________________________________________
resnet50_filter_14b_conv_1 (Con (None, 14, 14, 256)  195840      lambda_95[0][1]                  
__________________________________________________________________________________________________
resnet50_filter_14b_conv_2 (Con (None, 14, 14, 256)  198400      lambda_95[0][2]                  
__________________________________________________________________________________________________
add_87 (Add)                    (None, 14, 14, 256)  0           resnet50_filter_14b_conv_0[0][0] 
                                                                 resnet50_filter_14b_conv_1[0][0] 
                                                                 resnet50_filter_14b_conv_2[0][0] 
__________________________________________________________________________________________________
lambda_96 (Lambda)              [(None, 14, 14, 85), 0           add_87[0][0]                     
__________________________________________________________________________________________________
resnet50_filter_14c_conv_0 (Con (None, 14, 14, 1024) 87040       lambda_96[0][0]                  
__________________________________________________________________________________________________
resnet50_filter_14c_conv_1 (Con (None, 14, 14, 1024) 87040       lambda_96[0][1]                  
__________________________________________________________________________________________________
resnet50_filter_14c_conv_2 (Con (None, 14, 14, 1024) 89088       lambda_96[0][2]                  
__________________________________________________________________________________________________
add_88 (Add)                    (None, 14, 14, 1024) 0           resnet50_filter_14c_conv_0[0][0] 
                                                                 resnet50_filter_14c_conv_1[0][0] 
                                                                 resnet50_filter_14c_conv_2[0][0] 
__________________________________________________________________________________________________
add_89 (Add)                    (None, 14, 14, 1024) 0           add_88[0][0]                     
                                                                 activation_61[0][0]              
__________________________________________________________________________________________________
activation_63 (Activation)      (None, 14, 14, 1024) 0           add_89[0][0]                     
__________________________________________________________________________________________________
lambda_97 (Lambda)              [(None, 14, 14, 341) 0           activation_63[0][0]              
__________________________________________________________________________________________________
resnet50_filter_15a_conv_0 (Con (None, 7, 7, 512)    174592      lambda_97[0][0]                  
__________________________________________________________________________________________________
resnet50_filter_15a_conv_1 (Con (None, 7, 7, 512)    174592      lambda_97[0][1]                  
__________________________________________________________________________________________________
resnet50_filter_15a_conv_2 (Con (None, 7, 7, 512)    175616      lambda_97[0][2]                  
__________________________________________________________________________________________________
add_90 (Add)                    (None, 7, 7, 512)    0           resnet50_filter_15a_conv_0[0][0] 
                                                                 resnet50_filter_15a_conv_1[0][0] 
                                                                 resnet50_filter_15a_conv_2[0][0] 
__________________________________________________________________________________________________
activation_64 (Activation)      (None, 7, 7, 512)    0           add_90[0][0]                     
__________________________________________________________________________________________________
lambda_98 (Lambda)              [(None, 7, 7, 170),  0           activation_64[0][0]              
__________________________________________________________________________________________________
resnet50_filter_15b_conv_0 (Con (None, 7, 7, 512)    783360      lambda_98[0][0]                  
__________________________________________________________________________________________________
resnet50_filter_15b_conv_1 (Con (None, 7, 7, 512)    783360      lambda_98[0][1]                  
__________________________________________________________________________________________________
resnet50_filter_15b_conv_2 (Con (None, 7, 7, 512)    793088      lambda_98[0][2]                  
__________________________________________________________________________________________________
add_91 (Add)                    (None, 7, 7, 512)    0           resnet50_filter_15b_conv_0[0][0] 
                                                                 resnet50_filter_15b_conv_1[0][0] 
                                                                 resnet50_filter_15b_conv_2[0][0] 
__________________________________________________________________________________________________
activation_65 (Activation)      (None, 7, 7, 512)    0           add_91[0][0]                     
__________________________________________________________________________________________________
lambda_99 (Lambda)              [(None, 7, 7, 170),  0           activation_65[0][0]              
__________________________________________________________________________________________________
lambda_100 (Lambda)             [(None, 14, 14, 341) 0           activation_63[0][0]              
__________________________________________________________________________________________________
resnet50_filter_15c_conv_0 (Con (None, 7, 7, 2048)   348160      lambda_99[0][0]                  
__________________________________________________________________________________________________
resnet50_filter_15c_conv_1 (Con (None, 7, 7, 2048)   348160      lambda_99[0][1]                  
__________________________________________________________________________________________________
resnet50_filter_15c_conv_2 (Con (None, 7, 7, 2048)   354304      lambda_99[0][2]                  
__________________________________________________________________________________________________
resnet50_filter_15s_conv_0 (Con (None, 7, 7, 2048)   698368      lambda_100[0][0]                 
__________________________________________________________________________________________________
resnet50_filter_15s_conv_1 (Con (None, 7, 7, 2048)   698368      lambda_100[0][1]                 
__________________________________________________________________________________________________
resnet50_filter_15s_conv_2 (Con (None, 7, 7, 2048)   702464      lambda_100[0][2]                 
__________________________________________________________________________________________________
add_92 (Add)                    (None, 7, 7, 2048)   0           resnet50_filter_15c_conv_0[0][0] 
                                                                 resnet50_filter_15c_conv_1[0][0] 
                                                                 resnet50_filter_15c_conv_2[0][0] 
__________________________________________________________________________________________________
add_93 (Add)                    (None, 7, 7, 2048)   0           resnet50_filter_15s_conv_0[0][0] 
                                                                 resnet50_filter_15s_conv_1[0][0] 
                                                                 resnet50_filter_15s_conv_2[0][0] 
__________________________________________________________________________________________________
add_94 (Add)                    (None, 7, 7, 2048)   0           add_92[0][0]                     
                                                                 add_93[0][0]                     
__________________________________________________________________________________________________
activation_66 (Activation)      (None, 7, 7, 2048)   0           add_94[0][0]                     
__________________________________________________________________________________________________
lambda_101 (Lambda)             [(None, 7, 7, 682),  0           activation_66[0][0]              
__________________________________________________________________________________________________
resnet50_filter_16a_conv_0 (Con (None, 7, 7, 512)    349184      lambda_101[0][0]                 
__________________________________________________________________________________________________
resnet50_filter_16a_conv_1 (Con (None, 7, 7, 512)    349184      lambda_101[0][1]                 
__________________________________________________________________________________________________
resnet50_filter_16a_conv_2 (Con (None, 7, 7, 512)    350720      lambda_101[0][2]                 
__________________________________________________________________________________________________
add_95 (Add)                    (None, 7, 7, 512)    0           resnet50_filter_16a_conv_0[0][0] 
                                                                 resnet50_filter_16a_conv_1[0][0] 
                                                                 resnet50_filter_16a_conv_2[0][0] 
__________________________________________________________________________________________________
activation_67 (Activation)      (None, 7, 7, 512)    0           add_95[0][0]                     
__________________________________________________________________________________________________
lambda_102 (Lambda)             [(None, 7, 7, 170),  0           activation_67[0][0]              
__________________________________________________________________________________________________
resnet50_filter_16b_conv_0 (Con (None, 7, 7, 512)    783360      lambda_102[0][0]                 
__________________________________________________________________________________________________
resnet50_filter_16b_conv_1 (Con (None, 7, 7, 512)    783360      lambda_102[0][1]                 
__________________________________________________________________________________________________
resnet50_filter_16b_conv_2 (Con (None, 7, 7, 512)    793088      lambda_102[0][2]                 
__________________________________________________________________________________________________
add_96 (Add)                    (None, 7, 7, 512)    0           resnet50_filter_16b_conv_0[0][0] 
                                                                 resnet50_filter_16b_conv_1[0][0] 
                                                                 resnet50_filter_16b_conv_2[0][0] 
__________________________________________________________________________________________________
lambda_103 (Lambda)             [(None, 7, 7, 170),  0           add_96[0][0]                     
__________________________________________________________________________________________________
resnet50_filter_16c_conv_0 (Con (None, 7, 7, 2048)   348160      lambda_103[0][0]                 
__________________________________________________________________________________________________
resnet50_filter_16c_conv_1 (Con (None, 7, 7, 2048)   348160      lambda_103[0][1]                 
__________________________________________________________________________________________________
resnet50_filter_16c_conv_2 (Con (None, 7, 7, 2048)   354304      lambda_103[0][2]                 
__________________________________________________________________________________________________
add_97 (Add)                    (None, 7, 7, 2048)   0           resnet50_filter_16c_conv_0[0][0] 
                                                                 resnet50_filter_16c_conv_1[0][0] 
                                                                 resnet50_filter_16c_conv_2[0][0] 
__________________________________________________________________________________________________
add_98 (Add)                    (None, 7, 7, 2048)   0           add_97[0][0]                     
                                                                 activation_66[0][0]              
__________________________________________________________________________________________________
activation_68 (Activation)      (None, 7, 7, 2048)   0           add_98[0][0]                     
__________________________________________________________________________________________________
lambda_104 (Lambda)             [(None, 7, 7, 682),  0           activation_68[0][0]              
__________________________________________________________________________________________________
resnet50_filter_17a_conv_0 (Con (None, 7, 7, 512)    349184      lambda_104[0][0]                 
__________________________________________________________________________________________________
resnet50_filter_17a_conv_1 (Con (None, 7, 7, 512)    349184      lambda_104[0][1]                 
__________________________________________________________________________________________________
resnet50_filter_17a_conv_2 (Con (None, 7, 7, 512)    350720      lambda_104[0][2]                 
__________________________________________________________________________________________________
add_99 (Add)                    (None, 7, 7, 512)    0           resnet50_filter_17a_conv_0[0][0] 
                                                                 resnet50_filter_17a_conv_1[0][0] 
                                                                 resnet50_filter_17a_conv_2[0][0] 
__________________________________________________________________________________________________
activation_69 (Activation)      (None, 7, 7, 512)    0           add_99[0][0]                     
__________________________________________________________________________________________________
lambda_105 (Lambda)             [(None, 7, 7, 170),  0           activation_69[0][0]              
__________________________________________________________________________________________________
resnet50_filter_17b_conv_0 (Con (None, 7, 7, 512)    783360      lambda_105[0][0]                 
__________________________________________________________________________________________________
resnet50_filter_17b_conv_1 (Con (None, 7, 7, 512)    783360      lambda_105[0][1]                 
__________________________________________________________________________________________________
resnet50_filter_17b_conv_2 (Con (None, 7, 7, 512)    793088      lambda_105[0][2]                 
__________________________________________________________________________________________________
add_100 (Add)                   (None, 7, 7, 512)    0           resnet50_filter_17b_conv_0[0][0] 
                                                                 resnet50_filter_17b_conv_1[0][0] 
                                                                 resnet50_filter_17b_conv_2[0][0] 
__________________________________________________________________________________________________
lambda_106 (Lambda)             [(None, 7, 7, 170),  0           add_100[0][0]                    
__________________________________________________________________________________________________
resnet50_filter_17c_conv_0 (Con (None, 7, 7, 2048)   348160      lambda_106[0][0]                 
__________________________________________________________________________________________________
resnet50_filter_17c_conv_1 (Con (None, 7, 7, 2048)   348160      lambda_106[0][1]                 
__________________________________________________________________________________________________
resnet50_filter_17c_conv_2 (Con (None, 7, 7, 2048)   354304      lambda_106[0][2]                 
__________________________________________________________________________________________________
add_101 (Add)                   (None, 7, 7, 2048)   0           resnet50_filter_17c_conv_0[0][0] 
                                                                 resnet50_filter_17c_conv_1[0][0] 
                                                                 resnet50_filter_17c_conv_2[0][0] 
__________________________________________________________________________________________________
add_102 (Add)                   (None, 7, 7, 2048)   0           add_101[0][0]                    
                                                                 activation_68[0][0]              
__________________________________________________________________________________________________
activation_70 (Activation)      (None, 7, 7, 2048)   0           add_102[0][0]                    
__________________________________________________________________________________________________
average_pooling2d_2 (AveragePoo (None, 1, 1, 2048)   0           activation_70[0][0]              
__________________________________________________________________________________________________
flatten_6 (Flatten)             (None, 2048)         0           average_pooling2d_2[0][0]        
__________________________________________________________________________________________________
resnet50_filter_18_dense (Dense (None, 1000)         2049000     flatten_6[0][0]                  
==================================================================================================
Total params: 25,530,472
Trainable params: 25,530,472
Non-trainable params: 0
__________________________________________________________________________________________________
None
