__________________________________________________________________________________________________
Layer (type)                    Output Shape         Param #     Connected to                     
==================================================================================================
input_11 (InputLayer)           (None, 224, 224, 3)  0                                            
__________________________________________________________________________________________________
zero_padding2d_21 (ZeroPadding2 (None, 230, 230, 3)  0           input_11[0][0]                   
__________________________________________________________________________________________________
resnet50_channel_1 (Conv2D)     (None, 112, 112, 64) 9472        zero_padding2d_21[0][0]          
__________________________________________________________________________________________________
max_pooling2d_35 (MaxPooling2D) (None, 55, 55, 64)   0           resnet50_channel_1[0][0]         
__________________________________________________________________________________________________
lambda_107 (Lambda)             [(None, 55, 55, 64), 0           max_pooling2d_35[0][0]           
__________________________________________________________________________________________________
resnet50_channel_2a_conv_0 (Con (None, 55, 55, 21)   1365        lambda_107[0][0]                 
__________________________________________________________________________________________________
resnet50_channel_2a_conv_1 (Con (None, 55, 55, 21)   1365        lambda_107[0][1]                 
__________________________________________________________________________________________________
resnet50_channel_2a_conv_2 (Con (None, 55, 55, 22)   1430        lambda_107[0][2]                 
__________________________________________________________________________________________________
concatenate_91 (Concatenate)    (None, 55, 55, 64)   0           resnet50_channel_2a_conv_0[0][0] 
                                                                 resnet50_channel_2a_conv_1[0][0] 
                                                                 resnet50_channel_2a_conv_2[0][0] 
__________________________________________________________________________________________________
lambda_108 (Lambda)             [(None, 55, 55, 64), 0           concatenate_91[0][0]             
__________________________________________________________________________________________________
resnet50_channel_2v_conv_0 (Con (None, 55, 55, 21)   12117       lambda_108[0][0]                 
__________________________________________________________________________________________________
resnet50_channel_2v_conv_1 (Con (None, 55, 55, 21)   12117       lambda_108[0][1]                 
__________________________________________________________________________________________________
resnet50_channel_2v_conv_2 (Con (None, 55, 55, 22)   12694       lambda_108[0][2]                 
__________________________________________________________________________________________________
concatenate_92 (Concatenate)    (None, 55, 55, 64)   0           resnet50_channel_2v_conv_0[0][0] 
                                                                 resnet50_channel_2v_conv_1[0][0] 
                                                                 resnet50_channel_2v_conv_2[0][0] 
__________________________________________________________________________________________________
lambda_109 (Lambda)             [(None, 55, 55, 64), 0           concatenate_92[0][0]             
__________________________________________________________________________________________________
lambda_110 (Lambda)             [(None, 55, 55, 64), 0           max_pooling2d_35[0][0]           
__________________________________________________________________________________________________
resnet50_channel_2c_conv_0 (Con (None, 55, 55, 85)   5525        lambda_109[0][0]                 
__________________________________________________________________________________________________
resnet50_channel_2c_conv_1 (Con (None, 55, 55, 85)   5525        lambda_109[0][1]                 
__________________________________________________________________________________________________
resnet50_channel_2c_conv_2 (Con (None, 55, 55, 86)   5590        lambda_109[0][2]                 
__________________________________________________________________________________________________
resnet50_channel_2s_conv_0 (Con (None, 55, 55, 85)   5525        lambda_110[0][0]                 
__________________________________________________________________________________________________
resnet50_channel_2s_conv_1 (Con (None, 55, 55, 85)   5525        lambda_110[0][1]                 
__________________________________________________________________________________________________
resnet50_channel_2s_conv_2 (Con (None, 55, 55, 86)   5590        lambda_110[0][2]                 
__________________________________________________________________________________________________
concatenate_93 (Concatenate)    (None, 55, 55, 256)  0           resnet50_channel_2c_conv_0[0][0] 
                                                                 resnet50_channel_2c_conv_1[0][0] 
                                                                 resnet50_channel_2c_conv_2[0][0] 
__________________________________________________________________________________________________
concatenate_94 (Concatenate)    (None, 55, 55, 256)  0           resnet50_channel_2s_conv_0[0][0] 
                                                                 resnet50_channel_2s_conv_1[0][0] 
                                                                 resnet50_channel_2s_conv_2[0][0] 
__________________________________________________________________________________________________
add_103 (Add)                   (None, 55, 55, 256)  0           concatenate_93[0][0]             
                                                                 concatenate_94[0][0]             
__________________________________________________________________________________________________
activation_71 (Activation)      (None, 55, 55, 256)  0           add_103[0][0]                    
__________________________________________________________________________________________________
lambda_111 (Lambda)             [(None, 55, 55, 256) 0           activation_71[0][0]              
__________________________________________________________________________________________________
resnet50_channel_3a_conv_0 (Con (None, 55, 55, 21)   5397        lambda_111[0][0]                 
__________________________________________________________________________________________________
resnet50_channel_3a_conv_1 (Con (None, 55, 55, 21)   5397        lambda_111[0][1]                 
__________________________________________________________________________________________________
resnet50_channel_3a_conv_2 (Con (None, 55, 55, 22)   5654        lambda_111[0][2]                 
__________________________________________________________________________________________________
concatenate_95 (Concatenate)    (None, 55, 55, 64)   0           resnet50_channel_3a_conv_0[0][0] 
                                                                 resnet50_channel_3a_conv_1[0][0] 
                                                                 resnet50_channel_3a_conv_2[0][0] 
__________________________________________________________________________________________________
lambda_112 (Lambda)             [(None, 55, 55, 64), 0           concatenate_95[0][0]             
__________________________________________________________________________________________________
resnet50_channel_3b_conv_0 (Con (None, 55, 55, 21)   12117       lambda_112[0][0]                 
__________________________________________________________________________________________________
resnet50_channel_3b_conv_1 (Con (None, 55, 55, 21)   12117       lambda_112[0][1]                 
__________________________________________________________________________________________________
resnet50_channel_3b_conv_2 (Con (None, 55, 55, 22)   12694       lambda_112[0][2]                 
__________________________________________________________________________________________________
concatenate_96 (Concatenate)    (None, 55, 55, 64)   0           resnet50_channel_3b_conv_0[0][0] 
                                                                 resnet50_channel_3b_conv_1[0][0] 
                                                                 resnet50_channel_3b_conv_2[0][0] 
__________________________________________________________________________________________________
lambda_113 (Lambda)             [(None, 55, 55, 64), 0           concatenate_96[0][0]             
__________________________________________________________________________________________________
resnet50_channel_3c_conv_0 (Con (None, 55, 55, 85)   5525        lambda_113[0][0]                 
__________________________________________________________________________________________________
resnet50_channel_3c_conv_1 (Con (None, 55, 55, 85)   5525        lambda_113[0][1]                 
__________________________________________________________________________________________________
resnet50_channel_3c_conv_2 (Con (None, 55, 55, 86)   5590        lambda_113[0][2]                 
__________________________________________________________________________________________________
concatenate_97 (Concatenate)    (None, 55, 55, 256)  0           resnet50_channel_3c_conv_0[0][0] 
                                                                 resnet50_channel_3c_conv_1[0][0] 
                                                                 resnet50_channel_3c_conv_2[0][0] 
__________________________________________________________________________________________________
add_104 (Add)                   (None, 55, 55, 256)  0           concatenate_97[0][0]             
                                                                 activation_71[0][0]              
__________________________________________________________________________________________________
activation_72 (Activation)      (None, 55, 55, 256)  0           add_104[0][0]                    
__________________________________________________________________________________________________
lambda_114 (Lambda)             [(None, 55, 55, 256) 0           activation_72[0][0]              
__________________________________________________________________________________________________
resnet50_channel_4a_conv_0 (Con (None, 55, 55, 21)   5397        lambda_114[0][0]                 
__________________________________________________________________________________________________
resnet50_channel_4a_conv_1 (Con (None, 55, 55, 21)   5397        lambda_114[0][1]                 
__________________________________________________________________________________________________
resnet50_channel_4a_conv_2 (Con (None, 55, 55, 22)   5654        lambda_114[0][2]                 
__________________________________________________________________________________________________
concatenate_98 (Concatenate)    (None, 55, 55, 64)   0           resnet50_channel_4a_conv_0[0][0] 
                                                                 resnet50_channel_4a_conv_1[0][0] 
                                                                 resnet50_channel_4a_conv_2[0][0] 
__________________________________________________________________________________________________
lambda_115 (Lambda)             [(None, 55, 55, 64), 0           concatenate_98[0][0]             
__________________________________________________________________________________________________
resnet50_channel_4b_conv_0 (Con (None, 55, 55, 21)   12117       lambda_115[0][0]                 
__________________________________________________________________________________________________
resnet50_channel_4b_conv_1 (Con (None, 55, 55, 21)   12117       lambda_115[0][1]                 
__________________________________________________________________________________________________
resnet50_channel_4b_conv_2 (Con (None, 55, 55, 22)   12694       lambda_115[0][2]                 
__________________________________________________________________________________________________
concatenate_99 (Concatenate)    (None, 55, 55, 64)   0           resnet50_channel_4b_conv_0[0][0] 
                                                                 resnet50_channel_4b_conv_1[0][0] 
                                                                 resnet50_channel_4b_conv_2[0][0] 
__________________________________________________________________________________________________
lambda_116 (Lambda)             [(None, 55, 55, 64), 0           concatenate_99[0][0]             
__________________________________________________________________________________________________
resnet50_channel_4c_conv_0 (Con (None, 55, 55, 85)   5525        lambda_116[0][0]                 
__________________________________________________________________________________________________
resnet50_channel_4c_conv_1 (Con (None, 55, 55, 85)   5525        lambda_116[0][1]                 
__________________________________________________________________________________________________
resnet50_channel_4c_conv_2 (Con (None, 55, 55, 86)   5590        lambda_116[0][2]                 
__________________________________________________________________________________________________
concatenate_100 (Concatenate)   (None, 55, 55, 256)  0           resnet50_channel_4c_conv_0[0][0] 
                                                                 resnet50_channel_4c_conv_1[0][0] 
                                                                 resnet50_channel_4c_conv_2[0][0] 
__________________________________________________________________________________________________
add_105 (Add)                   (None, 55, 55, 256)  0           concatenate_100[0][0]            
                                                                 activation_72[0][0]              
__________________________________________________________________________________________________
activation_73 (Activation)      (None, 55, 55, 256)  0           add_105[0][0]                    
__________________________________________________________________________________________________
lambda_117 (Lambda)             [(None, 55, 55, 256) 0           activation_73[0][0]              
__________________________________________________________________________________________________
resnet50_channel_5a_conv_0 (Con (None, 28, 28, 42)   10794       lambda_117[0][0]                 
__________________________________________________________________________________________________
resnet50_channel_5a_conv_1 (Con (None, 28, 28, 42)   10794       lambda_117[0][1]                 
__________________________________________________________________________________________________
resnet50_channel_5a_conv_2 (Con (None, 28, 28, 44)   11308       lambda_117[0][2]                 
__________________________________________________________________________________________________
concatenate_101 (Concatenate)   (None, 28, 28, 128)  0           resnet50_channel_5a_conv_0[0][0] 
                                                                 resnet50_channel_5a_conv_1[0][0] 
                                                                 resnet50_channel_5a_conv_2[0][0] 
__________________________________________________________________________________________________
lambda_118 (Lambda)             [(None, 28, 28, 128) 0           concatenate_101[0][0]            
__________________________________________________________________________________________________
resnet50_channel_5v_conv_0 (Con (None, 28, 28, 42)   48426       lambda_118[0][0]                 
__________________________________________________________________________________________________
resnet50_channel_5v_conv_1 (Con (None, 28, 28, 42)   48426       lambda_118[0][1]                 
__________________________________________________________________________________________________
resnet50_channel_5v_conv_2 (Con (None, 28, 28, 44)   50732       lambda_118[0][2]                 
__________________________________________________________________________________________________
concatenate_102 (Concatenate)   (None, 28, 28, 128)  0           resnet50_channel_5v_conv_0[0][0] 
                                                                 resnet50_channel_5v_conv_1[0][0] 
                                                                 resnet50_channel_5v_conv_2[0][0] 
__________________________________________________________________________________________________
lambda_119 (Lambda)             [(None, 28, 28, 128) 0           concatenate_102[0][0]            
__________________________________________________________________________________________________
lambda_120 (Lambda)             [(None, 55, 55, 256) 0           activation_73[0][0]              
__________________________________________________________________________________________________
resnet50_channel_5c_conv_0 (Con (None, 28, 28, 170)  21930       lambda_119[0][0]                 
__________________________________________________________________________________________________
resnet50_channel_5c_conv_1 (Con (None, 28, 28, 170)  21930       lambda_119[0][1]                 
__________________________________________________________________________________________________
resnet50_channel_5c_conv_2 (Con (None, 28, 28, 172)  22188       lambda_119[0][2]                 
__________________________________________________________________________________________________
resnet50_channel_5s_conv_0 (Con (None, 28, 28, 170)  43690       lambda_120[0][0]                 
__________________________________________________________________________________________________
resnet50_channel_5s_conv_1 (Con (None, 28, 28, 170)  43690       lambda_120[0][1]                 
__________________________________________________________________________________________________
resnet50_channel_5s_conv_2 (Con (None, 28, 28, 172)  44204       lambda_120[0][2]                 
__________________________________________________________________________________________________
concatenate_103 (Concatenate)   (None, 28, 28, 512)  0           resnet50_channel_5c_conv_0[0][0] 
                                                                 resnet50_channel_5c_conv_1[0][0] 
                                                                 resnet50_channel_5c_conv_2[0][0] 
__________________________________________________________________________________________________
concatenate_104 (Concatenate)   (None, 28, 28, 512)  0           resnet50_channel_5s_conv_0[0][0] 
                                                                 resnet50_channel_5s_conv_1[0][0] 
                                                                 resnet50_channel_5s_conv_2[0][0] 
__________________________________________________________________________________________________
add_106 (Add)                   (None, 28, 28, 512)  0           concatenate_103[0][0]            
                                                                 concatenate_104[0][0]            
__________________________________________________________________________________________________
activation_74 (Activation)      (None, 28, 28, 512)  0           add_106[0][0]                    
__________________________________________________________________________________________________
lambda_121 (Lambda)             [(None, 28, 28, 512) 0           activation_74[0][0]              
__________________________________________________________________________________________________
resnet50_channel_6a_conv_0 (Con (None, 28, 28, 42)   21546       lambda_121[0][0]                 
__________________________________________________________________________________________________
resnet50_channel_6a_conv_1 (Con (None, 28, 28, 42)   21546       lambda_121[0][1]                 
__________________________________________________________________________________________________
resnet50_channel_6a_conv_2 (Con (None, 28, 28, 44)   22572       lambda_121[0][2]                 
__________________________________________________________________________________________________
concatenate_105 (Concatenate)   (None, 28, 28, 128)  0           resnet50_channel_6a_conv_0[0][0] 
                                                                 resnet50_channel_6a_conv_1[0][0] 
                                                                 resnet50_channel_6a_conv_2[0][0] 
__________________________________________________________________________________________________
lambda_122 (Lambda)             [(None, 28, 28, 128) 0           concatenate_105[0][0]            
__________________________________________________________________________________________________
resnet50_channel_6b_conv_0 (Con (None, 28, 28, 42)   48426       lambda_122[0][0]                 
__________________________________________________________________________________________________
resnet50_channel_6b_conv_1 (Con (None, 28, 28, 42)   48426       lambda_122[0][1]                 
__________________________________________________________________________________________________
resnet50_channel_6b_conv_2 (Con (None, 28, 28, 44)   50732       lambda_122[0][2]                 
__________________________________________________________________________________________________
concatenate_106 (Concatenate)   (None, 28, 28, 128)  0           resnet50_channel_6b_conv_0[0][0] 
                                                                 resnet50_channel_6b_conv_1[0][0] 
                                                                 resnet50_channel_6b_conv_2[0][0] 
__________________________________________________________________________________________________
lambda_123 (Lambda)             [(None, 28, 28, 128) 0           concatenate_106[0][0]            
__________________________________________________________________________________________________
resnet50_channel_6c_conv_0 (Con (None, 28, 28, 170)  21930       lambda_123[0][0]                 
__________________________________________________________________________________________________
resnet50_channel_6c_conv_1 (Con (None, 28, 28, 170)  21930       lambda_123[0][1]                 
__________________________________________________________________________________________________
resnet50_channel_6c_conv_2 (Con (None, 28, 28, 172)  22188       lambda_123[0][2]                 
__________________________________________________________________________________________________
concatenate_107 (Concatenate)   (None, 28, 28, 512)  0           resnet50_channel_6c_conv_0[0][0] 
                                                                 resnet50_channel_6c_conv_1[0][0] 
                                                                 resnet50_channel_6c_conv_2[0][0] 
__________________________________________________________________________________________________
add_107 (Add)                   (None, 28, 28, 512)  0           concatenate_107[0][0]            
                                                                 activation_74[0][0]              
__________________________________________________________________________________________________
activation_75 (Activation)      (None, 28, 28, 512)  0           add_107[0][0]                    
__________________________________________________________________________________________________
lambda_124 (Lambda)             [(None, 28, 28, 512) 0           activation_75[0][0]              
__________________________________________________________________________________________________
resnet50_channel_7a_conv_0 (Con (None, 28, 28, 42)   21546       lambda_124[0][0]                 
__________________________________________________________________________________________________
resnet50_channel_7a_conv_1 (Con (None, 28, 28, 42)   21546       lambda_124[0][1]                 
__________________________________________________________________________________________________
resnet50_channel_7a_conv_2 (Con (None, 28, 28, 44)   22572       lambda_124[0][2]                 
__________________________________________________________________________________________________
concatenate_108 (Concatenate)   (None, 28, 28, 128)  0           resnet50_channel_7a_conv_0[0][0] 
                                                                 resnet50_channel_7a_conv_1[0][0] 
                                                                 resnet50_channel_7a_conv_2[0][0] 
__________________________________________________________________________________________________
lambda_125 (Lambda)             [(None, 28, 28, 128) 0           concatenate_108[0][0]            
__________________________________________________________________________________________________
resnet50_channel_7b_conv_0 (Con (None, 28, 28, 42)   48426       lambda_125[0][0]                 
__________________________________________________________________________________________________
resnet50_channel_7b_conv_1 (Con (None, 28, 28, 42)   48426       lambda_125[0][1]                 
__________________________________________________________________________________________________
resnet50_channel_7b_conv_2 (Con (None, 28, 28, 44)   50732       lambda_125[0][2]                 
__________________________________________________________________________________________________
concatenate_109 (Concatenate)   (None, 28, 28, 128)  0           resnet50_channel_7b_conv_0[0][0] 
                                                                 resnet50_channel_7b_conv_1[0][0] 
                                                                 resnet50_channel_7b_conv_2[0][0] 
__________________________________________________________________________________________________
lambda_126 (Lambda)             [(None, 28, 28, 128) 0           concatenate_109[0][0]            
__________________________________________________________________________________________________
resnet50_channel_7c_conv_0 (Con (None, 28, 28, 170)  21930       lambda_126[0][0]                 
__________________________________________________________________________________________________
resnet50_channel_7c_conv_1 (Con (None, 28, 28, 170)  21930       lambda_126[0][1]                 
__________________________________________________________________________________________________
resnet50_channel_7c_conv_2 (Con (None, 28, 28, 172)  22188       lambda_126[0][2]                 
__________________________________________________________________________________________________
concatenate_110 (Concatenate)   (None, 28, 28, 512)  0           resnet50_channel_7c_conv_0[0][0] 
                                                                 resnet50_channel_7c_conv_1[0][0] 
                                                                 resnet50_channel_7c_conv_2[0][0] 
__________________________________________________________________________________________________
add_108 (Add)                   (None, 28, 28, 512)  0           concatenate_110[0][0]            
                                                                 activation_75[0][0]              
__________________________________________________________________________________________________
activation_76 (Activation)      (None, 28, 28, 512)  0           add_108[0][0]                    
__________________________________________________________________________________________________
lambda_127 (Lambda)             [(None, 28, 28, 512) 0           activation_76[0][0]              
__________________________________________________________________________________________________
resnet50_channel_8a_conv_0 (Con (None, 28, 28, 42)   21546       lambda_127[0][0]                 
__________________________________________________________________________________________________
resnet50_channel_8a_conv_1 (Con (None, 28, 28, 42)   21546       lambda_127[0][1]                 
__________________________________________________________________________________________________
resnet50_channel_8a_conv_2 (Con (None, 28, 28, 44)   22572       lambda_127[0][2]                 
__________________________________________________________________________________________________
concatenate_111 (Concatenate)   (None, 28, 28, 128)  0           resnet50_channel_8a_conv_0[0][0] 
                                                                 resnet50_channel_8a_conv_1[0][0] 
                                                                 resnet50_channel_8a_conv_2[0][0] 
__________________________________________________________________________________________________
lambda_128 (Lambda)             [(None, 28, 28, 128) 0           concatenate_111[0][0]            
__________________________________________________________________________________________________
resnet50_channel_8b_conv_0 (Con (None, 28, 28, 42)   48426       lambda_128[0][0]                 
__________________________________________________________________________________________________
resnet50_channel_8b_conv_1 (Con (None, 28, 28, 42)   48426       lambda_128[0][1]                 
__________________________________________________________________________________________________
resnet50_channel_8b_conv_2 (Con (None, 28, 28, 44)   50732       lambda_128[0][2]                 
__________________________________________________________________________________________________
concatenate_112 (Concatenate)   (None, 28, 28, 128)  0           resnet50_channel_8b_conv_0[0][0] 
                                                                 resnet50_channel_8b_conv_1[0][0] 
                                                                 resnet50_channel_8b_conv_2[0][0] 
__________________________________________________________________________________________________
lambda_129 (Lambda)             [(None, 28, 28, 128) 0           concatenate_112[0][0]            
__________________________________________________________________________________________________
resnet50_channel_8c_conv_0 (Con (None, 28, 28, 170)  21930       lambda_129[0][0]                 
__________________________________________________________________________________________________
resnet50_channel_8c_conv_1 (Con (None, 28, 28, 170)  21930       lambda_129[0][1]                 
__________________________________________________________________________________________________
resnet50_channel_8c_conv_2 (Con (None, 28, 28, 172)  22188       lambda_129[0][2]                 
__________________________________________________________________________________________________
concatenate_113 (Concatenate)   (None, 28, 28, 512)  0           resnet50_channel_8c_conv_0[0][0] 
                                                                 resnet50_channel_8c_conv_1[0][0] 
                                                                 resnet50_channel_8c_conv_2[0][0] 
__________________________________________________________________________________________________
add_109 (Add)                   (None, 28, 28, 512)  0           concatenate_113[0][0]            
                                                                 activation_76[0][0]              
__________________________________________________________________________________________________
activation_77 (Activation)      (None, 28, 28, 512)  0           add_109[0][0]                    
__________________________________________________________________________________________________
lambda_130 (Lambda)             [(None, 28, 28, 512) 0           activation_77[0][0]              
__________________________________________________________________________________________________
resnet50_channel_9a_conv_0 (Con (None, 14, 14, 85)   43605       lambda_130[0][0]                 
__________________________________________________________________________________________________
resnet50_channel_9a_conv_1 (Con (None, 14, 14, 85)   43605       lambda_130[0][1]                 
__________________________________________________________________________________________________
resnet50_channel_9a_conv_2 (Con (None, 14, 14, 86)   44118       lambda_130[0][2]                 
__________________________________________________________________________________________________
concatenate_114 (Concatenate)   (None, 14, 14, 256)  0           resnet50_channel_9a_conv_0[0][0] 
                                                                 resnet50_channel_9a_conv_1[0][0] 
                                                                 resnet50_channel_9a_conv_2[0][0] 
__________________________________________________________________________________________________
lambda_131 (Lambda)             [(None, 14, 14, 256) 0           concatenate_114[0][0]            
__________________________________________________________________________________________________
resnet50_channel_9v_conv_0 (Con (None, 14, 14, 85)   195925      lambda_131[0][0]                 
__________________________________________________________________________________________________
resnet50_channel_9v_conv_1 (Con (None, 14, 14, 85)   195925      lambda_131[0][1]                 
__________________________________________________________________________________________________
resnet50_channel_9v_conv_2 (Con (None, 14, 14, 86)   198230      lambda_131[0][2]                 
__________________________________________________________________________________________________
concatenate_115 (Concatenate)   (None, 14, 14, 256)  0           resnet50_channel_9v_conv_0[0][0] 
                                                                 resnet50_channel_9v_conv_1[0][0] 
                                                                 resnet50_channel_9v_conv_2[0][0] 
__________________________________________________________________________________________________
lambda_132 (Lambda)             [(None, 14, 14, 256) 0           concatenate_115[0][0]            
__________________________________________________________________________________________________
lambda_133 (Lambda)             [(None, 28, 28, 512) 0           activation_77[0][0]              
__________________________________________________________________________________________________
resnet50_channel_9c_conv_0 (Con (None, 14, 14, 341)  87637       lambda_132[0][0]                 
__________________________________________________________________________________________________
resnet50_channel_9c_conv_1 (Con (None, 14, 14, 341)  87637       lambda_132[0][1]                 
__________________________________________________________________________________________________
resnet50_channel_9c_conv_2 (Con (None, 14, 14, 342)  87894       lambda_132[0][2]                 
__________________________________________________________________________________________________
resnet50_channel_9s_conv_0 (Con (None, 14, 14, 341)  174933      lambda_133[0][0]                 
__________________________________________________________________________________________________
resnet50_channel_9s_conv_1 (Con (None, 14, 14, 341)  174933      lambda_133[0][1]                 
__________________________________________________________________________________________________
resnet50_channel_9s_conv_2 (Con (None, 14, 14, 342)  175446      lambda_133[0][2]                 
__________________________________________________________________________________________________
concatenate_116 (Concatenate)   (None, 14, 14, 1024) 0           resnet50_channel_9c_conv_0[0][0] 
                                                                 resnet50_channel_9c_conv_1[0][0] 
                                                                 resnet50_channel_9c_conv_2[0][0] 
__________________________________________________________________________________________________
concatenate_117 (Concatenate)   (None, 14, 14, 1024) 0           resnet50_channel_9s_conv_0[0][0] 
                                                                 resnet50_channel_9s_conv_1[0][0] 
                                                                 resnet50_channel_9s_conv_2[0][0] 
__________________________________________________________________________________________________
add_110 (Add)                   (None, 14, 14, 1024) 0           concatenate_116[0][0]            
                                                                 concatenate_117[0][0]            
__________________________________________________________________________________________________
activation_78 (Activation)      (None, 14, 14, 1024) 0           add_110[0][0]                    
__________________________________________________________________________________________________
lambda_134 (Lambda)             [(None, 14, 14, 1024 0           activation_78[0][0]              
__________________________________________________________________________________________________
resnet50_channel_10a_conv_0 (Co (None, 14, 14, 85)   87125       lambda_134[0][0]                 
__________________________________________________________________________________________________
resnet50_channel_10a_conv_1 (Co (None, 14, 14, 85)   87125       lambda_134[0][1]                 
__________________________________________________________________________________________________
resnet50_channel_10a_conv_2 (Co (None, 14, 14, 86)   88150       lambda_134[0][2]                 
__________________________________________________________________________________________________
concatenate_118 (Concatenate)   (None, 14, 14, 256)  0           resnet50_channel_10a_conv_0[0][0]
                                                                 resnet50_channel_10a_conv_1[0][0]
                                                                 resnet50_channel_10a_conv_2[0][0]
__________________________________________________________________________________________________
lambda_135 (Lambda)             [(None, 14, 14, 256) 0           concatenate_118[0][0]            
__________________________________________________________________________________________________
resnet50_channel_10b_conv_0 (Co (None, 14, 14, 85)   195925      lambda_135[0][0]                 
__________________________________________________________________________________________________
resnet50_channel_10b_conv_1 (Co (None, 14, 14, 85)   195925      lambda_135[0][1]                 
__________________________________________________________________________________________________
resnet50_channel_10b_conv_2 (Co (None, 14, 14, 86)   198230      lambda_135[0][2]                 
__________________________________________________________________________________________________
concatenate_119 (Concatenate)   (None, 14, 14, 256)  0           resnet50_channel_10b_conv_0[0][0]
                                                                 resnet50_channel_10b_conv_1[0][0]
                                                                 resnet50_channel_10b_conv_2[0][0]
__________________________________________________________________________________________________
lambda_136 (Lambda)             [(None, 14, 14, 256) 0           concatenate_119[0][0]            
__________________________________________________________________________________________________
resnet50_channel_10c_conv_0 (Co (None, 14, 14, 341)  87637       lambda_136[0][0]                 
__________________________________________________________________________________________________
resnet50_channel_10c_conv_1 (Co (None, 14, 14, 341)  87637       lambda_136[0][1]                 
__________________________________________________________________________________________________
resnet50_channel_10c_conv_2 (Co (None, 14, 14, 342)  87894       lambda_136[0][2]                 
__________________________________________________________________________________________________
concatenate_120 (Concatenate)   (None, 14, 14, 1024) 0           resnet50_channel_10c_conv_0[0][0]
                                                                 resnet50_channel_10c_conv_1[0][0]
                                                                 resnet50_channel_10c_conv_2[0][0]
__________________________________________________________________________________________________
add_111 (Add)                   (None, 14, 14, 1024) 0           concatenate_120[0][0]            
                                                                 activation_78[0][0]              
__________________________________________________________________________________________________
activation_79 (Activation)      (None, 14, 14, 1024) 0           add_111[0][0]                    
__________________________________________________________________________________________________
lambda_137 (Lambda)             [(None, 14, 14, 1024 0           activation_79[0][0]              
__________________________________________________________________________________________________
resnet50_channel_11a_conv_0 (Co (None, 14, 14, 85)   87125       lambda_137[0][0]                 
__________________________________________________________________________________________________
resnet50_channel_11a_conv_1 (Co (None, 14, 14, 85)   87125       lambda_137[0][1]                 
__________________________________________________________________________________________________
resnet50_channel_11a_conv_2 (Co (None, 14, 14, 86)   88150       lambda_137[0][2]                 
__________________________________________________________________________________________________
concatenate_121 (Concatenate)   (None, 14, 14, 256)  0           resnet50_channel_11a_conv_0[0][0]
                                                                 resnet50_channel_11a_conv_1[0][0]
                                                                 resnet50_channel_11a_conv_2[0][0]
__________________________________________________________________________________________________
lambda_138 (Lambda)             [(None, 14, 14, 256) 0           concatenate_121[0][0]            
__________________________________________________________________________________________________
resnet50_channel_11b_conv_0 (Co (None, 14, 14, 85)   195925      lambda_138[0][0]                 
__________________________________________________________________________________________________
resnet50_channel_11b_conv_1 (Co (None, 14, 14, 85)   195925      lambda_138[0][1]                 
__________________________________________________________________________________________________
resnet50_channel_11b_conv_2 (Co (None, 14, 14, 86)   198230      lambda_138[0][2]                 
__________________________________________________________________________________________________
concatenate_122 (Concatenate)   (None, 14, 14, 256)  0           resnet50_channel_11b_conv_0[0][0]
                                                                 resnet50_channel_11b_conv_1[0][0]
                                                                 resnet50_channel_11b_conv_2[0][0]
__________________________________________________________________________________________________
lambda_139 (Lambda)             [(None, 14, 14, 256) 0           concatenate_122[0][0]            
__________________________________________________________________________________________________
resnet50_channel_11c_conv_0 (Co (None, 14, 14, 341)  87637       lambda_139[0][0]                 
__________________________________________________________________________________________________
resnet50_channel_11c_conv_1 (Co (None, 14, 14, 341)  87637       lambda_139[0][1]                 
__________________________________________________________________________________________________
resnet50_channel_11c_conv_2 (Co (None, 14, 14, 342)  87894       lambda_139[0][2]                 
__________________________________________________________________________________________________
concatenate_123 (Concatenate)   (None, 14, 14, 1024) 0           resnet50_channel_11c_conv_0[0][0]
                                                                 resnet50_channel_11c_conv_1[0][0]
                                                                 resnet50_channel_11c_conv_2[0][0]
__________________________________________________________________________________________________
add_112 (Add)                   (None, 14, 14, 1024) 0           concatenate_123[0][0]            
                                                                 activation_79[0][0]              
__________________________________________________________________________________________________
activation_80 (Activation)      (None, 14, 14, 1024) 0           add_112[0][0]                    
__________________________________________________________________________________________________
lambda_140 (Lambda)             [(None, 14, 14, 1024 0           activation_80[0][0]              
__________________________________________________________________________________________________
resnet50_channel_12a_conv_0 (Co (None, 14, 14, 85)   87125       lambda_140[0][0]                 
__________________________________________________________________________________________________
resnet50_channel_12a_conv_1 (Co (None, 14, 14, 85)   87125       lambda_140[0][1]                 
__________________________________________________________________________________________________
resnet50_channel_12a_conv_2 (Co (None, 14, 14, 86)   88150       lambda_140[0][2]                 
__________________________________________________________________________________________________
concatenate_124 (Concatenate)   (None, 14, 14, 256)  0           resnet50_channel_12a_conv_0[0][0]
                                                                 resnet50_channel_12a_conv_1[0][0]
                                                                 resnet50_channel_12a_conv_2[0][0]
__________________________________________________________________________________________________
lambda_141 (Lambda)             [(None, 14, 14, 256) 0           concatenate_124[0][0]            
__________________________________________________________________________________________________
resnet50_channel_12b_conv_0 (Co (None, 14, 14, 85)   195925      lambda_141[0][0]                 
__________________________________________________________________________________________________
resnet50_channel_12b_conv_1 (Co (None, 14, 14, 85)   195925      lambda_141[0][1]                 
__________________________________________________________________________________________________
resnet50_channel_12b_conv_2 (Co (None, 14, 14, 86)   198230      lambda_141[0][2]                 
__________________________________________________________________________________________________
concatenate_125 (Concatenate)   (None, 14, 14, 256)  0           resnet50_channel_12b_conv_0[0][0]
                                                                 resnet50_channel_12b_conv_1[0][0]
                                                                 resnet50_channel_12b_conv_2[0][0]
__________________________________________________________________________________________________
lambda_142 (Lambda)             [(None, 14, 14, 256) 0           concatenate_125[0][0]            
__________________________________________________________________________________________________
resnet50_channel_12c_conv_0 (Co (None, 14, 14, 341)  87637       lambda_142[0][0]                 
__________________________________________________________________________________________________
resnet50_channel_12c_conv_1 (Co (None, 14, 14, 341)  87637       lambda_142[0][1]                 
__________________________________________________________________________________________________
resnet50_channel_12c_conv_2 (Co (None, 14, 14, 342)  87894       lambda_142[0][2]                 
__________________________________________________________________________________________________
concatenate_126 (Concatenate)   (None, 14, 14, 1024) 0           resnet50_channel_12c_conv_0[0][0]
                                                                 resnet50_channel_12c_conv_1[0][0]
                                                                 resnet50_channel_12c_conv_2[0][0]
__________________________________________________________________________________________________
add_113 (Add)                   (None, 14, 14, 1024) 0           concatenate_126[0][0]            
                                                                 activation_80[0][0]              
__________________________________________________________________________________________________
activation_81 (Activation)      (None, 14, 14, 1024) 0           add_113[0][0]                    
__________________________________________________________________________________________________
lambda_143 (Lambda)             [(None, 14, 14, 1024 0           activation_81[0][0]              
__________________________________________________________________________________________________
resnet50_channel_13a_conv_0 (Co (None, 14, 14, 85)   87125       lambda_143[0][0]                 
__________________________________________________________________________________________________
resnet50_channel_13a_conv_1 (Co (None, 14, 14, 85)   87125       lambda_143[0][1]                 
__________________________________________________________________________________________________
resnet50_channel_13a_conv_2 (Co (None, 14, 14, 86)   88150       lambda_143[0][2]                 
__________________________________________________________________________________________________
concatenate_127 (Concatenate)   (None, 14, 14, 256)  0           resnet50_channel_13a_conv_0[0][0]
                                                                 resnet50_channel_13a_conv_1[0][0]
                                                                 resnet50_channel_13a_conv_2[0][0]
__________________________________________________________________________________________________
lambda_144 (Lambda)             [(None, 14, 14, 256) 0           concatenate_127[0][0]            
__________________________________________________________________________________________________
resnet50_channel_13b_conv_0 (Co (None, 14, 14, 85)   195925      lambda_144[0][0]                 
__________________________________________________________________________________________________
resnet50_channel_13b_conv_1 (Co (None, 14, 14, 85)   195925      lambda_144[0][1]                 
__________________________________________________________________________________________________
resnet50_channel_13b_conv_2 (Co (None, 14, 14, 86)   198230      lambda_144[0][2]                 
__________________________________________________________________________________________________
concatenate_128 (Concatenate)   (None, 14, 14, 256)  0           resnet50_channel_13b_conv_0[0][0]
                                                                 resnet50_channel_13b_conv_1[0][0]
                                                                 resnet50_channel_13b_conv_2[0][0]
__________________________________________________________________________________________________
lambda_145 (Lambda)             [(None, 14, 14, 256) 0           concatenate_128[0][0]            
__________________________________________________________________________________________________
resnet50_channel_13c_conv_0 (Co (None, 14, 14, 341)  87637       lambda_145[0][0]                 
__________________________________________________________________________________________________
resnet50_channel_13c_conv_1 (Co (None, 14, 14, 341)  87637       lambda_145[0][1]                 
__________________________________________________________________________________________________
resnet50_channel_13c_conv_2 (Co (None, 14, 14, 342)  87894       lambda_145[0][2]                 
__________________________________________________________________________________________________
concatenate_129 (Concatenate)   (None, 14, 14, 1024) 0           resnet50_channel_13c_conv_0[0][0]
                                                                 resnet50_channel_13c_conv_1[0][0]
                                                                 resnet50_channel_13c_conv_2[0][0]
__________________________________________________________________________________________________
add_114 (Add)                   (None, 14, 14, 1024) 0           concatenate_129[0][0]            
                                                                 activation_81[0][0]              
__________________________________________________________________________________________________
activation_82 (Activation)      (None, 14, 14, 1024) 0           add_114[0][0]                    
__________________________________________________________________________________________________
lambda_146 (Lambda)             [(None, 14, 14, 1024 0           activation_82[0][0]              
__________________________________________________________________________________________________
resnet50_channel_14a_conv_0 (Co (None, 14, 14, 85)   87125       lambda_146[0][0]                 
__________________________________________________________________________________________________
resnet50_channel_14a_conv_1 (Co (None, 14, 14, 85)   87125       lambda_146[0][1]                 
__________________________________________________________________________________________________
resnet50_channel_14a_conv_2 (Co (None, 14, 14, 86)   88150       lambda_146[0][2]                 
__________________________________________________________________________________________________
concatenate_130 (Concatenate)   (None, 14, 14, 256)  0           resnet50_channel_14a_conv_0[0][0]
                                                                 resnet50_channel_14a_conv_1[0][0]
                                                                 resnet50_channel_14a_conv_2[0][0]
__________________________________________________________________________________________________
lambda_147 (Lambda)             [(None, 14, 14, 256) 0           concatenate_130[0][0]            
__________________________________________________________________________________________________
resnet50_channel_14b_conv_0 (Co (None, 14, 14, 85)   195925      lambda_147[0][0]                 
__________________________________________________________________________________________________
resnet50_channel_14b_conv_1 (Co (None, 14, 14, 85)   195925      lambda_147[0][1]                 
__________________________________________________________________________________________________
resnet50_channel_14b_conv_2 (Co (None, 14, 14, 86)   198230      lambda_147[0][2]                 
__________________________________________________________________________________________________
concatenate_131 (Concatenate)   (None, 14, 14, 256)  0           resnet50_channel_14b_conv_0[0][0]
                                                                 resnet50_channel_14b_conv_1[0][0]
                                                                 resnet50_channel_14b_conv_2[0][0]
__________________________________________________________________________________________________
lambda_148 (Lambda)             [(None, 14, 14, 256) 0           concatenate_131[0][0]            
__________________________________________________________________________________________________
resnet50_channel_14c_conv_0 (Co (None, 14, 14, 341)  87637       lambda_148[0][0]                 
__________________________________________________________________________________________________
resnet50_channel_14c_conv_1 (Co (None, 14, 14, 341)  87637       lambda_148[0][1]                 
__________________________________________________________________________________________________
resnet50_channel_14c_conv_2 (Co (None, 14, 14, 342)  87894       lambda_148[0][2]                 
__________________________________________________________________________________________________
concatenate_132 (Concatenate)   (None, 14, 14, 1024) 0           resnet50_channel_14c_conv_0[0][0]
                                                                 resnet50_channel_14c_conv_1[0][0]
                                                                 resnet50_channel_14c_conv_2[0][0]
__________________________________________________________________________________________________
add_115 (Add)                   (None, 14, 14, 1024) 0           concatenate_132[0][0]            
                                                                 activation_82[0][0]              
__________________________________________________________________________________________________
activation_83 (Activation)      (None, 14, 14, 1024) 0           add_115[0][0]                    
__________________________________________________________________________________________________
lambda_149 (Lambda)             [(None, 14, 14, 1024 0           activation_83[0][0]              
__________________________________________________________________________________________________
resnet50_channel_15a_conv_0 (Co (None, 7, 7, 170)    174250      lambda_149[0][0]                 
__________________________________________________________________________________________________
resnet50_channel_15a_conv_1 (Co (None, 7, 7, 170)    174250      lambda_149[0][1]                 
__________________________________________________________________________________________________
resnet50_channel_15a_conv_2 (Co (None, 7, 7, 172)    176300      lambda_149[0][2]                 
__________________________________________________________________________________________________
concatenate_133 (Concatenate)   (None, 7, 7, 512)    0           resnet50_channel_15a_conv_0[0][0]
                                                                 resnet50_channel_15a_conv_1[0][0]
                                                                 resnet50_channel_15a_conv_2[0][0]
__________________________________________________________________________________________________
lambda_150 (Lambda)             [(None, 7, 7, 512),  0           concatenate_133[0][0]            
__________________________________________________________________________________________________
resnet50_channel_15v_conv_0 (Co (None, 7, 7, 170)    783530      lambda_150[0][0]                 
__________________________________________________________________________________________________
resnet50_channel_15v_conv_1 (Co (None, 7, 7, 170)    783530      lambda_150[0][1]                 
__________________________________________________________________________________________________
resnet50_channel_15v_conv_2 (Co (None, 7, 7, 172)    792748      lambda_150[0][2]                 
__________________________________________________________________________________________________
concatenate_134 (Concatenate)   (None, 7, 7, 512)    0           resnet50_channel_15v_conv_0[0][0]
                                                                 resnet50_channel_15v_conv_1[0][0]
                                                                 resnet50_channel_15v_conv_2[0][0]
__________________________________________________________________________________________________
lambda_151 (Lambda)             [(None, 7, 7, 512),  0           concatenate_134[0][0]            
__________________________________________________________________________________________________
lambda_152 (Lambda)             [(None, 14, 14, 1024 0           activation_83[0][0]              
__________________________________________________________________________________________________
resnet50_channel_15c_conv_0 (Co (None, 7, 7, 682)    349866      lambda_151[0][0]                 
__________________________________________________________________________________________________
resnet50_channel_15c_conv_1 (Co (None, 7, 7, 682)    349866      lambda_151[0][1]                 
__________________________________________________________________________________________________
resnet50_channel_15c_conv_2 (Co (None, 7, 7, 684)    350892      lambda_151[0][2]                 
__________________________________________________________________________________________________
resnet50_channel_15s_conv_0 (Co (None, 7, 7, 682)    699050      lambda_152[0][0]                 
__________________________________________________________________________________________________
resnet50_channel_15s_conv_1 (Co (None, 7, 7, 682)    699050      lambda_152[0][1]                 
__________________________________________________________________________________________________
resnet50_channel_15s_conv_2 (Co (None, 7, 7, 684)    701100      lambda_152[0][2]                 
__________________________________________________________________________________________________
concatenate_135 (Concatenate)   (None, 7, 7, 2048)   0           resnet50_channel_15c_conv_0[0][0]
                                                                 resnet50_channel_15c_conv_1[0][0]
                                                                 resnet50_channel_15c_conv_2[0][0]
__________________________________________________________________________________________________
concatenate_136 (Concatenate)   (None, 7, 7, 2048)   0           resnet50_channel_15s_conv_0[0][0]
                                                                 resnet50_channel_15s_conv_1[0][0]
                                                                 resnet50_channel_15s_conv_2[0][0]
__________________________________________________________________________________________________
add_116 (Add)                   (None, 7, 7, 2048)   0           concatenate_135[0][0]            
                                                                 concatenate_136[0][0]            
__________________________________________________________________________________________________
activation_84 (Activation)      (None, 7, 7, 2048)   0           add_116[0][0]                    
__________________________________________________________________________________________________
lambda_153 (Lambda)             [(None, 7, 7, 2048), 0           activation_84[0][0]              
__________________________________________________________________________________________________
resnet50_channel_16a_conv_0 (Co (None, 7, 7, 170)    348330      lambda_153[0][0]                 
__________________________________________________________________________________________________
resnet50_channel_16a_conv_1 (Co (None, 7, 7, 170)    348330      lambda_153[0][1]                 
__________________________________________________________________________________________________
resnet50_channel_16a_conv_2 (Co (None, 7, 7, 172)    352428      lambda_153[0][2]                 
__________________________________________________________________________________________________
concatenate_137 (Concatenate)   (None, 7, 7, 512)    0           resnet50_channel_16a_conv_0[0][0]
                                                                 resnet50_channel_16a_conv_1[0][0]
                                                                 resnet50_channel_16a_conv_2[0][0]
__________________________________________________________________________________________________
lambda_154 (Lambda)             [(None, 7, 7, 512),  0           concatenate_137[0][0]            
__________________________________________________________________________________________________
resnet50_channel_16b_conv_0 (Co (None, 7, 7, 170)    783530      lambda_154[0][0]                 
__________________________________________________________________________________________________
resnet50_channel_16b_conv_1 (Co (None, 7, 7, 170)    783530      lambda_154[0][1]                 
__________________________________________________________________________________________________
resnet50_channel_16b_conv_2 (Co (None, 7, 7, 172)    792748      lambda_154[0][2]                 
__________________________________________________________________________________________________
concatenate_138 (Concatenate)   (None, 7, 7, 512)    0           resnet50_channel_16b_conv_0[0][0]
                                                                 resnet50_channel_16b_conv_1[0][0]
                                                                 resnet50_channel_16b_conv_2[0][0]
__________________________________________________________________________________________________
lambda_155 (Lambda)             [(None, 7, 7, 512),  0           concatenate_138[0][0]            
__________________________________________________________________________________________________
resnet50_channel_16c_conv_0 (Co (None, 7, 7, 682)    349866      lambda_155[0][0]                 
__________________________________________________________________________________________________
resnet50_channel_16c_conv_1 (Co (None, 7, 7, 682)    349866      lambda_155[0][1]                 
__________________________________________________________________________________________________
resnet50_channel_16c_conv_2 (Co (None, 7, 7, 684)    350892      lambda_155[0][2]                 
__________________________________________________________________________________________________
concatenate_139 (Concatenate)   (None, 7, 7, 2048)   0           resnet50_channel_16c_conv_0[0][0]
                                                                 resnet50_channel_16c_conv_1[0][0]
                                                                 resnet50_channel_16c_conv_2[0][0]
__________________________________________________________________________________________________
add_117 (Add)                   (None, 7, 7, 2048)   0           concatenate_139[0][0]            
                                                                 activation_84[0][0]              
__________________________________________________________________________________________________
activation_85 (Activation)      (None, 7, 7, 2048)   0           add_117[0][0]                    
__________________________________________________________________________________________________
lambda_156 (Lambda)             [(None, 7, 7, 2048), 0           activation_85[0][0]              
__________________________________________________________________________________________________
resnet50_channel_17a_conv_0 (Co (None, 7, 7, 170)    348330      lambda_156[0][0]                 
__________________________________________________________________________________________________
resnet50_channel_17a_conv_1 (Co (None, 7, 7, 170)    348330      lambda_156[0][1]                 
__________________________________________________________________________________________________
resnet50_channel_17a_conv_2 (Co (None, 7, 7, 172)    352428      lambda_156[0][2]                 
__________________________________________________________________________________________________
concatenate_140 (Concatenate)   (None, 7, 7, 512)    0           resnet50_channel_17a_conv_0[0][0]
                                                                 resnet50_channel_17a_conv_1[0][0]
                                                                 resnet50_channel_17a_conv_2[0][0]
__________________________________________________________________________________________________
lambda_157 (Lambda)             [(None, 7, 7, 512),  0           concatenate_140[0][0]            
__________________________________________________________________________________________________
resnet50_channel_17b_conv_0 (Co (None, 7, 7, 170)    783530      lambda_157[0][0]                 
__________________________________________________________________________________________________
resnet50_channel_17b_conv_1 (Co (None, 7, 7, 170)    783530      lambda_157[0][1]                 
__________________________________________________________________________________________________
resnet50_channel_17b_conv_2 (Co (None, 7, 7, 172)    792748      lambda_157[0][2]                 
__________________________________________________________________________________________________
concatenate_141 (Concatenate)   (None, 7, 7, 512)    0           resnet50_channel_17b_conv_0[0][0]
                                                                 resnet50_channel_17b_conv_1[0][0]
                                                                 resnet50_channel_17b_conv_2[0][0]
__________________________________________________________________________________________________
lambda_158 (Lambda)             [(None, 7, 7, 512),  0           concatenate_141[0][0]            
__________________________________________________________________________________________________
resnet50_channel_17c_conv_0 (Co (None, 7, 7, 682)    349866      lambda_158[0][0]                 
__________________________________________________________________________________________________
resnet50_channel_17c_conv_1 (Co (None, 7, 7, 682)    349866      lambda_158[0][1]                 
__________________________________________________________________________________________________
resnet50_channel_17c_conv_2 (Co (None, 7, 7, 684)    350892      lambda_158[0][2]                 
__________________________________________________________________________________________________
concatenate_142 (Concatenate)   (None, 7, 7, 2048)   0           resnet50_channel_17c_conv_0[0][0]
                                                                 resnet50_channel_17c_conv_1[0][0]
                                                                 resnet50_channel_17c_conv_2[0][0]
__________________________________________________________________________________________________
add_118 (Add)                   (None, 7, 7, 2048)   0           concatenate_142[0][0]            
                                                                 activation_85[0][0]              
__________________________________________________________________________________________________
activation_86 (Activation)      (None, 7, 7, 2048)   0           add_118[0][0]                    
__________________________________________________________________________________________________
average_pooling2d_3 (AveragePoo (None, 1, 1, 2048)   0           activation_86[0][0]              
__________________________________________________________________________________________________
flatten_7 (Flatten)             (None, 2048)         0           average_pooling2d_3[0][0]        
__________________________________________________________________________________________________
resnet50_channel_18_dense (Dens (None, 1000)         2049000     flatten_7[0][0]                  
==================================================================================================
Total params: 25,530,472
Trainable params: 25,530,472
Non-trainable params: 0
__________________________________________________________________________________________________
None
