__________________________________________________________________________________________________
Layer (type)                    Output Shape         Param #     Connected to                     
==================================================================================================
input_2 (InputLayer)            (None, 224, 224, 3)  0                                            
__________________________________________________________________________________________________
zero_padding2d_2 (ZeroPadding2D (None, 230, 230, 3)  0           input_2[0][0]                    
__________________________________________________________________________________________________
resnet50_filter_1 (Conv2D)      (None, 112, 112, 64) 9472        zero_padding2d_2[0][0]           
__________________________________________________________________________________________________
max_pooling2d_2 (MaxPooling2D)  (None, 55, 55, 64)   0           resnet50_filter_1[0][0]          
__________________________________________________________________________________________________
lambda_1 (Lambda)               [(None, 55, 55, 21), 0           max_pooling2d_2[0][0]            
__________________________________________________________________________________________________
resnet50_filter_2a_conv_0 (Conv (None, 55, 55, 64)   1344        lambda_1[0][0]                   
__________________________________________________________________________________________________
resnet50_filter_2a_conv_1 (Conv (None, 55, 55, 64)   1344        lambda_1[0][1]                   
__________________________________________________________________________________________________
resnet50_filter_2a_conv_2 (Conv (None, 55, 55, 64)   1472        lambda_1[0][2]                   
__________________________________________________________________________________________________
add_17 (Add)                    (None, 55, 55, 64)   0           resnet50_filter_2a_conv_0[0][0]  
                                                                 resnet50_filter_2a_conv_1[0][0]  
                                                                 resnet50_filter_2a_conv_2[0][0]  
__________________________________________________________________________________________________
activation_17 (Activation)      (None, 55, 55, 64)   0           add_17[0][0]                     
__________________________________________________________________________________________________
lambda_2 (Lambda)               [(None, 55, 55, 21), 0           activation_17[0][0]              
__________________________________________________________________________________________________
resnet50_filter_2b_conv_0 (Conv (None, 55, 55, 64)   12096       lambda_2[0][0]                   
__________________________________________________________________________________________________
resnet50_filter_2b_conv_1 (Conv (None, 55, 55, 64)   12096       lambda_2[0][1]                   
__________________________________________________________________________________________________
resnet50_filter_2b_conv_2 (Conv (None, 55, 55, 64)   12736       lambda_2[0][2]                   
__________________________________________________________________________________________________
add_18 (Add)                    (None, 55, 55, 64)   0           resnet50_filter_2b_conv_0[0][0]  
                                                                 resnet50_filter_2b_conv_1[0][0]  
                                                                 resnet50_filter_2b_conv_2[0][0]  
__________________________________________________________________________________________________
activation_18 (Activation)      (None, 55, 55, 64)   0           add_18[0][0]                     
__________________________________________________________________________________________________
lambda_3 (Lambda)               [(None, 55, 55, 21), 0           activation_18[0][0]              
__________________________________________________________________________________________________
lambda_4 (Lambda)               [(None, 55, 55, 21), 0           max_pooling2d_2[0][0]            
__________________________________________________________________________________________________
resnet50_filter_2c_conv_0 (Conv (None, 55, 55, 256)  5376        lambda_3[0][0]                   
__________________________________________________________________________________________________
resnet50_filter_2c_conv_1 (Conv (None, 55, 55, 256)  5376        lambda_3[0][1]                   
__________________________________________________________________________________________________
resnet50_filter_2c_conv_2 (Conv (None, 55, 55, 256)  5888        lambda_3[0][2]                   
__________________________________________________________________________________________________
resnet50_filter_2s_conv_0 (Conv (None, 55, 55, 256)  5376        lambda_4[0][0]                   
__________________________________________________________________________________________________
resnet50_filter_2s_conv_1 (Conv (None, 55, 55, 256)  5376        lambda_4[0][1]                   
__________________________________________________________________________________________________
resnet50_filter_2s_conv_2 (Conv (None, 55, 55, 256)  5888        lambda_4[0][2]                   
__________________________________________________________________________________________________
add_19 (Add)                    (None, 55, 55, 256)  0           resnet50_filter_2c_conv_0[0][0]  
                                                                 resnet50_filter_2c_conv_1[0][0]  
                                                                 resnet50_filter_2c_conv_2[0][0]  
__________________________________________________________________________________________________
add_20 (Add)                    (None, 55, 55, 256)  0           resnet50_filter_2s_conv_0[0][0]  
                                                                 resnet50_filter_2s_conv_1[0][0]  
                                                                 resnet50_filter_2s_conv_2[0][0]  
__________________________________________________________________________________________________
add_21 (Add)                    (None, 55, 55, 256)  0           add_19[0][0]                     
                                                                 add_20[0][0]                     
__________________________________________________________________________________________________
activation_19 (Activation)      (None, 55, 55, 256)  0           add_21[0][0]                     
__________________________________________________________________________________________________
lambda_5 (Lambda)               [(None, 55, 55, 85), 0           activation_19[0][0]              
__________________________________________________________________________________________________
resnet50_filter_3a_conv_0 (Conv (None, 55, 55, 64)   5440        lambda_5[0][0]                   
__________________________________________________________________________________________________
resnet50_filter_3a_conv_1 (Conv (None, 55, 55, 64)   5440        lambda_5[0][1]                   
__________________________________________________________________________________________________
resnet50_filter_3a_conv_2 (Conv (None, 55, 55, 64)   5568        lambda_5[0][2]                   
__________________________________________________________________________________________________
add_22 (Add)                    (None, 55, 55, 64)   0           resnet50_filter_3a_conv_0[0][0]  
                                                                 resnet50_filter_3a_conv_1[0][0]  
                                                                 resnet50_filter_3a_conv_2[0][0]  
__________________________________________________________________________________________________
activation_20 (Activation)      (None, 55, 55, 64)   0           add_22[0][0]                     
__________________________________________________________________________________________________
lambda_6 (Lambda)               [(None, 55, 55, 21), 0           activation_20[0][0]              
__________________________________________________________________________________________________
resnet50_filter_3b_conv_0 (Conv (None, 55, 55, 64)   12096       lambda_6[0][0]                   
__________________________________________________________________________________________________
resnet50_filter_3b_conv_1 (Conv (None, 55, 55, 64)   12096       lambda_6[0][1]                   
__________________________________________________________________________________________________
resnet50_filter_3b_conv_2 (Conv (None, 55, 55, 64)   12736       lambda_6[0][2]                   
__________________________________________________________________________________________________
add_23 (Add)                    (None, 55, 55, 64)   0           resnet50_filter_3b_conv_0[0][0]  
                                                                 resnet50_filter_3b_conv_1[0][0]  
                                                                 resnet50_filter_3b_conv_2[0][0]  
__________________________________________________________________________________________________
lambda_7 (Lambda)               [(None, 55, 55, 21), 0           add_23[0][0]                     
__________________________________________________________________________________________________
resnet50_filter_3c_conv_0 (Conv (None, 55, 55, 256)  5376        lambda_7[0][0]                   
__________________________________________________________________________________________________
resnet50_filter_3c_conv_1 (Conv (None, 55, 55, 256)  5376        lambda_7[0][1]                   
__________________________________________________________________________________________________
resnet50_filter_3c_conv_2 (Conv (None, 55, 55, 256)  5888        lambda_7[0][2]                   
__________________________________________________________________________________________________
add_24 (Add)                    (None, 55, 55, 256)  0           resnet50_filter_3c_conv_0[0][0]  
                                                                 resnet50_filter_3c_conv_1[0][0]  
                                                                 resnet50_filter_3c_conv_2[0][0]  
__________________________________________________________________________________________________
add_25 (Add)                    (None, 55, 55, 256)  0           add_24[0][0]                     
                                                                 activation_19[0][0]              
__________________________________________________________________________________________________
activation_21 (Activation)      (None, 55, 55, 256)  0           add_25[0][0]                     
__________________________________________________________________________________________________
lambda_8 (Lambda)               [(None, 55, 55, 85), 0           activation_21[0][0]              
__________________________________________________________________________________________________
resnet50_filter_4a_conv_0 (Conv (None, 55, 55, 64)   5440        lambda_8[0][0]                   
__________________________________________________________________________________________________
resnet50_filter_4a_conv_1 (Conv (None, 55, 55, 64)   5440        lambda_8[0][1]                   
__________________________________________________________________________________________________
resnet50_filter_4a_conv_2 (Conv (None, 55, 55, 64)   5568        lambda_8[0][2]                   
__________________________________________________________________________________________________
add_26 (Add)                    (None, 55, 55, 64)   0           resnet50_filter_4a_conv_0[0][0]  
                                                                 resnet50_filter_4a_conv_1[0][0]  
                                                                 resnet50_filter_4a_conv_2[0][0]  
__________________________________________________________________________________________________
activation_22 (Activation)      (None, 55, 55, 64)   0           add_26[0][0]                     
__________________________________________________________________________________________________
lambda_9 (Lambda)               [(None, 55, 55, 21), 0           activation_22[0][0]              
__________________________________________________________________________________________________
resnet50_filter_4b_conv_0 (Conv (None, 55, 55, 64)   12096       lambda_9[0][0]                   
__________________________________________________________________________________________________
resnet50_filter_4b_conv_1 (Conv (None, 55, 55, 64)   12096       lambda_9[0][1]                   
__________________________________________________________________________________________________
resnet50_filter_4b_conv_2 (Conv (None, 55, 55, 64)   12736       lambda_9[0][2]                   
__________________________________________________________________________________________________
add_27 (Add)                    (None, 55, 55, 64)   0           resnet50_filter_4b_conv_0[0][0]  
                                                                 resnet50_filter_4b_conv_1[0][0]  
                                                                 resnet50_filter_4b_conv_2[0][0]  
__________________________________________________________________________________________________
lambda_10 (Lambda)              [(None, 55, 55, 21), 0           add_27[0][0]                     
__________________________________________________________________________________________________
resnet50_filter_4c_conv_0 (Conv (None, 55, 55, 256)  5376        lambda_10[0][0]                  
__________________________________________________________________________________________________
resnet50_filter_4c_conv_1 (Conv (None, 55, 55, 256)  5376        lambda_10[0][1]                  
__________________________________________________________________________________________________
resnet50_filter_4c_conv_2 (Conv (None, 55, 55, 256)  5888        lambda_10[0][2]                  
__________________________________________________________________________________________________
add_28 (Add)                    (None, 55, 55, 256)  0           resnet50_filter_4c_conv_0[0][0]  
                                                                 resnet50_filter_4c_conv_1[0][0]  
                                                                 resnet50_filter_4c_conv_2[0][0]  
__________________________________________________________________________________________________
add_29 (Add)                    (None, 55, 55, 256)  0           add_28[0][0]                     
                                                                 activation_21[0][0]              
__________________________________________________________________________________________________
activation_23 (Activation)      (None, 55, 55, 256)  0           add_29[0][0]                     
__________________________________________________________________________________________________
lambda_11 (Lambda)              [(None, 55, 55, 85), 0           activation_23[0][0]              
__________________________________________________________________________________________________
resnet50_filter_5a_conv_0 (Conv (None, 28, 28, 128)  10880       lambda_11[0][0]                  
__________________________________________________________________________________________________
resnet50_filter_5a_conv_1 (Conv (None, 28, 28, 128)  10880       lambda_11[0][1]                  
__________________________________________________________________________________________________
resnet50_filter_5a_conv_2 (Conv (None, 28, 28, 128)  11136       lambda_11[0][2]                  
__________________________________________________________________________________________________
add_30 (Add)                    (None, 28, 28, 128)  0           resnet50_filter_5a_conv_0[0][0]  
                                                                 resnet50_filter_5a_conv_1[0][0]  
                                                                 resnet50_filter_5a_conv_2[0][0]  
__________________________________________________________________________________________________
activation_24 (Activation)      (None, 28, 28, 128)  0           add_30[0][0]                     
__________________________________________________________________________________________________
lambda_12 (Lambda)              [(None, 28, 28, 42), 0           activation_24[0][0]              
__________________________________________________________________________________________________
resnet50_filter_5b_conv_0 (Conv (None, 28, 28, 128)  48384       lambda_12[0][0]                  
__________________________________________________________________________________________________
resnet50_filter_5b_conv_1 (Conv (None, 28, 28, 128)  48384       lambda_12[0][1]                  
__________________________________________________________________________________________________
resnet50_filter_5b_conv_2 (Conv (None, 28, 28, 128)  50816       lambda_12[0][2]                  
__________________________________________________________________________________________________
add_31 (Add)                    (None, 28, 28, 128)  0           resnet50_filter_5b_conv_0[0][0]  
                                                                 resnet50_filter_5b_conv_1[0][0]  
                                                                 resnet50_filter_5b_conv_2[0][0]  
__________________________________________________________________________________________________
activation_25 (Activation)      (None, 28, 28, 128)  0           add_31[0][0]                     
__________________________________________________________________________________________________
lambda_13 (Lambda)              [(None, 28, 28, 42), 0           activation_25[0][0]              
__________________________________________________________________________________________________
lambda_14 (Lambda)              [(None, 55, 55, 85), 0           activation_23[0][0]              
__________________________________________________________________________________________________
resnet50_filter_5c_conv_0 (Conv (None, 28, 28, 512)  21504       lambda_13[0][0]                  
__________________________________________________________________________________________________
resnet50_filter_5c_conv_1 (Conv (None, 28, 28, 512)  21504       lambda_13[0][1]                  
__________________________________________________________________________________________________
resnet50_filter_5c_conv_2 (Conv (None, 28, 28, 512)  23040       lambda_13[0][2]                  
__________________________________________________________________________________________________
resnet50_filter_5s_conv_0 (Conv (None, 28, 28, 512)  43520       lambda_14[0][0]                  
__________________________________________________________________________________________________
resnet50_filter_5s_conv_1 (Conv (None, 28, 28, 512)  43520       lambda_14[0][1]                  
__________________________________________________________________________________________________
resnet50_filter_5s_conv_2 (Conv (None, 28, 28, 512)  44544       lambda_14[0][2]                  
__________________________________________________________________________________________________
add_32 (Add)                    (None, 28, 28, 512)  0           resnet50_filter_5c_conv_0[0][0]  
                                                                 resnet50_filter_5c_conv_1[0][0]  
                                                                 resnet50_filter_5c_conv_2[0][0]  
__________________________________________________________________________________________________
add_33 (Add)                    (None, 28, 28, 512)  0           resnet50_filter_5s_conv_0[0][0]  
                                                                 resnet50_filter_5s_conv_1[0][0]  
                                                                 resnet50_filter_5s_conv_2[0][0]  
__________________________________________________________________________________________________
add_34 (Add)                    (None, 28, 28, 512)  0           add_32[0][0]                     
                                                                 add_33[0][0]                     
__________________________________________________________________________________________________
activation_26 (Activation)      (None, 28, 28, 512)  0           add_34[0][0]                     
__________________________________________________________________________________________________
lambda_15 (Lambda)              [(None, 28, 28, 170) 0           activation_26[0][0]              
__________________________________________________________________________________________________
resnet50_filter_6a_conv_0 (Conv (None, 28, 28, 128)  21760       lambda_15[0][0]                  
__________________________________________________________________________________________________
resnet50_filter_6a_conv_1 (Conv (None, 28, 28, 128)  21760       lambda_15[0][1]                  
__________________________________________________________________________________________________
resnet50_filter_6a_conv_2 (Conv (None, 28, 28, 128)  22144       lambda_15[0][2]                  
__________________________________________________________________________________________________
add_35 (Add)                    (None, 28, 28, 128)  0           resnet50_filter_6a_conv_0[0][0]  
                                                                 resnet50_filter_6a_conv_1[0][0]  
                                                                 resnet50_filter_6a_conv_2[0][0]  
__________________________________________________________________________________________________
activation_27 (Activation)      (None, 28, 28, 128)  0           add_35[0][0]                     
__________________________________________________________________________________________________
lambda_16 (Lambda)              [(None, 28, 28, 42), 0           activation_27[0][0]              
__________________________________________________________________________________________________
resnet50_filter_6b_conv_0 (Conv (None, 28, 28, 128)  48384       lambda_16[0][0]                  
__________________________________________________________________________________________________
resnet50_filter_6b_conv_1 (Conv (None, 28, 28, 128)  48384       lambda_16[0][1]                  
__________________________________________________________________________________________________
resnet50_filter_6b_conv_2 (Conv (None, 28, 28, 128)  50816       lambda_16[0][2]                  
__________________________________________________________________________________________________
add_36 (Add)                    (None, 28, 28, 128)  0           resnet50_filter_6b_conv_0[0][0]  
                                                                 resnet50_filter_6b_conv_1[0][0]  
                                                                 resnet50_filter_6b_conv_2[0][0]  
__________________________________________________________________________________________________
lambda_17 (Lambda)              [(None, 28, 28, 42), 0           add_36[0][0]                     
__________________________________________________________________________________________________
resnet50_filter_6c_conv_0 (Conv (None, 28, 28, 512)  21504       lambda_17[0][0]                  
__________________________________________________________________________________________________
resnet50_filter_6c_conv_1 (Conv (None, 28, 28, 512)  21504       lambda_17[0][1]                  
__________________________________________________________________________________________________
resnet50_filter_6c_conv_2 (Conv (None, 28, 28, 512)  23040       lambda_17[0][2]                  
__________________________________________________________________________________________________
add_37 (Add)                    (None, 28, 28, 512)  0           resnet50_filter_6c_conv_0[0][0]  
                                                                 resnet50_filter_6c_conv_1[0][0]  
                                                                 resnet50_filter_6c_conv_2[0][0]  
__________________________________________________________________________________________________
add_38 (Add)                    (None, 28, 28, 512)  0           add_37[0][0]                     
                                                                 activation_26[0][0]              
__________________________________________________________________________________________________
activation_28 (Activation)      (None, 28, 28, 512)  0           add_38[0][0]                     
__________________________________________________________________________________________________
lambda_18 (Lambda)              [(None, 28, 28, 170) 0           activation_28[0][0]              
__________________________________________________________________________________________________
resnet50_filter_7a_conv_0 (Conv (None, 28, 28, 128)  21760       lambda_18[0][0]                  
__________________________________________________________________________________________________
resnet50_filter_7a_conv_1 (Conv (None, 28, 28, 128)  21760       lambda_18[0][1]                  
__________________________________________________________________________________________________
resnet50_filter_7a_conv_2 (Conv (None, 28, 28, 128)  22144       lambda_18[0][2]                  
__________________________________________________________________________________________________
add_39 (Add)                    (None, 28, 28, 128)  0           resnet50_filter_7a_conv_0[0][0]  
                                                                 resnet50_filter_7a_conv_1[0][0]  
                                                                 resnet50_filter_7a_conv_2[0][0]  
__________________________________________________________________________________________________
activation_29 (Activation)      (None, 28, 28, 128)  0           add_39[0][0]                     
__________________________________________________________________________________________________
lambda_19 (Lambda)              [(None, 28, 28, 42), 0           activation_29[0][0]              
__________________________________________________________________________________________________
resnet50_filter_7b_conv_0 (Conv (None, 28, 28, 128)  48384       lambda_19[0][0]                  
__________________________________________________________________________________________________
resnet50_filter_7b_conv_1 (Conv (None, 28, 28, 128)  48384       lambda_19[0][1]                  
__________________________________________________________________________________________________
resnet50_filter_7b_conv_2 (Conv (None, 28, 28, 128)  50816       lambda_19[0][2]                  
__________________________________________________________________________________________________
add_40 (Add)                    (None, 28, 28, 128)  0           resnet50_filter_7b_conv_0[0][0]  
                                                                 resnet50_filter_7b_conv_1[0][0]  
                                                                 resnet50_filter_7b_conv_2[0][0]  
__________________________________________________________________________________________________
lambda_20 (Lambda)              [(None, 28, 28, 42), 0           add_40[0][0]                     
__________________________________________________________________________________________________
resnet50_filter_7c_conv_0 (Conv (None, 28, 28, 512)  21504       lambda_20[0][0]                  
__________________________________________________________________________________________________
resnet50_filter_7c_conv_1 (Conv (None, 28, 28, 512)  21504       lambda_20[0][1]                  
__________________________________________________________________________________________________
resnet50_filter_7c_conv_2 (Conv (None, 28, 28, 512)  23040       lambda_20[0][2]                  
__________________________________________________________________________________________________
add_41 (Add)                    (None, 28, 28, 512)  0           resnet50_filter_7c_conv_0[0][0]  
                                                                 resnet50_filter_7c_conv_1[0][0]  
                                                                 resnet50_filter_7c_conv_2[0][0]  
__________________________________________________________________________________________________
add_42 (Add)                    (None, 28, 28, 512)  0           add_41[0][0]                     
                                                                 activation_28[0][0]              
__________________________________________________________________________________________________
activation_30 (Activation)      (None, 28, 28, 512)  0           add_42[0][0]                     
__________________________________________________________________________________________________
lambda_21 (Lambda)              [(None, 28, 28, 170) 0           activation_30[0][0]              
__________________________________________________________________________________________________
resnet50_filter_8a_conv_0 (Conv (None, 28, 28, 128)  21760       lambda_21[0][0]                  
__________________________________________________________________________________________________
resnet50_filter_8a_conv_1 (Conv (None, 28, 28, 128)  21760       lambda_21[0][1]                  
__________________________________________________________________________________________________
resnet50_filter_8a_conv_2 (Conv (None, 28, 28, 128)  22144       lambda_21[0][2]                  
__________________________________________________________________________________________________
add_43 (Add)                    (None, 28, 28, 128)  0           resnet50_filter_8a_conv_0[0][0]  
                                                                 resnet50_filter_8a_conv_1[0][0]  
                                                                 resnet50_filter_8a_conv_2[0][0]  
__________________________________________________________________________________________________
activation_31 (Activation)      (None, 28, 28, 128)  0           add_43[0][0]                     
__________________________________________________________________________________________________
lambda_22 (Lambda)              [(None, 28, 28, 42), 0           activation_31[0][0]              
__________________________________________________________________________________________________
resnet50_filter_8b_conv_0 (Conv (None, 28, 28, 128)  48384       lambda_22[0][0]                  
__________________________________________________________________________________________________
resnet50_filter_8b_conv_1 (Conv (None, 28, 28, 128)  48384       lambda_22[0][1]                  
__________________________________________________________________________________________________
resnet50_filter_8b_conv_2 (Conv (None, 28, 28, 128)  50816       lambda_22[0][2]                  
__________________________________________________________________________________________________
add_44 (Add)                    (None, 28, 28, 128)  0           resnet50_filter_8b_conv_0[0][0]  
                                                                 resnet50_filter_8b_conv_1[0][0]  
                                                                 resnet50_filter_8b_conv_2[0][0]  
__________________________________________________________________________________________________
lambda_23 (Lambda)              [(None, 28, 28, 42), 0           add_44[0][0]                     
__________________________________________________________________________________________________
resnet50_filter_8c_conv_0 (Conv (None, 28, 28, 512)  21504       lambda_23[0][0]                  
__________________________________________________________________________________________________
resnet50_filter_8c_conv_1 (Conv (None, 28, 28, 512)  21504       lambda_23[0][1]                  
__________________________________________________________________________________________________
resnet50_filter_8c_conv_2 (Conv (None, 28, 28, 512)  23040       lambda_23[0][2]                  
__________________________________________________________________________________________________
add_45 (Add)                    (None, 28, 28, 512)  0           resnet50_filter_8c_conv_0[0][0]  
                                                                 resnet50_filter_8c_conv_1[0][0]  
                                                                 resnet50_filter_8c_conv_2[0][0]  
__________________________________________________________________________________________________
add_46 (Add)                    (None, 28, 28, 512)  0           add_45[0][0]                     
                                                                 activation_30[0][0]              
__________________________________________________________________________________________________
activation_32 (Activation)      (None, 28, 28, 512)  0           add_46[0][0]                     
__________________________________________________________________________________________________
lambda_24 (Lambda)              [(None, 28, 28, 170) 0           activation_32[0][0]              
__________________________________________________________________________________________________
resnet50_filter_9a_conv_0 (Conv (None, 14, 14, 256)  43520       lambda_24[0][0]                  
__________________________________________________________________________________________________
resnet50_filter_9a_conv_1 (Conv (None, 14, 14, 256)  43520       lambda_24[0][1]                  
__________________________________________________________________________________________________
resnet50_filter_9a_conv_2 (Conv (None, 14, 14, 256)  44288       lambda_24[0][2]                  
__________________________________________________________________________________________________
add_47 (Add)                    (None, 14, 14, 256)  0           resnet50_filter_9a_conv_0[0][0]  
                                                                 resnet50_filter_9a_conv_1[0][0]  
                                                                 resnet50_filter_9a_conv_2[0][0]  
__________________________________________________________________________________________________
activation_33 (Activation)      (None, 14, 14, 256)  0           add_47[0][0]                     
__________________________________________________________________________________________________
lambda_25 (Lambda)              [(None, 14, 14, 85), 0           activation_33[0][0]              
__________________________________________________________________________________________________
resnet50_filter_9b_conv_0 (Conv (None, 14, 14, 256)  195840      lambda_25[0][0]                  
__________________________________________________________________________________________________
resnet50_filter_9b_conv_1 (Conv (None, 14, 14, 256)  195840      lambda_25[0][1]                  
__________________________________________________________________________________________________
resnet50_filter_9b_conv_2 (Conv (None, 14, 14, 256)  198400      lambda_25[0][2]                  
__________________________________________________________________________________________________
add_48 (Add)                    (None, 14, 14, 256)  0           resnet50_filter_9b_conv_0[0][0]  
                                                                 resnet50_filter_9b_conv_1[0][0]  
                                                                 resnet50_filter_9b_conv_2[0][0]  
__________________________________________________________________________________________________
activation_34 (Activation)      (None, 14, 14, 256)  0           add_48[0][0]                     
__________________________________________________________________________________________________
lambda_26 (Lambda)              [(None, 14, 14, 85), 0           activation_34[0][0]              
__________________________________________________________________________________________________
lambda_27 (Lambda)              [(None, 28, 28, 170) 0           activation_32[0][0]              
__________________________________________________________________________________________________
resnet50_filter_9c_conv_0 (Conv (None, 14, 14, 1024) 87040       lambda_26[0][0]                  
__________________________________________________________________________________________________
resnet50_filter_9c_conv_1 (Conv (None, 14, 14, 1024) 87040       lambda_26[0][1]                  
__________________________________________________________________________________________________
resnet50_filter_9c_conv_2 (Conv (None, 14, 14, 1024) 89088       lambda_26[0][2]                  
__________________________________________________________________________________________________
resnet50_filter_9s_conv_0 (Conv (None, 14, 14, 1024) 174080      lambda_27[0][0]                  
__________________________________________________________________________________________________
resnet50_filter_9s_conv_1 (Conv (None, 14, 14, 1024) 174080      lambda_27[0][1]                  
__________________________________________________________________________________________________
resnet50_filter_9s_conv_2 (Conv (None, 14, 14, 1024) 177152      lambda_27[0][2]                  
__________________________________________________________________________________________________
add_49 (Add)                    (None, 14, 14, 1024) 0           resnet50_filter_9c_conv_0[0][0]  
                                                                 resnet50_filter_9c_conv_1[0][0]  
                                                                 resnet50_filter_9c_conv_2[0][0]  
__________________________________________________________________________________________________
add_50 (Add)                    (None, 14, 14, 1024) 0           resnet50_filter_9s_conv_0[0][0]  
                                                                 resnet50_filter_9s_conv_1[0][0]  
                                                                 resnet50_filter_9s_conv_2[0][0]  
__________________________________________________________________________________________________
add_51 (Add)                    (None, 14, 14, 1024) 0           add_49[0][0]                     
                                                                 add_50[0][0]                     
__________________________________________________________________________________________________
activation_35 (Activation)      (None, 14, 14, 1024) 0           add_51[0][0]                     
__________________________________________________________________________________________________
lambda_28 (Lambda)              [(None, 14, 14, 341) 0           activation_35[0][0]              
__________________________________________________________________________________________________
resnet50_filter_10a_conv_0 (Con (None, 14, 14, 256)  87296       lambda_28[0][0]                  
__________________________________________________________________________________________________
resnet50_filter_10a_conv_1 (Con (None, 14, 14, 256)  87296       lambda_28[0][1]                  
__________________________________________________________________________________________________
resnet50_filter_10a_conv_2 (Con (None, 14, 14, 256)  87808       lambda_28[0][2]                  
__________________________________________________________________________________________________
add_52 (Add)                    (None, 14, 14, 256)  0           resnet50_filter_10a_conv_0[0][0] 
                                                                 resnet50_filter_10a_conv_1[0][0] 
                                                                 resnet50_filter_10a_conv_2[0][0] 
__________________________________________________________________________________________________
activation_36 (Activation)      (None, 14, 14, 256)  0           add_52[0][0]                     
__________________________________________________________________________________________________
lambda_29 (Lambda)              [(None, 14, 14, 85), 0           activation_36[0][0]              
__________________________________________________________________________________________________
resnet50_filter_10b_conv_0 (Con (None, 14, 14, 256)  195840      lambda_29[0][0]                  
__________________________________________________________________________________________________
resnet50_filter_10b_conv_1 (Con (None, 14, 14, 256)  195840      lambda_29[0][1]                  
__________________________________________________________________________________________________
resnet50_filter_10b_conv_2 (Con (None, 14, 14, 256)  198400      lambda_29[0][2]                  
__________________________________________________________________________________________________
add_53 (Add)                    (None, 14, 14, 256)  0           resnet50_filter_10b_conv_0[0][0] 
                                                                 resnet50_filter_10b_conv_1[0][0] 
                                                                 resnet50_filter_10b_conv_2[0][0] 
__________________________________________________________________________________________________
lambda_30 (Lambda)              [(None, 14, 14, 85), 0           add_53[0][0]                     
__________________________________________________________________________________________________
resnet50_filter_10c_conv_0 (Con (None, 14, 14, 1024) 87040       lambda_30[0][0]                  
__________________________________________________________________________________________________
resnet50_filter_10c_conv_1 (Con (None, 14, 14, 1024) 87040       lambda_30[0][1]                  
__________________________________________________________________________________________________
resnet50_filter_10c_conv_2 (Con (None, 14, 14, 1024) 89088       lambda_30[0][2]                  
__________________________________________________________________________________________________
add_54 (Add)                    (None, 14, 14, 1024) 0           resnet50_filter_10c_conv_0[0][0] 
                                                                 resnet50_filter_10c_conv_1[0][0] 
                                                                 resnet50_filter_10c_conv_2[0][0] 
__________________________________________________________________________________________________
add_55 (Add)                    (None, 14, 14, 1024) 0           add_54[0][0]                     
                                                                 activation_35[0][0]              
__________________________________________________________________________________________________
activation_37 (Activation)      (None, 14, 14, 1024) 0           add_55[0][0]                     
__________________________________________________________________________________________________
lambda_31 (Lambda)              [(None, 14, 14, 341) 0           activation_37[0][0]              
__________________________________________________________________________________________________
resnet50_filter_11a_conv_0 (Con (None, 14, 14, 256)  87296       lambda_31[0][0]                  
__________________________________________________________________________________________________
resnet50_filter_11a_conv_1 (Con (None, 14, 14, 256)  87296       lambda_31[0][1]                  
__________________________________________________________________________________________________
resnet50_filter_11a_conv_2 (Con (None, 14, 14, 256)  87808       lambda_31[0][2]                  
__________________________________________________________________________________________________
add_56 (Add)                    (None, 14, 14, 256)  0           resnet50_filter_11a_conv_0[0][0] 
                                                                 resnet50_filter_11a_conv_1[0][0] 
                                                                 resnet50_filter_11a_conv_2[0][0] 
__________________________________________________________________________________________________
activation_38 (Activation)      (None, 14, 14, 256)  0           add_56[0][0]                     
__________________________________________________________________________________________________
lambda_32 (Lambda)              [(None, 14, 14, 85), 0           activation_38[0][0]              
__________________________________________________________________________________________________
resnet50_filter_11b_conv_0 (Con (None, 14, 14, 256)  195840      lambda_32[0][0]                  
__________________________________________________________________________________________________
resnet50_filter_11b_conv_1 (Con (None, 14, 14, 256)  195840      lambda_32[0][1]                  
__________________________________________________________________________________________________
resnet50_filter_11b_conv_2 (Con (None, 14, 14, 256)  198400      lambda_32[0][2]                  
__________________________________________________________________________________________________
add_57 (Add)                    (None, 14, 14, 256)  0           resnet50_filter_11b_conv_0[0][0] 
                                                                 resnet50_filter_11b_conv_1[0][0] 
                                                                 resnet50_filter_11b_conv_2[0][0] 
__________________________________________________________________________________________________
lambda_33 (Lambda)              [(None, 14, 14, 85), 0           add_57[0][0]                     
__________________________________________________________________________________________________
resnet50_filter_11c_conv_0 (Con (None, 14, 14, 1024) 87040       lambda_33[0][0]                  
__________________________________________________________________________________________________
resnet50_filter_11c_conv_1 (Con (None, 14, 14, 1024) 87040       lambda_33[0][1]                  
__________________________________________________________________________________________________
resnet50_filter_11c_conv_2 (Con (None, 14, 14, 1024) 89088       lambda_33[0][2]                  
__________________________________________________________________________________________________
add_58 (Add)                    (None, 14, 14, 1024) 0           resnet50_filter_11c_conv_0[0][0] 
                                                                 resnet50_filter_11c_conv_1[0][0] 
                                                                 resnet50_filter_11c_conv_2[0][0] 
__________________________________________________________________________________________________
add_59 (Add)                    (None, 14, 14, 1024) 0           add_58[0][0]                     
                                                                 activation_37[0][0]              
__________________________________________________________________________________________________
activation_39 (Activation)      (None, 14, 14, 1024) 0           add_59[0][0]                     
__________________________________________________________________________________________________
lambda_34 (Lambda)              [(None, 14, 14, 341) 0           activation_39[0][0]              
__________________________________________________________________________________________________
resnet50_filter_12a_conv_0 (Con (None, 14, 14, 256)  87296       lambda_34[0][0]                  
__________________________________________________________________________________________________
resnet50_filter_12a_conv_1 (Con (None, 14, 14, 256)  87296       lambda_34[0][1]                  
__________________________________________________________________________________________________
resnet50_filter_12a_conv_2 (Con (None, 14, 14, 256)  87808       lambda_34[0][2]                  
__________________________________________________________________________________________________
add_60 (Add)                    (None, 14, 14, 256)  0           resnet50_filter_12a_conv_0[0][0] 
                                                                 resnet50_filter_12a_conv_1[0][0] 
                                                                 resnet50_filter_12a_conv_2[0][0] 
__________________________________________________________________________________________________
activation_40 (Activation)      (None, 14, 14, 256)  0           add_60[0][0]                     
__________________________________________________________________________________________________
lambda_35 (Lambda)              [(None, 14, 14, 85), 0           activation_40[0][0]              
__________________________________________________________________________________________________
resnet50_filter_12b_conv_0 (Con (None, 14, 14, 256)  195840      lambda_35[0][0]                  
__________________________________________________________________________________________________
resnet50_filter_12b_conv_1 (Con (None, 14, 14, 256)  195840      lambda_35[0][1]                  
__________________________________________________________________________________________________
resnet50_filter_12b_conv_2 (Con (None, 14, 14, 256)  198400      lambda_35[0][2]                  
__________________________________________________________________________________________________
add_61 (Add)                    (None, 14, 14, 256)  0           resnet50_filter_12b_conv_0[0][0] 
                                                                 resnet50_filter_12b_conv_1[0][0] 
                                                                 resnet50_filter_12b_conv_2[0][0] 
__________________________________________________________________________________________________
lambda_36 (Lambda)              [(None, 14, 14, 85), 0           add_61[0][0]                     
__________________________________________________________________________________________________
resnet50_filter_12c_conv_0 (Con (None, 14, 14, 1024) 87040       lambda_36[0][0]                  
__________________________________________________________________________________________________
resnet50_filter_12c_conv_1 (Con (None, 14, 14, 1024) 87040       lambda_36[0][1]                  
__________________________________________________________________________________________________
resnet50_filter_12c_conv_2 (Con (None, 14, 14, 1024) 89088       lambda_36[0][2]                  
__________________________________________________________________________________________________
add_62 (Add)                    (None, 14, 14, 1024) 0           resnet50_filter_12c_conv_0[0][0] 
                                                                 resnet50_filter_12c_conv_1[0][0] 
                                                                 resnet50_filter_12c_conv_2[0][0] 
__________________________________________________________________________________________________
add_63 (Add)                    (None, 14, 14, 1024) 0           add_62[0][0]                     
                                                                 activation_39[0][0]              
__________________________________________________________________________________________________
activation_41 (Activation)      (None, 14, 14, 1024) 0           add_63[0][0]                     
__________________________________________________________________________________________________
lambda_37 (Lambda)              [(None, 14, 14, 341) 0           activation_41[0][0]              
__________________________________________________________________________________________________
resnet50_filter_13a_conv_0 (Con (None, 14, 14, 256)  87296       lambda_37[0][0]                  
__________________________________________________________________________________________________
resnet50_filter_13a_conv_1 (Con (None, 14, 14, 256)  87296       lambda_37[0][1]                  
__________________________________________________________________________________________________
resnet50_filter_13a_conv_2 (Con (None, 14, 14, 256)  87808       lambda_37[0][2]                  
__________________________________________________________________________________________________
add_64 (Add)                    (None, 14, 14, 256)  0           resnet50_filter_13a_conv_0[0][0] 
                                                                 resnet50_filter_13a_conv_1[0][0] 
                                                                 resnet50_filter_13a_conv_2[0][0] 
__________________________________________________________________________________________________
activation_42 (Activation)      (None, 14, 14, 256)  0           add_64[0][0]                     
__________________________________________________________________________________________________
lambda_38 (Lambda)              [(None, 14, 14, 85), 0           activation_42[0][0]              
__________________________________________________________________________________________________
resnet50_filter_13b_conv_0 (Con (None, 14, 14, 256)  195840      lambda_38[0][0]                  
__________________________________________________________________________________________________
resnet50_filter_13b_conv_1 (Con (None, 14, 14, 256)  195840      lambda_38[0][1]                  
__________________________________________________________________________________________________
resnet50_filter_13b_conv_2 (Con (None, 14, 14, 256)  198400      lambda_38[0][2]                  
__________________________________________________________________________________________________
add_65 (Add)                    (None, 14, 14, 256)  0           resnet50_filter_13b_conv_0[0][0] 
                                                                 resnet50_filter_13b_conv_1[0][0] 
                                                                 resnet50_filter_13b_conv_2[0][0] 
__________________________________________________________________________________________________
lambda_39 (Lambda)              [(None, 14, 14, 85), 0           add_65[0][0]                     
__________________________________________________________________________________________________
resnet50_filter_13c_conv_0 (Con (None, 14, 14, 1024) 87040       lambda_39[0][0]                  
__________________________________________________________________________________________________
resnet50_filter_13c_conv_1 (Con (None, 14, 14, 1024) 87040       lambda_39[0][1]                  
__________________________________________________________________________________________________
resnet50_filter_13c_conv_2 (Con (None, 14, 14, 1024) 89088       lambda_39[0][2]                  
__________________________________________________________________________________________________
add_66 (Add)                    (None, 14, 14, 1024) 0           resnet50_filter_13c_conv_0[0][0] 
                                                                 resnet50_filter_13c_conv_1[0][0] 
                                                                 resnet50_filter_13c_conv_2[0][0] 
__________________________________________________________________________________________________
add_67 (Add)                    (None, 14, 14, 1024) 0           add_66[0][0]                     
                                                                 activation_41[0][0]              
__________________________________________________________________________________________________
activation_43 (Activation)      (None, 14, 14, 1024) 0           add_67[0][0]                     
__________________________________________________________________________________________________
lambda_40 (Lambda)              [(None, 14, 14, 341) 0           activation_43[0][0]              
__________________________________________________________________________________________________
resnet50_filter_14a_conv_0 (Con (None, 14, 14, 256)  87296       lambda_40[0][0]                  
__________________________________________________________________________________________________
resnet50_filter_14a_conv_1 (Con (None, 14, 14, 256)  87296       lambda_40[0][1]                  
__________________________________________________________________________________________________
resnet50_filter_14a_conv_2 (Con (None, 14, 14, 256)  87808       lambda_40[0][2]                  
__________________________________________________________________________________________________
add_68 (Add)                    (None, 14, 14, 256)  0           resnet50_filter_14a_conv_0[0][0] 
                                                                 resnet50_filter_14a_conv_1[0][0] 
                                                                 resnet50_filter_14a_conv_2[0][0] 
__________________________________________________________________________________________________
activation_44 (Activation)      (None, 14, 14, 256)  0           add_68[0][0]                     
__________________________________________________________________________________________________
lambda_41 (Lambda)              [(None, 14, 14, 85), 0           activation_44[0][0]              
__________________________________________________________________________________________________
resnet50_filter_14b_conv_0 (Con (None, 14, 14, 256)  195840      lambda_41[0][0]                  
__________________________________________________________________________________________________
resnet50_filter_14b_conv_1 (Con (None, 14, 14, 256)  195840      lambda_41[0][1]                  
__________________________________________________________________________________________________
resnet50_filter_14b_conv_2 (Con (None, 14, 14, 256)  198400      lambda_41[0][2]                  
__________________________________________________________________________________________________
add_69 (Add)                    (None, 14, 14, 256)  0           resnet50_filter_14b_conv_0[0][0] 
                                                                 resnet50_filter_14b_conv_1[0][0] 
                                                                 resnet50_filter_14b_conv_2[0][0] 
__________________________________________________________________________________________________
lambda_42 (Lambda)              [(None, 14, 14, 85), 0           add_69[0][0]                     
__________________________________________________________________________________________________
resnet50_filter_14c_conv_0 (Con (None, 14, 14, 1024) 87040       lambda_42[0][0]                  
__________________________________________________________________________________________________
resnet50_filter_14c_conv_1 (Con (None, 14, 14, 1024) 87040       lambda_42[0][1]                  
__________________________________________________________________________________________________
resnet50_filter_14c_conv_2 (Con (None, 14, 14, 1024) 89088       lambda_42[0][2]                  
__________________________________________________________________________________________________
add_70 (Add)                    (None, 14, 14, 1024) 0           resnet50_filter_14c_conv_0[0][0] 
                                                                 resnet50_filter_14c_conv_1[0][0] 
                                                                 resnet50_filter_14c_conv_2[0][0] 
__________________________________________________________________________________________________
add_71 (Add)                    (None, 14, 14, 1024) 0           add_70[0][0]                     
                                                                 activation_43[0][0]              
__________________________________________________________________________________________________
activation_45 (Activation)      (None, 14, 14, 1024) 0           add_71[0][0]                     
__________________________________________________________________________________________________
lambda_43 (Lambda)              [(None, 14, 14, 341) 0           activation_45[0][0]              
__________________________________________________________________________________________________
resnet50_filter_15a_conv_0 (Con (None, 7, 7, 512)    174592      lambda_43[0][0]                  
__________________________________________________________________________________________________
resnet50_filter_15a_conv_1 (Con (None, 7, 7, 512)    174592      lambda_43[0][1]                  
__________________________________________________________________________________________________
resnet50_filter_15a_conv_2 (Con (None, 7, 7, 512)    175616      lambda_43[0][2]                  
__________________________________________________________________________________________________
add_72 (Add)                    (None, 7, 7, 512)    0           resnet50_filter_15a_conv_0[0][0] 
                                                                 resnet50_filter_15a_conv_1[0][0] 
                                                                 resnet50_filter_15a_conv_2[0][0] 
__________________________________________________________________________________________________
activation_46 (Activation)      (None, 7, 7, 512)    0           add_72[0][0]                     
__________________________________________________________________________________________________
lambda_44 (Lambda)              [(None, 7, 7, 170),  0           activation_46[0][0]              
__________________________________________________________________________________________________
resnet50_filter_15b_conv_0 (Con (None, 7, 7, 512)    783360      lambda_44[0][0]                  
__________________________________________________________________________________________________
resnet50_filter_15b_conv_1 (Con (None, 7, 7, 512)    783360      lambda_44[0][1]                  
__________________________________________________________________________________________________
resnet50_filter_15b_conv_2 (Con (None, 7, 7, 512)    793088      lambda_44[0][2]                  
__________________________________________________________________________________________________
add_73 (Add)                    (None, 7, 7, 512)    0           resnet50_filter_15b_conv_0[0][0] 
                                                                 resnet50_filter_15b_conv_1[0][0] 
                                                                 resnet50_filter_15b_conv_2[0][0] 
__________________________________________________________________________________________________
activation_47 (Activation)      (None, 7, 7, 512)    0           add_73[0][0]                     
__________________________________________________________________________________________________
lambda_45 (Lambda)              [(None, 7, 7, 170),  0           activation_47[0][0]              
__________________________________________________________________________________________________
lambda_46 (Lambda)              [(None, 14, 14, 341) 0           activation_45[0][0]              
__________________________________________________________________________________________________
resnet50_filter_15c_conv_0 (Con (None, 7, 7, 2048)   348160      lambda_45[0][0]                  
__________________________________________________________________________________________________
resnet50_filter_15c_conv_1 (Con (None, 7, 7, 2048)   348160      lambda_45[0][1]                  
__________________________________________________________________________________________________
resnet50_filter_15c_conv_2 (Con (None, 7, 7, 2048)   354304      lambda_45[0][2]                  
__________________________________________________________________________________________________
resnet50_filter_15s_conv_0 (Con (None, 7, 7, 2048)   698368      lambda_46[0][0]                  
__________________________________________________________________________________________________
resnet50_filter_15s_conv_1 (Con (None, 7, 7, 2048)   698368      lambda_46[0][1]                  
__________________________________________________________________________________________________
resnet50_filter_15s_conv_2 (Con (None, 7, 7, 2048)   702464      lambda_46[0][2]                  
__________________________________________________________________________________________________
add_74 (Add)                    (None, 7, 7, 2048)   0           resnet50_filter_15c_conv_0[0][0] 
                                                                 resnet50_filter_15c_conv_1[0][0] 
                                                                 resnet50_filter_15c_conv_2[0][0] 
__________________________________________________________________________________________________
add_75 (Add)                    (None, 7, 7, 2048)   0           resnet50_filter_15s_conv_0[0][0] 
                                                                 resnet50_filter_15s_conv_1[0][0] 
                                                                 resnet50_filter_15s_conv_2[0][0] 
__________________________________________________________________________________________________
add_76 (Add)                    (None, 7, 7, 2048)   0           add_74[0][0]                     
                                                                 add_75[0][0]                     
__________________________________________________________________________________________________
activation_48 (Activation)      (None, 7, 7, 2048)   0           add_76[0][0]                     
__________________________________________________________________________________________________
lambda_47 (Lambda)              [(None, 7, 7, 682),  0           activation_48[0][0]              
__________________________________________________________________________________________________
resnet50_filter_16a_conv_0 (Con (None, 7, 7, 512)    349184      lambda_47[0][0]                  
__________________________________________________________________________________________________
resnet50_filter_16a_conv_1 (Con (None, 7, 7, 512)    349184      lambda_47[0][1]                  
__________________________________________________________________________________________________
resnet50_filter_16a_conv_2 (Con (None, 7, 7, 512)    350720      lambda_47[0][2]                  
__________________________________________________________________________________________________
add_77 (Add)                    (None, 7, 7, 512)    0           resnet50_filter_16a_conv_0[0][0] 
                                                                 resnet50_filter_16a_conv_1[0][0] 
                                                                 resnet50_filter_16a_conv_2[0][0] 
__________________________________________________________________________________________________
activation_49 (Activation)      (None, 7, 7, 512)    0           add_77[0][0]                     
__________________________________________________________________________________________________
lambda_48 (Lambda)              [(None, 7, 7, 170),  0           activation_49[0][0]              
__________________________________________________________________________________________________
resnet50_filter_16b_conv_0 (Con (None, 7, 7, 512)    783360      lambda_48[0][0]                  
__________________________________________________________________________________________________
resnet50_filter_16b_conv_1 (Con (None, 7, 7, 512)    783360      lambda_48[0][1]                  
__________________________________________________________________________________________________
resnet50_filter_16b_conv_2 (Con (None, 7, 7, 512)    793088      lambda_48[0][2]                  
__________________________________________________________________________________________________
add_78 (Add)                    (None, 7, 7, 512)    0           resnet50_filter_16b_conv_0[0][0] 
                                                                 resnet50_filter_16b_conv_1[0][0] 
                                                                 resnet50_filter_16b_conv_2[0][0] 
__________________________________________________________________________________________________
lambda_49 (Lambda)              [(None, 7, 7, 170),  0           add_78[0][0]                     
__________________________________________________________________________________________________
resnet50_filter_16c_conv_0 (Con (None, 7, 7, 2048)   348160      lambda_49[0][0]                  
__________________________________________________________________________________________________
resnet50_filter_16c_conv_1 (Con (None, 7, 7, 2048)   348160      lambda_49[0][1]                  
__________________________________________________________________________________________________
resnet50_filter_16c_conv_2 (Con (None, 7, 7, 2048)   354304      lambda_49[0][2]                  
__________________________________________________________________________________________________
add_79 (Add)                    (None, 7, 7, 2048)   0           resnet50_filter_16c_conv_0[0][0] 
                                                                 resnet50_filter_16c_conv_1[0][0] 
                                                                 resnet50_filter_16c_conv_2[0][0] 
__________________________________________________________________________________________________
add_80 (Add)                    (None, 7, 7, 2048)   0           add_79[0][0]                     
                                                                 activation_48[0][0]              
__________________________________________________________________________________________________
activation_50 (Activation)      (None, 7, 7, 2048)   0           add_80[0][0]                     
__________________________________________________________________________________________________
lambda_50 (Lambda)              [(None, 7, 7, 682),  0           activation_50[0][0]              
__________________________________________________________________________________________________
resnet50_filter_17a_conv_0 (Con (None, 7, 7, 512)    349184      lambda_50[0][0]                  
__________________________________________________________________________________________________
resnet50_filter_17a_conv_1 (Con (None, 7, 7, 512)    349184      lambda_50[0][1]                  
__________________________________________________________________________________________________
resnet50_filter_17a_conv_2 (Con (None, 7, 7, 512)    350720      lambda_50[0][2]                  
__________________________________________________________________________________________________
add_81 (Add)                    (None, 7, 7, 512)    0           resnet50_filter_17a_conv_0[0][0] 
                                                                 resnet50_filter_17a_conv_1[0][0] 
                                                                 resnet50_filter_17a_conv_2[0][0] 
__________________________________________________________________________________________________
activation_51 (Activation)      (None, 7, 7, 512)    0           add_81[0][0]                     
__________________________________________________________________________________________________
lambda_51 (Lambda)              [(None, 7, 7, 170),  0           activation_51[0][0]              
__________________________________________________________________________________________________
resnet50_filter_17b_conv_0 (Con (None, 7, 7, 512)    783360      lambda_51[0][0]                  
__________________________________________________________________________________________________
resnet50_filter_17b_conv_1 (Con (None, 7, 7, 512)    783360      lambda_51[0][1]                  
__________________________________________________________________________________________________
resnet50_filter_17b_conv_2 (Con (None, 7, 7, 512)    793088      lambda_51[0][2]                  
__________________________________________________________________________________________________
add_82 (Add)                    (None, 7, 7, 512)    0           resnet50_filter_17b_conv_0[0][0] 
                                                                 resnet50_filter_17b_conv_1[0][0] 
                                                                 resnet50_filter_17b_conv_2[0][0] 
__________________________________________________________________________________________________
lambda_52 (Lambda)              [(None, 7, 7, 170),  0           add_82[0][0]                     
__________________________________________________________________________________________________
resnet50_filter_17c_conv_0 (Con (None, 7, 7, 2048)   348160      lambda_52[0][0]                  
__________________________________________________________________________________________________
resnet50_filter_17c_conv_1 (Con (None, 7, 7, 2048)   348160      lambda_52[0][1]                  
__________________________________________________________________________________________________
resnet50_filter_17c_conv_2 (Con (None, 7, 7, 2048)   354304      lambda_52[0][2]                  
__________________________________________________________________________________________________
add_83 (Add)                    (None, 7, 7, 2048)   0           resnet50_filter_17c_conv_0[0][0] 
                                                                 resnet50_filter_17c_conv_1[0][0] 
                                                                 resnet50_filter_17c_conv_2[0][0] 
__________________________________________________________________________________________________
add_84 (Add)                    (None, 7, 7, 2048)   0           add_83[0][0]                     
                                                                 activation_50[0][0]              
__________________________________________________________________________________________________
activation_52 (Activation)      (None, 7, 7, 2048)   0           add_84[0][0]                     
__________________________________________________________________________________________________
average_pooling2d_2 (AveragePoo (None, 1, 1, 2048)   0           activation_52[0][0]              
__________________________________________________________________________________________________
flatten_2 (Flatten)             (None, 2048)         0           average_pooling2d_2[0][0]        
__________________________________________________________________________________________________
resnet50_filter_18_dense (Dense (None, 1000)         2049000     flatten_2[0][0]                  
==================================================================================================
Total params: 25,530,472
Trainable params: 25,530,472
Non-trainable params: 0
__________________________________________________________________________________________________
None
