__________________________________________________________________________________________________
Layer (type)                    Output Shape         Param #     Connected to                     
==================================================================================================
input_3 (InputLayer)            (None, 224, 224, 3)  0                                            
__________________________________________________________________________________________________
zero_padding2d_3 (ZeroPadding2D (None, 230, 230, 3)  0           input_3[0][0]                    
__________________________________________________________________________________________________
resnet50_channel_1 (Conv2D)     (None, 112, 112, 64) 9472        zero_padding2d_3[0][0]           
__________________________________________________________________________________________________
max_pooling2d_3 (MaxPooling2D)  (None, 55, 55, 64)   0           resnet50_channel_1[0][0]         
__________________________________________________________________________________________________
lambda_53 (Lambda)              [(None, 55, 55, 64), 0           max_pooling2d_3[0][0]            
__________________________________________________________________________________________________
resnet50_channel_2a_conv_0 (Con (None, 55, 55, 21)   1365        lambda_53[0][0]                  
__________________________________________________________________________________________________
resnet50_channel_2a_conv_1 (Con (None, 55, 55, 21)   1365        lambda_53[0][1]                  
__________________________________________________________________________________________________
resnet50_channel_2a_conv_2 (Con (None, 55, 55, 22)   1430        lambda_53[0][2]                  
__________________________________________________________________________________________________
concatenate_1 (Concatenate)     (None, 55, 55, 64)   0           resnet50_channel_2a_conv_0[0][0] 
                                                                 resnet50_channel_2a_conv_1[0][0] 
                                                                 resnet50_channel_2a_conv_2[0][0] 
__________________________________________________________________________________________________
lambda_54 (Lambda)              [(None, 55, 55, 64), 0           concatenate_1[0][0]              
__________________________________________________________________________________________________
resnet50_channel_2v_conv_0 (Con (None, 55, 55, 21)   12117       lambda_54[0][0]                  
__________________________________________________________________________________________________
resnet50_channel_2v_conv_1 (Con (None, 55, 55, 21)   12117       lambda_54[0][1]                  
__________________________________________________________________________________________________
resnet50_channel_2v_conv_2 (Con (None, 55, 55, 22)   12694       lambda_54[0][2]                  
__________________________________________________________________________________________________
concatenate_2 (Concatenate)     (None, 55, 55, 64)   0           resnet50_channel_2v_conv_0[0][0] 
                                                                 resnet50_channel_2v_conv_1[0][0] 
                                                                 resnet50_channel_2v_conv_2[0][0] 
__________________________________________________________________________________________________
lambda_55 (Lambda)              [(None, 55, 55, 64), 0           concatenate_2[0][0]              
__________________________________________________________________________________________________
lambda_56 (Lambda)              [(None, 55, 55, 64), 0           max_pooling2d_3[0][0]            
__________________________________________________________________________________________________
resnet50_channel_2c_conv_0 (Con (None, 55, 55, 85)   5525        lambda_55[0][0]                  
__________________________________________________________________________________________________
resnet50_channel_2c_conv_1 (Con (None, 55, 55, 85)   5525        lambda_55[0][1]                  
__________________________________________________________________________________________________
resnet50_channel_2c_conv_2 (Con (None, 55, 55, 86)   5590        lambda_55[0][2]                  
__________________________________________________________________________________________________
resnet50_channel_2s_conv_0 (Con (None, 55, 55, 85)   5525        lambda_56[0][0]                  
__________________________________________________________________________________________________
resnet50_channel_2s_conv_1 (Con (None, 55, 55, 85)   5525        lambda_56[0][1]                  
__________________________________________________________________________________________________
resnet50_channel_2s_conv_2 (Con (None, 55, 55, 86)   5590        lambda_56[0][2]                  
__________________________________________________________________________________________________
concatenate_3 (Concatenate)     (None, 55, 55, 256)  0           resnet50_channel_2c_conv_0[0][0] 
                                                                 resnet50_channel_2c_conv_1[0][0] 
                                                                 resnet50_channel_2c_conv_2[0][0] 
__________________________________________________________________________________________________
concatenate_4 (Concatenate)     (None, 55, 55, 256)  0           resnet50_channel_2s_conv_0[0][0] 
                                                                 resnet50_channel_2s_conv_1[0][0] 
                                                                 resnet50_channel_2s_conv_2[0][0] 
__________________________________________________________________________________________________
add_85 (Add)                    (None, 55, 55, 256)  0           concatenate_3[0][0]              
                                                                 concatenate_4[0][0]              
__________________________________________________________________________________________________
activation_53 (Activation)      (None, 55, 55, 256)  0           add_85[0][0]                     
__________________________________________________________________________________________________
lambda_57 (Lambda)              [(None, 55, 55, 256) 0           activation_53[0][0]              
__________________________________________________________________________________________________
resnet50_channel_3a_conv_0 (Con (None, 55, 55, 21)   5397        lambda_57[0][0]                  
__________________________________________________________________________________________________
resnet50_channel_3a_conv_1 (Con (None, 55, 55, 21)   5397        lambda_57[0][1]                  
__________________________________________________________________________________________________
resnet50_channel_3a_conv_2 (Con (None, 55, 55, 22)   5654        lambda_57[0][2]                  
__________________________________________________________________________________________________
concatenate_5 (Concatenate)     (None, 55, 55, 64)   0           resnet50_channel_3a_conv_0[0][0] 
                                                                 resnet50_channel_3a_conv_1[0][0] 
                                                                 resnet50_channel_3a_conv_2[0][0] 
__________________________________________________________________________________________________
lambda_58 (Lambda)              [(None, 55, 55, 64), 0           concatenate_5[0][0]              
__________________________________________________________________________________________________
resnet50_channel_3b_conv_0 (Con (None, 55, 55, 21)   12117       lambda_58[0][0]                  
__________________________________________________________________________________________________
resnet50_channel_3b_conv_1 (Con (None, 55, 55, 21)   12117       lambda_58[0][1]                  
__________________________________________________________________________________________________
resnet50_channel_3b_conv_2 (Con (None, 55, 55, 22)   12694       lambda_58[0][2]                  
__________________________________________________________________________________________________
concatenate_6 (Concatenate)     (None, 55, 55, 64)   0           resnet50_channel_3b_conv_0[0][0] 
                                                                 resnet50_channel_3b_conv_1[0][0] 
                                                                 resnet50_channel_3b_conv_2[0][0] 
__________________________________________________________________________________________________
lambda_59 (Lambda)              [(None, 55, 55, 64), 0           concatenate_6[0][0]              
__________________________________________________________________________________________________
resnet50_channel_3c_conv_0 (Con (None, 55, 55, 85)   5525        lambda_59[0][0]                  
__________________________________________________________________________________________________
resnet50_channel_3c_conv_1 (Con (None, 55, 55, 85)   5525        lambda_59[0][1]                  
__________________________________________________________________________________________________
resnet50_channel_3c_conv_2 (Con (None, 55, 55, 86)   5590        lambda_59[0][2]                  
__________________________________________________________________________________________________
concatenate_7 (Concatenate)     (None, 55, 55, 256)  0           resnet50_channel_3c_conv_0[0][0] 
                                                                 resnet50_channel_3c_conv_1[0][0] 
                                                                 resnet50_channel_3c_conv_2[0][0] 
__________________________________________________________________________________________________
add_86 (Add)                    (None, 55, 55, 256)  0           concatenate_7[0][0]              
                                                                 activation_53[0][0]              
__________________________________________________________________________________________________
activation_54 (Activation)      (None, 55, 55, 256)  0           add_86[0][0]                     
__________________________________________________________________________________________________
lambda_60 (Lambda)              [(None, 55, 55, 256) 0           activation_54[0][0]              
__________________________________________________________________________________________________
resnet50_channel_4a_conv_0 (Con (None, 55, 55, 21)   5397        lambda_60[0][0]                  
__________________________________________________________________________________________________
resnet50_channel_4a_conv_1 (Con (None, 55, 55, 21)   5397        lambda_60[0][1]                  
__________________________________________________________________________________________________
resnet50_channel_4a_conv_2 (Con (None, 55, 55, 22)   5654        lambda_60[0][2]                  
__________________________________________________________________________________________________
concatenate_8 (Concatenate)     (None, 55, 55, 64)   0           resnet50_channel_4a_conv_0[0][0] 
                                                                 resnet50_channel_4a_conv_1[0][0] 
                                                                 resnet50_channel_4a_conv_2[0][0] 
__________________________________________________________________________________________________
lambda_61 (Lambda)              [(None, 55, 55, 64), 0           concatenate_8[0][0]              
__________________________________________________________________________________________________
resnet50_channel_4b_conv_0 (Con (None, 55, 55, 21)   12117       lambda_61[0][0]                  
__________________________________________________________________________________________________
resnet50_channel_4b_conv_1 (Con (None, 55, 55, 21)   12117       lambda_61[0][1]                  
__________________________________________________________________________________________________
resnet50_channel_4b_conv_2 (Con (None, 55, 55, 22)   12694       lambda_61[0][2]                  
__________________________________________________________________________________________________
concatenate_9 (Concatenate)     (None, 55, 55, 64)   0           resnet50_channel_4b_conv_0[0][0] 
                                                                 resnet50_channel_4b_conv_1[0][0] 
                                                                 resnet50_channel_4b_conv_2[0][0] 
__________________________________________________________________________________________________
lambda_62 (Lambda)              [(None, 55, 55, 64), 0           concatenate_9[0][0]              
__________________________________________________________________________________________________
resnet50_channel_4c_conv_0 (Con (None, 55, 55, 85)   5525        lambda_62[0][0]                  
__________________________________________________________________________________________________
resnet50_channel_4c_conv_1 (Con (None, 55, 55, 85)   5525        lambda_62[0][1]                  
__________________________________________________________________________________________________
resnet50_channel_4c_conv_2 (Con (None, 55, 55, 86)   5590        lambda_62[0][2]                  
__________________________________________________________________________________________________
concatenate_10 (Concatenate)    (None, 55, 55, 256)  0           resnet50_channel_4c_conv_0[0][0] 
                                                                 resnet50_channel_4c_conv_1[0][0] 
                                                                 resnet50_channel_4c_conv_2[0][0] 
__________________________________________________________________________________________________
add_87 (Add)                    (None, 55, 55, 256)  0           concatenate_10[0][0]             
                                                                 activation_54[0][0]              
__________________________________________________________________________________________________
activation_55 (Activation)      (None, 55, 55, 256)  0           add_87[0][0]                     
__________________________________________________________________________________________________
lambda_63 (Lambda)              [(None, 55, 55, 256) 0           activation_55[0][0]              
__________________________________________________________________________________________________
resnet50_channel_5a_conv_0 (Con (None, 28, 28, 42)   10794       lambda_63[0][0]                  
__________________________________________________________________________________________________
resnet50_channel_5a_conv_1 (Con (None, 28, 28, 42)   10794       lambda_63[0][1]                  
__________________________________________________________________________________________________
resnet50_channel_5a_conv_2 (Con (None, 28, 28, 44)   11308       lambda_63[0][2]                  
__________________________________________________________________________________________________
concatenate_11 (Concatenate)    (None, 28, 28, 128)  0           resnet50_channel_5a_conv_0[0][0] 
                                                                 resnet50_channel_5a_conv_1[0][0] 
                                                                 resnet50_channel_5a_conv_2[0][0] 
__________________________________________________________________________________________________
lambda_64 (Lambda)              [(None, 28, 28, 128) 0           concatenate_11[0][0]             
__________________________________________________________________________________________________
resnet50_channel_5v_conv_0 (Con (None, 28, 28, 42)   48426       lambda_64[0][0]                  
__________________________________________________________________________________________________
resnet50_channel_5v_conv_1 (Con (None, 28, 28, 42)   48426       lambda_64[0][1]                  
__________________________________________________________________________________________________
resnet50_channel_5v_conv_2 (Con (None, 28, 28, 44)   50732       lambda_64[0][2]                  
__________________________________________________________________________________________________
concatenate_12 (Concatenate)    (None, 28, 28, 128)  0           resnet50_channel_5v_conv_0[0][0] 
                                                                 resnet50_channel_5v_conv_1[0][0] 
                                                                 resnet50_channel_5v_conv_2[0][0] 
__________________________________________________________________________________________________
lambda_65 (Lambda)              [(None, 28, 28, 128) 0           concatenate_12[0][0]             
__________________________________________________________________________________________________
lambda_66 (Lambda)              [(None, 55, 55, 256) 0           activation_55[0][0]              
__________________________________________________________________________________________________
resnet50_channel_5c_conv_0 (Con (None, 28, 28, 170)  21930       lambda_65[0][0]                  
__________________________________________________________________________________________________
resnet50_channel_5c_conv_1 (Con (None, 28, 28, 170)  21930       lambda_65[0][1]                  
__________________________________________________________________________________________________
resnet50_channel_5c_conv_2 (Con (None, 28, 28, 172)  22188       lambda_65[0][2]                  
__________________________________________________________________________________________________
resnet50_channel_5s_conv_0 (Con (None, 28, 28, 170)  43690       lambda_66[0][0]                  
__________________________________________________________________________________________________
resnet50_channel_5s_conv_1 (Con (None, 28, 28, 170)  43690       lambda_66[0][1]                  
__________________________________________________________________________________________________
resnet50_channel_5s_conv_2 (Con (None, 28, 28, 172)  44204       lambda_66[0][2]                  
__________________________________________________________________________________________________
concatenate_13 (Concatenate)    (None, 28, 28, 512)  0           resnet50_channel_5c_conv_0[0][0] 
                                                                 resnet50_channel_5c_conv_1[0][0] 
                                                                 resnet50_channel_5c_conv_2[0][0] 
__________________________________________________________________________________________________
concatenate_14 (Concatenate)    (None, 28, 28, 512)  0           resnet50_channel_5s_conv_0[0][0] 
                                                                 resnet50_channel_5s_conv_1[0][0] 
                                                                 resnet50_channel_5s_conv_2[0][0] 
__________________________________________________________________________________________________
add_88 (Add)                    (None, 28, 28, 512)  0           concatenate_13[0][0]             
                                                                 concatenate_14[0][0]             
__________________________________________________________________________________________________
activation_56 (Activation)      (None, 28, 28, 512)  0           add_88[0][0]                     
__________________________________________________________________________________________________
lambda_67 (Lambda)              [(None, 28, 28, 512) 0           activation_56[0][0]              
__________________________________________________________________________________________________
resnet50_channel_6a_conv_0 (Con (None, 28, 28, 42)   21546       lambda_67[0][0]                  
__________________________________________________________________________________________________
resnet50_channel_6a_conv_1 (Con (None, 28, 28, 42)   21546       lambda_67[0][1]                  
__________________________________________________________________________________________________
resnet50_channel_6a_conv_2 (Con (None, 28, 28, 44)   22572       lambda_67[0][2]                  
__________________________________________________________________________________________________
concatenate_15 (Concatenate)    (None, 28, 28, 128)  0           resnet50_channel_6a_conv_0[0][0] 
                                                                 resnet50_channel_6a_conv_1[0][0] 
                                                                 resnet50_channel_6a_conv_2[0][0] 
__________________________________________________________________________________________________
lambda_68 (Lambda)              [(None, 28, 28, 128) 0           concatenate_15[0][0]             
__________________________________________________________________________________________________
resnet50_channel_6b_conv_0 (Con (None, 28, 28, 42)   48426       lambda_68[0][0]                  
__________________________________________________________________________________________________
resnet50_channel_6b_conv_1 (Con (None, 28, 28, 42)   48426       lambda_68[0][1]                  
__________________________________________________________________________________________________
resnet50_channel_6b_conv_2 (Con (None, 28, 28, 44)   50732       lambda_68[0][2]                  
__________________________________________________________________________________________________
concatenate_16 (Concatenate)    (None, 28, 28, 128)  0           resnet50_channel_6b_conv_0[0][0] 
                                                                 resnet50_channel_6b_conv_1[0][0] 
                                                                 resnet50_channel_6b_conv_2[0][0] 
__________________________________________________________________________________________________
lambda_69 (Lambda)              [(None, 28, 28, 128) 0           concatenate_16[0][0]             
__________________________________________________________________________________________________
resnet50_channel_6c_conv_0 (Con (None, 28, 28, 170)  21930       lambda_69[0][0]                  
__________________________________________________________________________________________________
resnet50_channel_6c_conv_1 (Con (None, 28, 28, 170)  21930       lambda_69[0][1]                  
__________________________________________________________________________________________________
resnet50_channel_6c_conv_2 (Con (None, 28, 28, 172)  22188       lambda_69[0][2]                  
__________________________________________________________________________________________________
concatenate_17 (Concatenate)    (None, 28, 28, 512)  0           resnet50_channel_6c_conv_0[0][0] 
                                                                 resnet50_channel_6c_conv_1[0][0] 
                                                                 resnet50_channel_6c_conv_2[0][0] 
__________________________________________________________________________________________________
add_89 (Add)                    (None, 28, 28, 512)  0           concatenate_17[0][0]             
                                                                 activation_56[0][0]              
__________________________________________________________________________________________________
activation_57 (Activation)      (None, 28, 28, 512)  0           add_89[0][0]                     
__________________________________________________________________________________________________
lambda_70 (Lambda)              [(None, 28, 28, 512) 0           activation_57[0][0]              
__________________________________________________________________________________________________
resnet50_channel_7a_conv_0 (Con (None, 28, 28, 42)   21546       lambda_70[0][0]                  
__________________________________________________________________________________________________
resnet50_channel_7a_conv_1 (Con (None, 28, 28, 42)   21546       lambda_70[0][1]                  
__________________________________________________________________________________________________
resnet50_channel_7a_conv_2 (Con (None, 28, 28, 44)   22572       lambda_70[0][2]                  
__________________________________________________________________________________________________
concatenate_18 (Concatenate)    (None, 28, 28, 128)  0           resnet50_channel_7a_conv_0[0][0] 
                                                                 resnet50_channel_7a_conv_1[0][0] 
                                                                 resnet50_channel_7a_conv_2[0][0] 
__________________________________________________________________________________________________
lambda_71 (Lambda)              [(None, 28, 28, 128) 0           concatenate_18[0][0]             
__________________________________________________________________________________________________
resnet50_channel_7b_conv_0 (Con (None, 28, 28, 42)   48426       lambda_71[0][0]                  
__________________________________________________________________________________________________
resnet50_channel_7b_conv_1 (Con (None, 28, 28, 42)   48426       lambda_71[0][1]                  
__________________________________________________________________________________________________
resnet50_channel_7b_conv_2 (Con (None, 28, 28, 44)   50732       lambda_71[0][2]                  
__________________________________________________________________________________________________
concatenate_19 (Concatenate)    (None, 28, 28, 128)  0           resnet50_channel_7b_conv_0[0][0] 
                                                                 resnet50_channel_7b_conv_1[0][0] 
                                                                 resnet50_channel_7b_conv_2[0][0] 
__________________________________________________________________________________________________
lambda_72 (Lambda)              [(None, 28, 28, 128) 0           concatenate_19[0][0]             
__________________________________________________________________________________________________
resnet50_channel_7c_conv_0 (Con (None, 28, 28, 170)  21930       lambda_72[0][0]                  
__________________________________________________________________________________________________
resnet50_channel_7c_conv_1 (Con (None, 28, 28, 170)  21930       lambda_72[0][1]                  
__________________________________________________________________________________________________
resnet50_channel_7c_conv_2 (Con (None, 28, 28, 172)  22188       lambda_72[0][2]                  
__________________________________________________________________________________________________
concatenate_20 (Concatenate)    (None, 28, 28, 512)  0           resnet50_channel_7c_conv_0[0][0] 
                                                                 resnet50_channel_7c_conv_1[0][0] 
                                                                 resnet50_channel_7c_conv_2[0][0] 
__________________________________________________________________________________________________
add_90 (Add)                    (None, 28, 28, 512)  0           concatenate_20[0][0]             
                                                                 activation_57[0][0]              
__________________________________________________________________________________________________
activation_58 (Activation)      (None, 28, 28, 512)  0           add_90[0][0]                     
__________________________________________________________________________________________________
lambda_73 (Lambda)              [(None, 28, 28, 512) 0           activation_58[0][0]              
__________________________________________________________________________________________________
resnet50_channel_8a_conv_0 (Con (None, 28, 28, 42)   21546       lambda_73[0][0]                  
__________________________________________________________________________________________________
resnet50_channel_8a_conv_1 (Con (None, 28, 28, 42)   21546       lambda_73[0][1]                  
__________________________________________________________________________________________________
resnet50_channel_8a_conv_2 (Con (None, 28, 28, 44)   22572       lambda_73[0][2]                  
__________________________________________________________________________________________________
concatenate_21 (Concatenate)    (None, 28, 28, 128)  0           resnet50_channel_8a_conv_0[0][0] 
                                                                 resnet50_channel_8a_conv_1[0][0] 
                                                                 resnet50_channel_8a_conv_2[0][0] 
__________________________________________________________________________________________________
lambda_74 (Lambda)              [(None, 28, 28, 128) 0           concatenate_21[0][0]             
__________________________________________________________________________________________________
resnet50_channel_8b_conv_0 (Con (None, 28, 28, 42)   48426       lambda_74[0][0]                  
__________________________________________________________________________________________________
resnet50_channel_8b_conv_1 (Con (None, 28, 28, 42)   48426       lambda_74[0][1]                  
__________________________________________________________________________________________________
resnet50_channel_8b_conv_2 (Con (None, 28, 28, 44)   50732       lambda_74[0][2]                  
__________________________________________________________________________________________________
concatenate_22 (Concatenate)    (None, 28, 28, 128)  0           resnet50_channel_8b_conv_0[0][0] 
                                                                 resnet50_channel_8b_conv_1[0][0] 
                                                                 resnet50_channel_8b_conv_2[0][0] 
__________________________________________________________________________________________________
lambda_75 (Lambda)              [(None, 28, 28, 128) 0           concatenate_22[0][0]             
__________________________________________________________________________________________________
resnet50_channel_8c_conv_0 (Con (None, 28, 28, 170)  21930       lambda_75[0][0]                  
__________________________________________________________________________________________________
resnet50_channel_8c_conv_1 (Con (None, 28, 28, 170)  21930       lambda_75[0][1]                  
__________________________________________________________________________________________________
resnet50_channel_8c_conv_2 (Con (None, 28, 28, 172)  22188       lambda_75[0][2]                  
__________________________________________________________________________________________________
concatenate_23 (Concatenate)    (None, 28, 28, 512)  0           resnet50_channel_8c_conv_0[0][0] 
                                                                 resnet50_channel_8c_conv_1[0][0] 
                                                                 resnet50_channel_8c_conv_2[0][0] 
__________________________________________________________________________________________________
add_91 (Add)                    (None, 28, 28, 512)  0           concatenate_23[0][0]             
                                                                 activation_58[0][0]              
__________________________________________________________________________________________________
activation_59 (Activation)      (None, 28, 28, 512)  0           add_91[0][0]                     
__________________________________________________________________________________________________
lambda_76 (Lambda)              [(None, 28, 28, 512) 0           activation_59[0][0]              
__________________________________________________________________________________________________
resnet50_channel_9a_conv_0 (Con (None, 14, 14, 85)   43605       lambda_76[0][0]                  
__________________________________________________________________________________________________
resnet50_channel_9a_conv_1 (Con (None, 14, 14, 85)   43605       lambda_76[0][1]                  
__________________________________________________________________________________________________
resnet50_channel_9a_conv_2 (Con (None, 14, 14, 86)   44118       lambda_76[0][2]                  
__________________________________________________________________________________________________
concatenate_24 (Concatenate)    (None, 14, 14, 256)  0           resnet50_channel_9a_conv_0[0][0] 
                                                                 resnet50_channel_9a_conv_1[0][0] 
                                                                 resnet50_channel_9a_conv_2[0][0] 
__________________________________________________________________________________________________
lambda_77 (Lambda)              [(None, 14, 14, 256) 0           concatenate_24[0][0]             
__________________________________________________________________________________________________
resnet50_channel_9v_conv_0 (Con (None, 14, 14, 85)   195925      lambda_77[0][0]                  
__________________________________________________________________________________________________
resnet50_channel_9v_conv_1 (Con (None, 14, 14, 85)   195925      lambda_77[0][1]                  
__________________________________________________________________________________________________
resnet50_channel_9v_conv_2 (Con (None, 14, 14, 86)   198230      lambda_77[0][2]                  
__________________________________________________________________________________________________
concatenate_25 (Concatenate)    (None, 14, 14, 256)  0           resnet50_channel_9v_conv_0[0][0] 
                                                                 resnet50_channel_9v_conv_1[0][0] 
                                                                 resnet50_channel_9v_conv_2[0][0] 
__________________________________________________________________________________________________
lambda_78 (Lambda)              [(None, 14, 14, 256) 0           concatenate_25[0][0]             
__________________________________________________________________________________________________
lambda_79 (Lambda)              [(None, 28, 28, 512) 0           activation_59[0][0]              
__________________________________________________________________________________________________
resnet50_channel_9c_conv_0 (Con (None, 14, 14, 341)  87637       lambda_78[0][0]                  
__________________________________________________________________________________________________
resnet50_channel_9c_conv_1 (Con (None, 14, 14, 341)  87637       lambda_78[0][1]                  
__________________________________________________________________________________________________
resnet50_channel_9c_conv_2 (Con (None, 14, 14, 342)  87894       lambda_78[0][2]                  
__________________________________________________________________________________________________
resnet50_channel_9s_conv_0 (Con (None, 14, 14, 341)  174933      lambda_79[0][0]                  
__________________________________________________________________________________________________
resnet50_channel_9s_conv_1 (Con (None, 14, 14, 341)  174933      lambda_79[0][1]                  
__________________________________________________________________________________________________
resnet50_channel_9s_conv_2 (Con (None, 14, 14, 342)  175446      lambda_79[0][2]                  
__________________________________________________________________________________________________
concatenate_26 (Concatenate)    (None, 14, 14, 1024) 0           resnet50_channel_9c_conv_0[0][0] 
                                                                 resnet50_channel_9c_conv_1[0][0] 
                                                                 resnet50_channel_9c_conv_2[0][0] 
__________________________________________________________________________________________________
concatenate_27 (Concatenate)    (None, 14, 14, 1024) 0           resnet50_channel_9s_conv_0[0][0] 
                                                                 resnet50_channel_9s_conv_1[0][0] 
                                                                 resnet50_channel_9s_conv_2[0][0] 
__________________________________________________________________________________________________
add_92 (Add)                    (None, 14, 14, 1024) 0           concatenate_26[0][0]             
                                                                 concatenate_27[0][0]             
__________________________________________________________________________________________________
activation_60 (Activation)      (None, 14, 14, 1024) 0           add_92[0][0]                     
__________________________________________________________________________________________________
lambda_80 (Lambda)              [(None, 14, 14, 1024 0           activation_60[0][0]              
__________________________________________________________________________________________________
resnet50_channel_10a_conv_0 (Co (None, 14, 14, 85)   87125       lambda_80[0][0]                  
__________________________________________________________________________________________________
resnet50_channel_10a_conv_1 (Co (None, 14, 14, 85)   87125       lambda_80[0][1]                  
__________________________________________________________________________________________________
resnet50_channel_10a_conv_2 (Co (None, 14, 14, 86)   88150       lambda_80[0][2]                  
__________________________________________________________________________________________________
concatenate_28 (Concatenate)    (None, 14, 14, 256)  0           resnet50_channel_10a_conv_0[0][0]
                                                                 resnet50_channel_10a_conv_1[0][0]
                                                                 resnet50_channel_10a_conv_2[0][0]
__________________________________________________________________________________________________
lambda_81 (Lambda)              [(None, 14, 14, 256) 0           concatenate_28[0][0]             
__________________________________________________________________________________________________
resnet50_channel_10b_conv_0 (Co (None, 14, 14, 85)   195925      lambda_81[0][0]                  
__________________________________________________________________________________________________
resnet50_channel_10b_conv_1 (Co (None, 14, 14, 85)   195925      lambda_81[0][1]                  
__________________________________________________________________________________________________
resnet50_channel_10b_conv_2 (Co (None, 14, 14, 86)   198230      lambda_81[0][2]                  
__________________________________________________________________________________________________
concatenate_29 (Concatenate)    (None, 14, 14, 256)  0           resnet50_channel_10b_conv_0[0][0]
                                                                 resnet50_channel_10b_conv_1[0][0]
                                                                 resnet50_channel_10b_conv_2[0][0]
__________________________________________________________________________________________________
lambda_82 (Lambda)              [(None, 14, 14, 256) 0           concatenate_29[0][0]             
__________________________________________________________________________________________________
resnet50_channel_10c_conv_0 (Co (None, 14, 14, 341)  87637       lambda_82[0][0]                  
__________________________________________________________________________________________________
resnet50_channel_10c_conv_1 (Co (None, 14, 14, 341)  87637       lambda_82[0][1]                  
__________________________________________________________________________________________________
resnet50_channel_10c_conv_2 (Co (None, 14, 14, 342)  87894       lambda_82[0][2]                  
__________________________________________________________________________________________________
concatenate_30 (Concatenate)    (None, 14, 14, 1024) 0           resnet50_channel_10c_conv_0[0][0]
                                                                 resnet50_channel_10c_conv_1[0][0]
                                                                 resnet50_channel_10c_conv_2[0][0]
__________________________________________________________________________________________________
add_93 (Add)                    (None, 14, 14, 1024) 0           concatenate_30[0][0]             
                                                                 activation_60[0][0]              
__________________________________________________________________________________________________
activation_61 (Activation)      (None, 14, 14, 1024) 0           add_93[0][0]                     
__________________________________________________________________________________________________
lambda_83 (Lambda)              [(None, 14, 14, 1024 0           activation_61[0][0]              
__________________________________________________________________________________________________
resnet50_channel_11a_conv_0 (Co (None, 14, 14, 85)   87125       lambda_83[0][0]                  
__________________________________________________________________________________________________
resnet50_channel_11a_conv_1 (Co (None, 14, 14, 85)   87125       lambda_83[0][1]                  
__________________________________________________________________________________________________
resnet50_channel_11a_conv_2 (Co (None, 14, 14, 86)   88150       lambda_83[0][2]                  
__________________________________________________________________________________________________
concatenate_31 (Concatenate)    (None, 14, 14, 256)  0           resnet50_channel_11a_conv_0[0][0]
                                                                 resnet50_channel_11a_conv_1[0][0]
                                                                 resnet50_channel_11a_conv_2[0][0]
__________________________________________________________________________________________________
lambda_84 (Lambda)              [(None, 14, 14, 256) 0           concatenate_31[0][0]             
__________________________________________________________________________________________________
resnet50_channel_11b_conv_0 (Co (None, 14, 14, 85)   195925      lambda_84[0][0]                  
__________________________________________________________________________________________________
resnet50_channel_11b_conv_1 (Co (None, 14, 14, 85)   195925      lambda_84[0][1]                  
__________________________________________________________________________________________________
resnet50_channel_11b_conv_2 (Co (None, 14, 14, 86)   198230      lambda_84[0][2]                  
__________________________________________________________________________________________________
concatenate_32 (Concatenate)    (None, 14, 14, 256)  0           resnet50_channel_11b_conv_0[0][0]
                                                                 resnet50_channel_11b_conv_1[0][0]
                                                                 resnet50_channel_11b_conv_2[0][0]
__________________________________________________________________________________________________
lambda_85 (Lambda)              [(None, 14, 14, 256) 0           concatenate_32[0][0]             
__________________________________________________________________________________________________
resnet50_channel_11c_conv_0 (Co (None, 14, 14, 341)  87637       lambda_85[0][0]                  
__________________________________________________________________________________________________
resnet50_channel_11c_conv_1 (Co (None, 14, 14, 341)  87637       lambda_85[0][1]                  
__________________________________________________________________________________________________
resnet50_channel_11c_conv_2 (Co (None, 14, 14, 342)  87894       lambda_85[0][2]                  
__________________________________________________________________________________________________
concatenate_33 (Concatenate)    (None, 14, 14, 1024) 0           resnet50_channel_11c_conv_0[0][0]
                                                                 resnet50_channel_11c_conv_1[0][0]
                                                                 resnet50_channel_11c_conv_2[0][0]
__________________________________________________________________________________________________
add_94 (Add)                    (None, 14, 14, 1024) 0           concatenate_33[0][0]             
                                                                 activation_61[0][0]              
__________________________________________________________________________________________________
activation_62 (Activation)      (None, 14, 14, 1024) 0           add_94[0][0]                     
__________________________________________________________________________________________________
lambda_86 (Lambda)              [(None, 14, 14, 1024 0           activation_62[0][0]              
__________________________________________________________________________________________________
resnet50_channel_12a_conv_0 (Co (None, 14, 14, 85)   87125       lambda_86[0][0]                  
__________________________________________________________________________________________________
resnet50_channel_12a_conv_1 (Co (None, 14, 14, 85)   87125       lambda_86[0][1]                  
__________________________________________________________________________________________________
resnet50_channel_12a_conv_2 (Co (None, 14, 14, 86)   88150       lambda_86[0][2]                  
__________________________________________________________________________________________________
concatenate_34 (Concatenate)    (None, 14, 14, 256)  0           resnet50_channel_12a_conv_0[0][0]
                                                                 resnet50_channel_12a_conv_1[0][0]
                                                                 resnet50_channel_12a_conv_2[0][0]
__________________________________________________________________________________________________
lambda_87 (Lambda)              [(None, 14, 14, 256) 0           concatenate_34[0][0]             
__________________________________________________________________________________________________
resnet50_channel_12b_conv_0 (Co (None, 14, 14, 85)   195925      lambda_87[0][0]                  
__________________________________________________________________________________________________
resnet50_channel_12b_conv_1 (Co (None, 14, 14, 85)   195925      lambda_87[0][1]                  
__________________________________________________________________________________________________
resnet50_channel_12b_conv_2 (Co (None, 14, 14, 86)   198230      lambda_87[0][2]                  
__________________________________________________________________________________________________
concatenate_35 (Concatenate)    (None, 14, 14, 256)  0           resnet50_channel_12b_conv_0[0][0]
                                                                 resnet50_channel_12b_conv_1[0][0]
                                                                 resnet50_channel_12b_conv_2[0][0]
__________________________________________________________________________________________________
lambda_88 (Lambda)              [(None, 14, 14, 256) 0           concatenate_35[0][0]             
__________________________________________________________________________________________________
resnet50_channel_12c_conv_0 (Co (None, 14, 14, 341)  87637       lambda_88[0][0]                  
__________________________________________________________________________________________________
resnet50_channel_12c_conv_1 (Co (None, 14, 14, 341)  87637       lambda_88[0][1]                  
__________________________________________________________________________________________________
resnet50_channel_12c_conv_2 (Co (None, 14, 14, 342)  87894       lambda_88[0][2]                  
__________________________________________________________________________________________________
concatenate_36 (Concatenate)    (None, 14, 14, 1024) 0           resnet50_channel_12c_conv_0[0][0]
                                                                 resnet50_channel_12c_conv_1[0][0]
                                                                 resnet50_channel_12c_conv_2[0][0]
__________________________________________________________________________________________________
add_95 (Add)                    (None, 14, 14, 1024) 0           concatenate_36[0][0]             
                                                                 activation_62[0][0]              
__________________________________________________________________________________________________
activation_63 (Activation)      (None, 14, 14, 1024) 0           add_95[0][0]                     
__________________________________________________________________________________________________
lambda_89 (Lambda)              [(None, 14, 14, 1024 0           activation_63[0][0]              
__________________________________________________________________________________________________
resnet50_channel_13a_conv_0 (Co (None, 14, 14, 85)   87125       lambda_89[0][0]                  
__________________________________________________________________________________________________
resnet50_channel_13a_conv_1 (Co (None, 14, 14, 85)   87125       lambda_89[0][1]                  
__________________________________________________________________________________________________
resnet50_channel_13a_conv_2 (Co (None, 14, 14, 86)   88150       lambda_89[0][2]                  
__________________________________________________________________________________________________
concatenate_37 (Concatenate)    (None, 14, 14, 256)  0           resnet50_channel_13a_conv_0[0][0]
                                                                 resnet50_channel_13a_conv_1[0][0]
                                                                 resnet50_channel_13a_conv_2[0][0]
__________________________________________________________________________________________________
lambda_90 (Lambda)              [(None, 14, 14, 256) 0           concatenate_37[0][0]             
__________________________________________________________________________________________________
resnet50_channel_13b_conv_0 (Co (None, 14, 14, 85)   195925      lambda_90[0][0]                  
__________________________________________________________________________________________________
resnet50_channel_13b_conv_1 (Co (None, 14, 14, 85)   195925      lambda_90[0][1]                  
__________________________________________________________________________________________________
resnet50_channel_13b_conv_2 (Co (None, 14, 14, 86)   198230      lambda_90[0][2]                  
__________________________________________________________________________________________________
concatenate_38 (Concatenate)    (None, 14, 14, 256)  0           resnet50_channel_13b_conv_0[0][0]
                                                                 resnet50_channel_13b_conv_1[0][0]
                                                                 resnet50_channel_13b_conv_2[0][0]
__________________________________________________________________________________________________
lambda_91 (Lambda)              [(None, 14, 14, 256) 0           concatenate_38[0][0]             
__________________________________________________________________________________________________
resnet50_channel_13c_conv_0 (Co (None, 14, 14, 341)  87637       lambda_91[0][0]                  
__________________________________________________________________________________________________
resnet50_channel_13c_conv_1 (Co (None, 14, 14, 341)  87637       lambda_91[0][1]                  
__________________________________________________________________________________________________
resnet50_channel_13c_conv_2 (Co (None, 14, 14, 342)  87894       lambda_91[0][2]                  
__________________________________________________________________________________________________
concatenate_39 (Concatenate)    (None, 14, 14, 1024) 0           resnet50_channel_13c_conv_0[0][0]
                                                                 resnet50_channel_13c_conv_1[0][0]
                                                                 resnet50_channel_13c_conv_2[0][0]
__________________________________________________________________________________________________
add_96 (Add)                    (None, 14, 14, 1024) 0           concatenate_39[0][0]             
                                                                 activation_63[0][0]              
__________________________________________________________________________________________________
activation_64 (Activation)      (None, 14, 14, 1024) 0           add_96[0][0]                     
__________________________________________________________________________________________________
lambda_92 (Lambda)              [(None, 14, 14, 1024 0           activation_64[0][0]              
__________________________________________________________________________________________________
resnet50_channel_14a_conv_0 (Co (None, 14, 14, 85)   87125       lambda_92[0][0]                  
__________________________________________________________________________________________________
resnet50_channel_14a_conv_1 (Co (None, 14, 14, 85)   87125       lambda_92[0][1]                  
__________________________________________________________________________________________________
resnet50_channel_14a_conv_2 (Co (None, 14, 14, 86)   88150       lambda_92[0][2]                  
__________________________________________________________________________________________________
concatenate_40 (Concatenate)    (None, 14, 14, 256)  0           resnet50_channel_14a_conv_0[0][0]
                                                                 resnet50_channel_14a_conv_1[0][0]
                                                                 resnet50_channel_14a_conv_2[0][0]
__________________________________________________________________________________________________
lambda_93 (Lambda)              [(None, 14, 14, 256) 0           concatenate_40[0][0]             
__________________________________________________________________________________________________
resnet50_channel_14b_conv_0 (Co (None, 14, 14, 85)   195925      lambda_93[0][0]                  
__________________________________________________________________________________________________
resnet50_channel_14b_conv_1 (Co (None, 14, 14, 85)   195925      lambda_93[0][1]                  
__________________________________________________________________________________________________
resnet50_channel_14b_conv_2 (Co (None, 14, 14, 86)   198230      lambda_93[0][2]                  
__________________________________________________________________________________________________
concatenate_41 (Concatenate)    (None, 14, 14, 256)  0           resnet50_channel_14b_conv_0[0][0]
                                                                 resnet50_channel_14b_conv_1[0][0]
                                                                 resnet50_channel_14b_conv_2[0][0]
__________________________________________________________________________________________________
lambda_94 (Lambda)              [(None, 14, 14, 256) 0           concatenate_41[0][0]             
__________________________________________________________________________________________________
resnet50_channel_14c_conv_0 (Co (None, 14, 14, 341)  87637       lambda_94[0][0]                  
__________________________________________________________________________________________________
resnet50_channel_14c_conv_1 (Co (None, 14, 14, 341)  87637       lambda_94[0][1]                  
__________________________________________________________________________________________________
resnet50_channel_14c_conv_2 (Co (None, 14, 14, 342)  87894       lambda_94[0][2]                  
__________________________________________________________________________________________________
concatenate_42 (Concatenate)    (None, 14, 14, 1024) 0           resnet50_channel_14c_conv_0[0][0]
                                                                 resnet50_channel_14c_conv_1[0][0]
                                                                 resnet50_channel_14c_conv_2[0][0]
__________________________________________________________________________________________________
add_97 (Add)                    (None, 14, 14, 1024) 0           concatenate_42[0][0]             
                                                                 activation_64[0][0]              
__________________________________________________________________________________________________
activation_65 (Activation)      (None, 14, 14, 1024) 0           add_97[0][0]                     
__________________________________________________________________________________________________
lambda_95 (Lambda)              [(None, 14, 14, 1024 0           activation_65[0][0]              
__________________________________________________________________________________________________
resnet50_channel_15a_conv_0 (Co (None, 7, 7, 170)    174250      lambda_95[0][0]                  
__________________________________________________________________________________________________
resnet50_channel_15a_conv_1 (Co (None, 7, 7, 170)    174250      lambda_95[0][1]                  
__________________________________________________________________________________________________
resnet50_channel_15a_conv_2 (Co (None, 7, 7, 172)    176300      lambda_95[0][2]                  
__________________________________________________________________________________________________
concatenate_43 (Concatenate)    (None, 7, 7, 512)    0           resnet50_channel_15a_conv_0[0][0]
                                                                 resnet50_channel_15a_conv_1[0][0]
                                                                 resnet50_channel_15a_conv_2[0][0]
__________________________________________________________________________________________________
lambda_96 (Lambda)              [(None, 7, 7, 512),  0           concatenate_43[0][0]             
__________________________________________________________________________________________________
resnet50_channel_15v_conv_0 (Co (None, 7, 7, 170)    783530      lambda_96[0][0]                  
__________________________________________________________________________________________________
resnet50_channel_15v_conv_1 (Co (None, 7, 7, 170)    783530      lambda_96[0][1]                  
__________________________________________________________________________________________________
resnet50_channel_15v_conv_2 (Co (None, 7, 7, 172)    792748      lambda_96[0][2]                  
__________________________________________________________________________________________________
concatenate_44 (Concatenate)    (None, 7, 7, 512)    0           resnet50_channel_15v_conv_0[0][0]
                                                                 resnet50_channel_15v_conv_1[0][0]
                                                                 resnet50_channel_15v_conv_2[0][0]
__________________________________________________________________________________________________
lambda_97 (Lambda)              [(None, 7, 7, 512),  0           concatenate_44[0][0]             
__________________________________________________________________________________________________
lambda_98 (Lambda)              [(None, 14, 14, 1024 0           activation_65[0][0]              
__________________________________________________________________________________________________
resnet50_channel_15c_conv_0 (Co (None, 7, 7, 682)    349866      lambda_97[0][0]                  
__________________________________________________________________________________________________
resnet50_channel_15c_conv_1 (Co (None, 7, 7, 682)    349866      lambda_97[0][1]                  
__________________________________________________________________________________________________
resnet50_channel_15c_conv_2 (Co (None, 7, 7, 684)    350892      lambda_97[0][2]                  
__________________________________________________________________________________________________
resnet50_channel_15s_conv_0 (Co (None, 7, 7, 682)    699050      lambda_98[0][0]                  
__________________________________________________________________________________________________
resnet50_channel_15s_conv_1 (Co (None, 7, 7, 682)    699050      lambda_98[0][1]                  
__________________________________________________________________________________________________
resnet50_channel_15s_conv_2 (Co (None, 7, 7, 684)    701100      lambda_98[0][2]                  
__________________________________________________________________________________________________
concatenate_45 (Concatenate)    (None, 7, 7, 2048)   0           resnet50_channel_15c_conv_0[0][0]
                                                                 resnet50_channel_15c_conv_1[0][0]
                                                                 resnet50_channel_15c_conv_2[0][0]
__________________________________________________________________________________________________
concatenate_46 (Concatenate)    (None, 7, 7, 2048)   0           resnet50_channel_15s_conv_0[0][0]
                                                                 resnet50_channel_15s_conv_1[0][0]
                                                                 resnet50_channel_15s_conv_2[0][0]
__________________________________________________________________________________________________
add_98 (Add)                    (None, 7, 7, 2048)   0           concatenate_45[0][0]             
                                                                 concatenate_46[0][0]             
__________________________________________________________________________________________________
activation_66 (Activation)      (None, 7, 7, 2048)   0           add_98[0][0]                     
__________________________________________________________________________________________________
lambda_99 (Lambda)              [(None, 7, 7, 2048), 0           activation_66[0][0]              
__________________________________________________________________________________________________
resnet50_channel_16a_conv_0 (Co (None, 7, 7, 170)    348330      lambda_99[0][0]                  
__________________________________________________________________________________________________
resnet50_channel_16a_conv_1 (Co (None, 7, 7, 170)    348330      lambda_99[0][1]                  
__________________________________________________________________________________________________
resnet50_channel_16a_conv_2 (Co (None, 7, 7, 172)    352428      lambda_99[0][2]                  
__________________________________________________________________________________________________
concatenate_47 (Concatenate)    (None, 7, 7, 512)    0           resnet50_channel_16a_conv_0[0][0]
                                                                 resnet50_channel_16a_conv_1[0][0]
                                                                 resnet50_channel_16a_conv_2[0][0]
__________________________________________________________________________________________________
lambda_100 (Lambda)             [(None, 7, 7, 512),  0           concatenate_47[0][0]             
__________________________________________________________________________________________________
resnet50_channel_16b_conv_0 (Co (None, 7, 7, 170)    783530      lambda_100[0][0]                 
__________________________________________________________________________________________________
resnet50_channel_16b_conv_1 (Co (None, 7, 7, 170)    783530      lambda_100[0][1]                 
__________________________________________________________________________________________________
resnet50_channel_16b_conv_2 (Co (None, 7, 7, 172)    792748      lambda_100[0][2]                 
__________________________________________________________________________________________________
concatenate_48 (Concatenate)    (None, 7, 7, 512)    0           resnet50_channel_16b_conv_0[0][0]
                                                                 resnet50_channel_16b_conv_1[0][0]
                                                                 resnet50_channel_16b_conv_2[0][0]
__________________________________________________________________________________________________
lambda_101 (Lambda)             [(None, 7, 7, 512),  0           concatenate_48[0][0]             
__________________________________________________________________________________________________
resnet50_channel_16c_conv_0 (Co (None, 7, 7, 682)    349866      lambda_101[0][0]                 
__________________________________________________________________________________________________
resnet50_channel_16c_conv_1 (Co (None, 7, 7, 682)    349866      lambda_101[0][1]                 
__________________________________________________________________________________________________
resnet50_channel_16c_conv_2 (Co (None, 7, 7, 684)    350892      lambda_101[0][2]                 
__________________________________________________________________________________________________
concatenate_49 (Concatenate)    (None, 7, 7, 2048)   0           resnet50_channel_16c_conv_0[0][0]
                                                                 resnet50_channel_16c_conv_1[0][0]
                                                                 resnet50_channel_16c_conv_2[0][0]
__________________________________________________________________________________________________
add_99 (Add)                    (None, 7, 7, 2048)   0           concatenate_49[0][0]             
                                                                 activation_66[0][0]              
__________________________________________________________________________________________________
activation_67 (Activation)      (None, 7, 7, 2048)   0           add_99[0][0]                     
__________________________________________________________________________________________________
lambda_102 (Lambda)             [(None, 7, 7, 2048), 0           activation_67[0][0]              
__________________________________________________________________________________________________
resnet50_channel_17a_conv_0 (Co (None, 7, 7, 170)    348330      lambda_102[0][0]                 
__________________________________________________________________________________________________
resnet50_channel_17a_conv_1 (Co (None, 7, 7, 170)    348330      lambda_102[0][1]                 
__________________________________________________________________________________________________
resnet50_channel_17a_conv_2 (Co (None, 7, 7, 172)    352428      lambda_102[0][2]                 
__________________________________________________________________________________________________
concatenate_50 (Concatenate)    (None, 7, 7, 512)    0           resnet50_channel_17a_conv_0[0][0]
                                                                 resnet50_channel_17a_conv_1[0][0]
                                                                 resnet50_channel_17a_conv_2[0][0]
__________________________________________________________________________________________________
lambda_103 (Lambda)             [(None, 7, 7, 512),  0           concatenate_50[0][0]             
__________________________________________________________________________________________________
resnet50_channel_17b_conv_0 (Co (None, 7, 7, 170)    783530      lambda_103[0][0]                 
__________________________________________________________________________________________________
resnet50_channel_17b_conv_1 (Co (None, 7, 7, 170)    783530      lambda_103[0][1]                 
__________________________________________________________________________________________________
resnet50_channel_17b_conv_2 (Co (None, 7, 7, 172)    792748      lambda_103[0][2]                 
__________________________________________________________________________________________________
concatenate_51 (Concatenate)    (None, 7, 7, 512)    0           resnet50_channel_17b_conv_0[0][0]
                                                                 resnet50_channel_17b_conv_1[0][0]
                                                                 resnet50_channel_17b_conv_2[0][0]
__________________________________________________________________________________________________
lambda_104 (Lambda)             [(None, 7, 7, 512),  0           concatenate_51[0][0]             
__________________________________________________________________________________________________
resnet50_channel_17c_conv_0 (Co (None, 7, 7, 682)    349866      lambda_104[0][0]                 
__________________________________________________________________________________________________
resnet50_channel_17c_conv_1 (Co (None, 7, 7, 682)    349866      lambda_104[0][1]                 
__________________________________________________________________________________________________
resnet50_channel_17c_conv_2 (Co (None, 7, 7, 684)    350892      lambda_104[0][2]                 
__________________________________________________________________________________________________
concatenate_52 (Concatenate)    (None, 7, 7, 2048)   0           resnet50_channel_17c_conv_0[0][0]
                                                                 resnet50_channel_17c_conv_1[0][0]
                                                                 resnet50_channel_17c_conv_2[0][0]
__________________________________________________________________________________________________
add_100 (Add)                   (None, 7, 7, 2048)   0           concatenate_52[0][0]             
                                                                 activation_67[0][0]              
__________________________________________________________________________________________________
activation_68 (Activation)      (None, 7, 7, 2048)   0           add_100[0][0]                    
__________________________________________________________________________________________________
average_pooling2d_3 (AveragePoo (None, 1, 1, 2048)   0           activation_68[0][0]              
__________________________________________________________________________________________________
flatten_3 (Flatten)             (None, 2048)         0           average_pooling2d_3[0][0]        
__________________________________________________________________________________________________
resnet50_channel_18_dense (Dens (None, 1000)         2049000     flatten_3[0][0]                  
==================================================================================================
Total params: 25,530,472
Trainable params: 25,530,472
Non-trainable params: 0
__________________________________________________________________________________________________
None
