__________________________________________________________________________________________________
Layer (type)                    Output Shape         Param #     Connected to                     
==================================================================================================
input_10 (InputLayer)           (None, 224, 224, 3)  0                                            
__________________________________________________________________________________________________
zero_padding2d_20 (ZeroPadding2 (None, 230, 230, 3)  0           input_10[0][0]                   
__________________________________________________________________________________________________
lambda_55 (Lambda)              [(None, 230, 230, 3) 0           zero_padding2d_20[0][0]          
__________________________________________________________________________________________________
conv2d_198 (Conv2D)             (None, 112, 112, 21) 3108        lambda_55[0][0]                  
__________________________________________________________________________________________________
conv2d_199 (Conv2D)             (None, 112, 112, 21) 3108        lambda_55[0][1]                  
__________________________________________________________________________________________________
conv2d_200 (Conv2D)             (None, 112, 112, 22) 3256        lambda_55[0][2]                  
__________________________________________________________________________________________________
concatenate_91 (Concatenate)    (None, 112, 112, 64) 0           conv2d_198[0][0]                 
                                                                 conv2d_199[0][0]                 
                                                                 conv2d_200[0][0]                 
__________________________________________________________________________________________________
max_pooling2d_30 (MaxPooling2D) (None, 55, 55, 64)   0           concatenate_91[0][0]             
__________________________________________________________________________________________________
lambda_56 (Lambda)              [(None, 55, 55, 64), 0           max_pooling2d_30[0][0]           
__________________________________________________________________________________________________
conv2d_201 (Conv2D)             (None, 55, 55, 21)   1365        lambda_56[0][0]                  
__________________________________________________________________________________________________
conv2d_202 (Conv2D)             (None, 55, 55, 21)   1365        lambda_56[0][1]                  
__________________________________________________________________________________________________
conv2d_203 (Conv2D)             (None, 55, 55, 22)   1430        lambda_56[0][2]                  
__________________________________________________________________________________________________
concatenate_92 (Concatenate)    (None, 55, 55, 64)   0           conv2d_201[0][0]                 
                                                                 conv2d_202[0][0]                 
                                                                 conv2d_203[0][0]                 
__________________________________________________________________________________________________
lambda_57 (Lambda)              [(None, 55, 55, 64), 0           concatenate_92[0][0]             
__________________________________________________________________________________________________
conv2d_204 (Conv2D)             (None, 55, 55, 21)   12117       lambda_57[0][0]                  
__________________________________________________________________________________________________
conv2d_205 (Conv2D)             (None, 55, 55, 21)   12117       lambda_57[0][1]                  
__________________________________________________________________________________________________
conv2d_206 (Conv2D)             (None, 55, 55, 22)   12694       lambda_57[0][2]                  
__________________________________________________________________________________________________
concatenate_93 (Concatenate)    (None, 55, 55, 64)   0           conv2d_204[0][0]                 
                                                                 conv2d_205[0][0]                 
                                                                 conv2d_206[0][0]                 
__________________________________________________________________________________________________
lambda_58 (Lambda)              [(None, 55, 55, 64), 0           concatenate_93[0][0]             
__________________________________________________________________________________________________
lambda_59 (Lambda)              [(None, 55, 55, 64), 0           max_pooling2d_30[0][0]           
__________________________________________________________________________________________________
conv2d_207 (Conv2D)             (None, 55, 55, 85)   5525        lambda_58[0][0]                  
__________________________________________________________________________________________________
conv2d_208 (Conv2D)             (None, 55, 55, 85)   5525        lambda_58[0][1]                  
__________________________________________________________________________________________________
conv2d_209 (Conv2D)             (None, 55, 55, 86)   5590        lambda_58[0][2]                  
__________________________________________________________________________________________________
conv2d_210 (Conv2D)             (None, 55, 55, 85)   5525        lambda_59[0][0]                  
__________________________________________________________________________________________________
conv2d_211 (Conv2D)             (None, 55, 55, 85)   5525        lambda_59[0][1]                  
__________________________________________________________________________________________________
conv2d_212 (Conv2D)             (None, 55, 55, 86)   5590        lambda_59[0][2]                  
__________________________________________________________________________________________________
concatenate_94 (Concatenate)    (None, 55, 55, 256)  0           conv2d_207[0][0]                 
                                                                 conv2d_208[0][0]                 
                                                                 conv2d_209[0][0]                 
__________________________________________________________________________________________________
concatenate_95 (Concatenate)    (None, 55, 55, 256)  0           conv2d_210[0][0]                 
                                                                 conv2d_211[0][0]                 
                                                                 conv2d_212[0][0]                 
__________________________________________________________________________________________________
add_35 (Add)                    (None, 55, 55, 256)  0           concatenate_94[0][0]             
                                                                 concatenate_95[0][0]             
__________________________________________________________________________________________________
activation_17 (Activation)      (None, 55, 55, 256)  0           add_35[0][0]                     
__________________________________________________________________________________________________
lambda_60 (Lambda)              [(None, 55, 55, 256) 0           activation_17[0][0]              
__________________________________________________________________________________________________
conv2d_213 (Conv2D)             (None, 55, 55, 21)   5397        lambda_60[0][0]                  
__________________________________________________________________________________________________
conv2d_214 (Conv2D)             (None, 55, 55, 21)   5397        lambda_60[0][1]                  
__________________________________________________________________________________________________
conv2d_215 (Conv2D)             (None, 55, 55, 22)   5654        lambda_60[0][2]                  
__________________________________________________________________________________________________
concatenate_96 (Concatenate)    (None, 55, 55, 64)   0           conv2d_213[0][0]                 
                                                                 conv2d_214[0][0]                 
                                                                 conv2d_215[0][0]                 
__________________________________________________________________________________________________
lambda_61 (Lambda)              [(None, 55, 55, 64), 0           concatenate_96[0][0]             
__________________________________________________________________________________________________
conv2d_216 (Conv2D)             (None, 55, 55, 21)   12117       lambda_61[0][0]                  
__________________________________________________________________________________________________
conv2d_217 (Conv2D)             (None, 55, 55, 21)   12117       lambda_61[0][1]                  
__________________________________________________________________________________________________
conv2d_218 (Conv2D)             (None, 55, 55, 22)   12694       lambda_61[0][2]                  
__________________________________________________________________________________________________
concatenate_97 (Concatenate)    (None, 55, 55, 64)   0           conv2d_216[0][0]                 
                                                                 conv2d_217[0][0]                 
                                                                 conv2d_218[0][0]                 
__________________________________________________________________________________________________
lambda_62 (Lambda)              [(None, 55, 55, 64), 0           concatenate_97[0][0]             
__________________________________________________________________________________________________
conv2d_219 (Conv2D)             (None, 55, 55, 85)   5525        lambda_62[0][0]                  
__________________________________________________________________________________________________
conv2d_220 (Conv2D)             (None, 55, 55, 85)   5525        lambda_62[0][1]                  
__________________________________________________________________________________________________
conv2d_221 (Conv2D)             (None, 55, 55, 86)   5590        lambda_62[0][2]                  
__________________________________________________________________________________________________
concatenate_98 (Concatenate)    (None, 55, 55, 256)  0           conv2d_219[0][0]                 
                                                                 conv2d_220[0][0]                 
                                                                 conv2d_221[0][0]                 
__________________________________________________________________________________________________
add_36 (Add)                    (None, 55, 55, 256)  0           concatenate_98[0][0]             
                                                                 activation_17[0][0]              
__________________________________________________________________________________________________
activation_18 (Activation)      (None, 55, 55, 256)  0           add_36[0][0]                     
__________________________________________________________________________________________________
lambda_63 (Lambda)              [(None, 55, 55, 256) 0           activation_18[0][0]              
__________________________________________________________________________________________________
conv2d_222 (Conv2D)             (None, 55, 55, 21)   5397        lambda_63[0][0]                  
__________________________________________________________________________________________________
conv2d_223 (Conv2D)             (None, 55, 55, 21)   5397        lambda_63[0][1]                  
__________________________________________________________________________________________________
conv2d_224 (Conv2D)             (None, 55, 55, 22)   5654        lambda_63[0][2]                  
__________________________________________________________________________________________________
concatenate_99 (Concatenate)    (None, 55, 55, 64)   0           conv2d_222[0][0]                 
                                                                 conv2d_223[0][0]                 
                                                                 conv2d_224[0][0]                 
__________________________________________________________________________________________________
lambda_64 (Lambda)              [(None, 55, 55, 64), 0           concatenate_99[0][0]             
__________________________________________________________________________________________________
conv2d_225 (Conv2D)             (None, 55, 55, 21)   12117       lambda_64[0][0]                  
__________________________________________________________________________________________________
conv2d_226 (Conv2D)             (None, 55, 55, 21)   12117       lambda_64[0][1]                  
__________________________________________________________________________________________________
conv2d_227 (Conv2D)             (None, 55, 55, 22)   12694       lambda_64[0][2]                  
__________________________________________________________________________________________________
concatenate_100 (Concatenate)   (None, 55, 55, 64)   0           conv2d_225[0][0]                 
                                                                 conv2d_226[0][0]                 
                                                                 conv2d_227[0][0]                 
__________________________________________________________________________________________________
lambda_65 (Lambda)              [(None, 55, 55, 64), 0           concatenate_100[0][0]            
__________________________________________________________________________________________________
conv2d_228 (Conv2D)             (None, 55, 55, 85)   5525        lambda_65[0][0]                  
__________________________________________________________________________________________________
conv2d_229 (Conv2D)             (None, 55, 55, 85)   5525        lambda_65[0][1]                  
__________________________________________________________________________________________________
conv2d_230 (Conv2D)             (None, 55, 55, 86)   5590        lambda_65[0][2]                  
__________________________________________________________________________________________________
concatenate_101 (Concatenate)   (None, 55, 55, 256)  0           conv2d_228[0][0]                 
                                                                 conv2d_229[0][0]                 
                                                                 conv2d_230[0][0]                 
__________________________________________________________________________________________________
add_37 (Add)                    (None, 55, 55, 256)  0           concatenate_101[0][0]            
                                                                 activation_18[0][0]              
__________________________________________________________________________________________________
activation_19 (Activation)      (None, 55, 55, 256)  0           add_37[0][0]                     
__________________________________________________________________________________________________
lambda_66 (Lambda)              [(None, 55, 55, 256) 0           activation_19[0][0]              
__________________________________________________________________________________________________
conv2d_231 (Conv2D)             (None, 28, 28, 42)   10794       lambda_66[0][0]                  
__________________________________________________________________________________________________
conv2d_232 (Conv2D)             (None, 28, 28, 42)   10794       lambda_66[0][1]                  
__________________________________________________________________________________________________
conv2d_233 (Conv2D)             (None, 28, 28, 44)   11308       lambda_66[0][2]                  
__________________________________________________________________________________________________
concatenate_102 (Concatenate)   (None, 28, 28, 128)  0           conv2d_231[0][0]                 
                                                                 conv2d_232[0][0]                 
                                                                 conv2d_233[0][0]                 
__________________________________________________________________________________________________
lambda_67 (Lambda)              [(None, 28, 28, 128) 0           concatenate_102[0][0]            
__________________________________________________________________________________________________
conv2d_234 (Conv2D)             (None, 28, 28, 42)   48426       lambda_67[0][0]                  
__________________________________________________________________________________________________
conv2d_235 (Conv2D)             (None, 28, 28, 42)   48426       lambda_67[0][1]                  
__________________________________________________________________________________________________
conv2d_236 (Conv2D)             (None, 28, 28, 44)   50732       lambda_67[0][2]                  
__________________________________________________________________________________________________
concatenate_103 (Concatenate)   (None, 28, 28, 128)  0           conv2d_234[0][0]                 
                                                                 conv2d_235[0][0]                 
                                                                 conv2d_236[0][0]                 
__________________________________________________________________________________________________
lambda_68 (Lambda)              [(None, 28, 28, 128) 0           concatenate_103[0][0]            
__________________________________________________________________________________________________
lambda_69 (Lambda)              [(None, 55, 55, 256) 0           activation_19[0][0]              
__________________________________________________________________________________________________
conv2d_237 (Conv2D)             (None, 28, 28, 170)  21930       lambda_68[0][0]                  
__________________________________________________________________________________________________
conv2d_238 (Conv2D)             (None, 28, 28, 170)  21930       lambda_68[0][1]                  
__________________________________________________________________________________________________
conv2d_239 (Conv2D)             (None, 28, 28, 172)  22188       lambda_68[0][2]                  
__________________________________________________________________________________________________
conv2d_240 (Conv2D)             (None, 28, 28, 170)  43690       lambda_69[0][0]                  
__________________________________________________________________________________________________
conv2d_241 (Conv2D)             (None, 28, 28, 170)  43690       lambda_69[0][1]                  
__________________________________________________________________________________________________
conv2d_242 (Conv2D)             (None, 28, 28, 172)  44204       lambda_69[0][2]                  
__________________________________________________________________________________________________
concatenate_104 (Concatenate)   (None, 28, 28, 512)  0           conv2d_237[0][0]                 
                                                                 conv2d_238[0][0]                 
                                                                 conv2d_239[0][0]                 
__________________________________________________________________________________________________
concatenate_105 (Concatenate)   (None, 28, 28, 512)  0           conv2d_240[0][0]                 
                                                                 conv2d_241[0][0]                 
                                                                 conv2d_242[0][0]                 
__________________________________________________________________________________________________
add_38 (Add)                    (None, 28, 28, 512)  0           concatenate_104[0][0]            
                                                                 concatenate_105[0][0]            
__________________________________________________________________________________________________
activation_20 (Activation)      (None, 28, 28, 512)  0           add_38[0][0]                     
__________________________________________________________________________________________________
lambda_70 (Lambda)              [(None, 28, 28, 512) 0           activation_20[0][0]              
__________________________________________________________________________________________________
conv2d_243 (Conv2D)             (None, 28, 28, 42)   21546       lambda_70[0][0]                  
__________________________________________________________________________________________________
conv2d_244 (Conv2D)             (None, 28, 28, 42)   21546       lambda_70[0][1]                  
__________________________________________________________________________________________________
conv2d_245 (Conv2D)             (None, 28, 28, 44)   22572       lambda_70[0][2]                  
__________________________________________________________________________________________________
concatenate_106 (Concatenate)   (None, 28, 28, 128)  0           conv2d_243[0][0]                 
                                                                 conv2d_244[0][0]                 
                                                                 conv2d_245[0][0]                 
__________________________________________________________________________________________________
lambda_71 (Lambda)              [(None, 28, 28, 128) 0           concatenate_106[0][0]            
__________________________________________________________________________________________________
conv2d_246 (Conv2D)             (None, 28, 28, 42)   48426       lambda_71[0][0]                  
__________________________________________________________________________________________________
conv2d_247 (Conv2D)             (None, 28, 28, 42)   48426       lambda_71[0][1]                  
__________________________________________________________________________________________________
conv2d_248 (Conv2D)             (None, 28, 28, 44)   50732       lambda_71[0][2]                  
__________________________________________________________________________________________________
concatenate_107 (Concatenate)   (None, 28, 28, 128)  0           conv2d_246[0][0]                 
                                                                 conv2d_247[0][0]                 
                                                                 conv2d_248[0][0]                 
__________________________________________________________________________________________________
lambda_72 (Lambda)              [(None, 28, 28, 128) 0           concatenate_107[0][0]            
__________________________________________________________________________________________________
conv2d_249 (Conv2D)             (None, 28, 28, 170)  21930       lambda_72[0][0]                  
__________________________________________________________________________________________________
conv2d_250 (Conv2D)             (None, 28, 28, 170)  21930       lambda_72[0][1]                  
__________________________________________________________________________________________________
conv2d_251 (Conv2D)             (None, 28, 28, 172)  22188       lambda_72[0][2]                  
__________________________________________________________________________________________________
concatenate_108 (Concatenate)   (None, 28, 28, 512)  0           conv2d_249[0][0]                 
                                                                 conv2d_250[0][0]                 
                                                                 conv2d_251[0][0]                 
__________________________________________________________________________________________________
add_39 (Add)                    (None, 28, 28, 512)  0           concatenate_108[0][0]            
                                                                 activation_20[0][0]              
__________________________________________________________________________________________________
activation_21 (Activation)      (None, 28, 28, 512)  0           add_39[0][0]                     
__________________________________________________________________________________________________
lambda_73 (Lambda)              [(None, 28, 28, 512) 0           activation_21[0][0]              
__________________________________________________________________________________________________
conv2d_252 (Conv2D)             (None, 28, 28, 42)   21546       lambda_73[0][0]                  
__________________________________________________________________________________________________
conv2d_253 (Conv2D)             (None, 28, 28, 42)   21546       lambda_73[0][1]                  
__________________________________________________________________________________________________
conv2d_254 (Conv2D)             (None, 28, 28, 44)   22572       lambda_73[0][2]                  
__________________________________________________________________________________________________
concatenate_109 (Concatenate)   (None, 28, 28, 128)  0           conv2d_252[0][0]                 
                                                                 conv2d_253[0][0]                 
                                                                 conv2d_254[0][0]                 
__________________________________________________________________________________________________
lambda_74 (Lambda)              [(None, 28, 28, 128) 0           concatenate_109[0][0]            
__________________________________________________________________________________________________
conv2d_255 (Conv2D)             (None, 28, 28, 42)   48426       lambda_74[0][0]                  
__________________________________________________________________________________________________
conv2d_256 (Conv2D)             (None, 28, 28, 42)   48426       lambda_74[0][1]                  
__________________________________________________________________________________________________
conv2d_257 (Conv2D)             (None, 28, 28, 44)   50732       lambda_74[0][2]                  
__________________________________________________________________________________________________
concatenate_110 (Concatenate)   (None, 28, 28, 128)  0           conv2d_255[0][0]                 
                                                                 conv2d_256[0][0]                 
                                                                 conv2d_257[0][0]                 
__________________________________________________________________________________________________
lambda_75 (Lambda)              [(None, 28, 28, 128) 0           concatenate_110[0][0]            
__________________________________________________________________________________________________
conv2d_258 (Conv2D)             (None, 28, 28, 170)  21930       lambda_75[0][0]                  
__________________________________________________________________________________________________
conv2d_259 (Conv2D)             (None, 28, 28, 170)  21930       lambda_75[0][1]                  
__________________________________________________________________________________________________
conv2d_260 (Conv2D)             (None, 28, 28, 172)  22188       lambda_75[0][2]                  
__________________________________________________________________________________________________
concatenate_111 (Concatenate)   (None, 28, 28, 512)  0           conv2d_258[0][0]                 
                                                                 conv2d_259[0][0]                 
                                                                 conv2d_260[0][0]                 
__________________________________________________________________________________________________
add_40 (Add)                    (None, 28, 28, 512)  0           concatenate_111[0][0]            
                                                                 activation_21[0][0]              
__________________________________________________________________________________________________
activation_22 (Activation)      (None, 28, 28, 512)  0           add_40[0][0]                     
__________________________________________________________________________________________________
lambda_76 (Lambda)              [(None, 28, 28, 512) 0           activation_22[0][0]              
__________________________________________________________________________________________________
conv2d_261 (Conv2D)             (None, 28, 28, 42)   21546       lambda_76[0][0]                  
__________________________________________________________________________________________________
conv2d_262 (Conv2D)             (None, 28, 28, 42)   21546       lambda_76[0][1]                  
__________________________________________________________________________________________________
conv2d_263 (Conv2D)             (None, 28, 28, 44)   22572       lambda_76[0][2]                  
__________________________________________________________________________________________________
concatenate_112 (Concatenate)   (None, 28, 28, 128)  0           conv2d_261[0][0]                 
                                                                 conv2d_262[0][0]                 
                                                                 conv2d_263[0][0]                 
__________________________________________________________________________________________________
lambda_77 (Lambda)              [(None, 28, 28, 128) 0           concatenate_112[0][0]            
__________________________________________________________________________________________________
conv2d_264 (Conv2D)             (None, 28, 28, 42)   48426       lambda_77[0][0]                  
__________________________________________________________________________________________________
conv2d_265 (Conv2D)             (None, 28, 28, 42)   48426       lambda_77[0][1]                  
__________________________________________________________________________________________________
conv2d_266 (Conv2D)             (None, 28, 28, 44)   50732       lambda_77[0][2]                  
__________________________________________________________________________________________________
concatenate_113 (Concatenate)   (None, 28, 28, 128)  0           conv2d_264[0][0]                 
                                                                 conv2d_265[0][0]                 
                                                                 conv2d_266[0][0]                 
__________________________________________________________________________________________________
lambda_78 (Lambda)              [(None, 28, 28, 128) 0           concatenate_113[0][0]            
__________________________________________________________________________________________________
conv2d_267 (Conv2D)             (None, 28, 28, 170)  21930       lambda_78[0][0]                  
__________________________________________________________________________________________________
conv2d_268 (Conv2D)             (None, 28, 28, 170)  21930       lambda_78[0][1]                  
__________________________________________________________________________________________________
conv2d_269 (Conv2D)             (None, 28, 28, 172)  22188       lambda_78[0][2]                  
__________________________________________________________________________________________________
concatenate_114 (Concatenate)   (None, 28, 28, 512)  0           conv2d_267[0][0]                 
                                                                 conv2d_268[0][0]                 
                                                                 conv2d_269[0][0]                 
__________________________________________________________________________________________________
add_41 (Add)                    (None, 28, 28, 512)  0           concatenate_114[0][0]            
                                                                 activation_22[0][0]              
__________________________________________________________________________________________________
activation_23 (Activation)      (None, 28, 28, 512)  0           add_41[0][0]                     
__________________________________________________________________________________________________
lambda_79 (Lambda)              [(None, 28, 28, 512) 0           activation_23[0][0]              
__________________________________________________________________________________________________
conv2d_270 (Conv2D)             (None, 14, 14, 85)   43605       lambda_79[0][0]                  
__________________________________________________________________________________________________
conv2d_271 (Conv2D)             (None, 14, 14, 85)   43605       lambda_79[0][1]                  
__________________________________________________________________________________________________
conv2d_272 (Conv2D)             (None, 14, 14, 86)   44118       lambda_79[0][2]                  
__________________________________________________________________________________________________
concatenate_115 (Concatenate)   (None, 14, 14, 256)  0           conv2d_270[0][0]                 
                                                                 conv2d_271[0][0]                 
                                                                 conv2d_272[0][0]                 
__________________________________________________________________________________________________
lambda_80 (Lambda)              [(None, 14, 14, 256) 0           concatenate_115[0][0]            
__________________________________________________________________________________________________
conv2d_273 (Conv2D)             (None, 14, 14, 85)   195925      lambda_80[0][0]                  
__________________________________________________________________________________________________
conv2d_274 (Conv2D)             (None, 14, 14, 85)   195925      lambda_80[0][1]                  
__________________________________________________________________________________________________
conv2d_275 (Conv2D)             (None, 14, 14, 86)   198230      lambda_80[0][2]                  
__________________________________________________________________________________________________
concatenate_116 (Concatenate)   (None, 14, 14, 256)  0           conv2d_273[0][0]                 
                                                                 conv2d_274[0][0]                 
                                                                 conv2d_275[0][0]                 
__________________________________________________________________________________________________
lambda_81 (Lambda)              [(None, 14, 14, 256) 0           concatenate_116[0][0]            
__________________________________________________________________________________________________
lambda_82 (Lambda)              [(None, 28, 28, 512) 0           activation_23[0][0]              
__________________________________________________________________________________________________
conv2d_276 (Conv2D)             (None, 14, 14, 341)  87637       lambda_81[0][0]                  
__________________________________________________________________________________________________
conv2d_277 (Conv2D)             (None, 14, 14, 341)  87637       lambda_81[0][1]                  
__________________________________________________________________________________________________
conv2d_278 (Conv2D)             (None, 14, 14, 342)  87894       lambda_81[0][2]                  
__________________________________________________________________________________________________
conv2d_279 (Conv2D)             (None, 14, 14, 341)  174933      lambda_82[0][0]                  
__________________________________________________________________________________________________
conv2d_280 (Conv2D)             (None, 14, 14, 341)  174933      lambda_82[0][1]                  
__________________________________________________________________________________________________
conv2d_281 (Conv2D)             (None, 14, 14, 342)  175446      lambda_82[0][2]                  
__________________________________________________________________________________________________
concatenate_117 (Concatenate)   (None, 14, 14, 1024) 0           conv2d_276[0][0]                 
                                                                 conv2d_277[0][0]                 
                                                                 conv2d_278[0][0]                 
__________________________________________________________________________________________________
concatenate_118 (Concatenate)   (None, 14, 14, 1024) 0           conv2d_279[0][0]                 
                                                                 conv2d_280[0][0]                 
                                                                 conv2d_281[0][0]                 
__________________________________________________________________________________________________
add_42 (Add)                    (None, 14, 14, 1024) 0           concatenate_117[0][0]            
                                                                 concatenate_118[0][0]            
__________________________________________________________________________________________________
activation_24 (Activation)      (None, 14, 14, 1024) 0           add_42[0][0]                     
__________________________________________________________________________________________________
lambda_83 (Lambda)              [(None, 14, 14, 1024 0           activation_24[0][0]              
__________________________________________________________________________________________________
conv2d_282 (Conv2D)             (None, 14, 14, 85)   87125       lambda_83[0][0]                  
__________________________________________________________________________________________________
conv2d_283 (Conv2D)             (None, 14, 14, 85)   87125       lambda_83[0][1]                  
__________________________________________________________________________________________________
conv2d_284 (Conv2D)             (None, 14, 14, 86)   88150       lambda_83[0][2]                  
__________________________________________________________________________________________________
concatenate_119 (Concatenate)   (None, 14, 14, 256)  0           conv2d_282[0][0]                 
                                                                 conv2d_283[0][0]                 
                                                                 conv2d_284[0][0]                 
__________________________________________________________________________________________________
lambda_84 (Lambda)              [(None, 14, 14, 256) 0           concatenate_119[0][0]            
__________________________________________________________________________________________________
conv2d_285 (Conv2D)             (None, 14, 14, 85)   195925      lambda_84[0][0]                  
__________________________________________________________________________________________________
conv2d_286 (Conv2D)             (None, 14, 14, 85)   195925      lambda_84[0][1]                  
__________________________________________________________________________________________________
conv2d_287 (Conv2D)             (None, 14, 14, 86)   198230      lambda_84[0][2]                  
__________________________________________________________________________________________________
concatenate_120 (Concatenate)   (None, 14, 14, 256)  0           conv2d_285[0][0]                 
                                                                 conv2d_286[0][0]                 
                                                                 conv2d_287[0][0]                 
__________________________________________________________________________________________________
lambda_85 (Lambda)              [(None, 14, 14, 256) 0           concatenate_120[0][0]            
__________________________________________________________________________________________________
conv2d_288 (Conv2D)             (None, 14, 14, 341)  87637       lambda_85[0][0]                  
__________________________________________________________________________________________________
conv2d_289 (Conv2D)             (None, 14, 14, 341)  87637       lambda_85[0][1]                  
__________________________________________________________________________________________________
conv2d_290 (Conv2D)             (None, 14, 14, 342)  87894       lambda_85[0][2]                  
__________________________________________________________________________________________________
concatenate_121 (Concatenate)   (None, 14, 14, 1024) 0           conv2d_288[0][0]                 
                                                                 conv2d_289[0][0]                 
                                                                 conv2d_290[0][0]                 
__________________________________________________________________________________________________
add_43 (Add)                    (None, 14, 14, 1024) 0           concatenate_121[0][0]            
                                                                 activation_24[0][0]              
__________________________________________________________________________________________________
activation_25 (Activation)      (None, 14, 14, 1024) 0           add_43[0][0]                     
__________________________________________________________________________________________________
lambda_86 (Lambda)              [(None, 14, 14, 1024 0           activation_25[0][0]              
__________________________________________________________________________________________________
conv2d_291 (Conv2D)             (None, 14, 14, 85)   87125       lambda_86[0][0]                  
__________________________________________________________________________________________________
conv2d_292 (Conv2D)             (None, 14, 14, 85)   87125       lambda_86[0][1]                  
__________________________________________________________________________________________________
conv2d_293 (Conv2D)             (None, 14, 14, 86)   88150       lambda_86[0][2]                  
__________________________________________________________________________________________________
concatenate_122 (Concatenate)   (None, 14, 14, 256)  0           conv2d_291[0][0]                 
                                                                 conv2d_292[0][0]                 
                                                                 conv2d_293[0][0]                 
__________________________________________________________________________________________________
lambda_87 (Lambda)              [(None, 14, 14, 256) 0           concatenate_122[0][0]            
__________________________________________________________________________________________________
conv2d_294 (Conv2D)             (None, 14, 14, 85)   195925      lambda_87[0][0]                  
__________________________________________________________________________________________________
conv2d_295 (Conv2D)             (None, 14, 14, 85)   195925      lambda_87[0][1]                  
__________________________________________________________________________________________________
conv2d_296 (Conv2D)             (None, 14, 14, 86)   198230      lambda_87[0][2]                  
__________________________________________________________________________________________________
concatenate_123 (Concatenate)   (None, 14, 14, 256)  0           conv2d_294[0][0]                 
                                                                 conv2d_295[0][0]                 
                                                                 conv2d_296[0][0]                 
__________________________________________________________________________________________________
lambda_88 (Lambda)              [(None, 14, 14, 256) 0           concatenate_123[0][0]            
__________________________________________________________________________________________________
conv2d_297 (Conv2D)             (None, 14, 14, 341)  87637       lambda_88[0][0]                  
__________________________________________________________________________________________________
conv2d_298 (Conv2D)             (None, 14, 14, 341)  87637       lambda_88[0][1]                  
__________________________________________________________________________________________________
conv2d_299 (Conv2D)             (None, 14, 14, 342)  87894       lambda_88[0][2]                  
__________________________________________________________________________________________________
concatenate_124 (Concatenate)   (None, 14, 14, 1024) 0           conv2d_297[0][0]                 
                                                                 conv2d_298[0][0]                 
                                                                 conv2d_299[0][0]                 
__________________________________________________________________________________________________
add_44 (Add)                    (None, 14, 14, 1024) 0           concatenate_124[0][0]            
                                                                 activation_25[0][0]              
__________________________________________________________________________________________________
activation_26 (Activation)      (None, 14, 14, 1024) 0           add_44[0][0]                     
__________________________________________________________________________________________________
lambda_89 (Lambda)              [(None, 14, 14, 1024 0           activation_26[0][0]              
__________________________________________________________________________________________________
conv2d_300 (Conv2D)             (None, 14, 14, 85)   87125       lambda_89[0][0]                  
__________________________________________________________________________________________________
conv2d_301 (Conv2D)             (None, 14, 14, 85)   87125       lambda_89[0][1]                  
__________________________________________________________________________________________________
conv2d_302 (Conv2D)             (None, 14, 14, 86)   88150       lambda_89[0][2]                  
__________________________________________________________________________________________________
concatenate_125 (Concatenate)   (None, 14, 14, 256)  0           conv2d_300[0][0]                 
                                                                 conv2d_301[0][0]                 
                                                                 conv2d_302[0][0]                 
__________________________________________________________________________________________________
lambda_90 (Lambda)              [(None, 14, 14, 256) 0           concatenate_125[0][0]            
__________________________________________________________________________________________________
conv2d_303 (Conv2D)             (None, 14, 14, 85)   195925      lambda_90[0][0]                  
__________________________________________________________________________________________________
conv2d_304 (Conv2D)             (None, 14, 14, 85)   195925      lambda_90[0][1]                  
__________________________________________________________________________________________________
conv2d_305 (Conv2D)             (None, 14, 14, 86)   198230      lambda_90[0][2]                  
__________________________________________________________________________________________________
concatenate_126 (Concatenate)   (None, 14, 14, 256)  0           conv2d_303[0][0]                 
                                                                 conv2d_304[0][0]                 
                                                                 conv2d_305[0][0]                 
__________________________________________________________________________________________________
lambda_91 (Lambda)              [(None, 14, 14, 256) 0           concatenate_126[0][0]            
__________________________________________________________________________________________________
conv2d_306 (Conv2D)             (None, 14, 14, 341)  87637       lambda_91[0][0]                  
__________________________________________________________________________________________________
conv2d_307 (Conv2D)             (None, 14, 14, 341)  87637       lambda_91[0][1]                  
__________________________________________________________________________________________________
conv2d_308 (Conv2D)             (None, 14, 14, 342)  87894       lambda_91[0][2]                  
__________________________________________________________________________________________________
concatenate_127 (Concatenate)   (None, 14, 14, 1024) 0           conv2d_306[0][0]                 
                                                                 conv2d_307[0][0]                 
                                                                 conv2d_308[0][0]                 
__________________________________________________________________________________________________
add_45 (Add)                    (None, 14, 14, 1024) 0           concatenate_127[0][0]            
                                                                 activation_26[0][0]              
__________________________________________________________________________________________________
activation_27 (Activation)      (None, 14, 14, 1024) 0           add_45[0][0]                     
__________________________________________________________________________________________________
lambda_92 (Lambda)              [(None, 14, 14, 1024 0           activation_27[0][0]              
__________________________________________________________________________________________________
conv2d_309 (Conv2D)             (None, 14, 14, 85)   87125       lambda_92[0][0]                  
__________________________________________________________________________________________________
conv2d_310 (Conv2D)             (None, 14, 14, 85)   87125       lambda_92[0][1]                  
__________________________________________________________________________________________________
conv2d_311 (Conv2D)             (None, 14, 14, 86)   88150       lambda_92[0][2]                  
__________________________________________________________________________________________________
concatenate_128 (Concatenate)   (None, 14, 14, 256)  0           conv2d_309[0][0]                 
                                                                 conv2d_310[0][0]                 
                                                                 conv2d_311[0][0]                 
__________________________________________________________________________________________________
lambda_93 (Lambda)              [(None, 14, 14, 256) 0           concatenate_128[0][0]            
__________________________________________________________________________________________________
conv2d_312 (Conv2D)             (None, 14, 14, 85)   195925      lambda_93[0][0]                  
__________________________________________________________________________________________________
conv2d_313 (Conv2D)             (None, 14, 14, 85)   195925      lambda_93[0][1]                  
__________________________________________________________________________________________________
conv2d_314 (Conv2D)             (None, 14, 14, 86)   198230      lambda_93[0][2]                  
__________________________________________________________________________________________________
concatenate_129 (Concatenate)   (None, 14, 14, 256)  0           conv2d_312[0][0]                 
                                                                 conv2d_313[0][0]                 
                                                                 conv2d_314[0][0]                 
__________________________________________________________________________________________________
lambda_94 (Lambda)              [(None, 14, 14, 256) 0           concatenate_129[0][0]            
__________________________________________________________________________________________________
conv2d_315 (Conv2D)             (None, 14, 14, 341)  87637       lambda_94[0][0]                  
__________________________________________________________________________________________________
conv2d_316 (Conv2D)             (None, 14, 14, 341)  87637       lambda_94[0][1]                  
__________________________________________________________________________________________________
conv2d_317 (Conv2D)             (None, 14, 14, 342)  87894       lambda_94[0][2]                  
__________________________________________________________________________________________________
concatenate_130 (Concatenate)   (None, 14, 14, 1024) 0           conv2d_315[0][0]                 
                                                                 conv2d_316[0][0]                 
                                                                 conv2d_317[0][0]                 
__________________________________________________________________________________________________
add_46 (Add)                    (None, 14, 14, 1024) 0           concatenate_130[0][0]            
                                                                 activation_27[0][0]              
__________________________________________________________________________________________________
activation_28 (Activation)      (None, 14, 14, 1024) 0           add_46[0][0]                     
__________________________________________________________________________________________________
lambda_95 (Lambda)              [(None, 14, 14, 1024 0           activation_28[0][0]              
__________________________________________________________________________________________________
conv2d_318 (Conv2D)             (None, 14, 14, 85)   87125       lambda_95[0][0]                  
__________________________________________________________________________________________________
conv2d_319 (Conv2D)             (None, 14, 14, 85)   87125       lambda_95[0][1]                  
__________________________________________________________________________________________________
conv2d_320 (Conv2D)             (None, 14, 14, 86)   88150       lambda_95[0][2]                  
__________________________________________________________________________________________________
concatenate_131 (Concatenate)   (None, 14, 14, 256)  0           conv2d_318[0][0]                 
                                                                 conv2d_319[0][0]                 
                                                                 conv2d_320[0][0]                 
__________________________________________________________________________________________________
lambda_96 (Lambda)              [(None, 14, 14, 256) 0           concatenate_131[0][0]            
__________________________________________________________________________________________________
conv2d_321 (Conv2D)             (None, 14, 14, 85)   195925      lambda_96[0][0]                  
__________________________________________________________________________________________________
conv2d_322 (Conv2D)             (None, 14, 14, 85)   195925      lambda_96[0][1]                  
__________________________________________________________________________________________________
conv2d_323 (Conv2D)             (None, 14, 14, 86)   198230      lambda_96[0][2]                  
__________________________________________________________________________________________________
concatenate_132 (Concatenate)   (None, 14, 14, 256)  0           conv2d_321[0][0]                 
                                                                 conv2d_322[0][0]                 
                                                                 conv2d_323[0][0]                 
__________________________________________________________________________________________________
lambda_97 (Lambda)              [(None, 14, 14, 256) 0           concatenate_132[0][0]            
__________________________________________________________________________________________________
conv2d_324 (Conv2D)             (None, 14, 14, 341)  87637       lambda_97[0][0]                  
__________________________________________________________________________________________________
conv2d_325 (Conv2D)             (None, 14, 14, 341)  87637       lambda_97[0][1]                  
__________________________________________________________________________________________________
conv2d_326 (Conv2D)             (None, 14, 14, 342)  87894       lambda_97[0][2]                  
__________________________________________________________________________________________________
concatenate_133 (Concatenate)   (None, 14, 14, 1024) 0           conv2d_324[0][0]                 
                                                                 conv2d_325[0][0]                 
                                                                 conv2d_326[0][0]                 
__________________________________________________________________________________________________
add_47 (Add)                    (None, 14, 14, 1024) 0           concatenate_133[0][0]            
                                                                 activation_28[0][0]              
__________________________________________________________________________________________________
activation_29 (Activation)      (None, 14, 14, 1024) 0           add_47[0][0]                     
__________________________________________________________________________________________________
lambda_98 (Lambda)              [(None, 14, 14, 1024 0           activation_29[0][0]              
__________________________________________________________________________________________________
conv2d_327 (Conv2D)             (None, 7, 7, 170)    174250      lambda_98[0][0]                  
__________________________________________________________________________________________________
conv2d_328 (Conv2D)             (None, 7, 7, 170)    174250      lambda_98[0][1]                  
__________________________________________________________________________________________________
conv2d_329 (Conv2D)             (None, 7, 7, 172)    176300      lambda_98[0][2]                  
__________________________________________________________________________________________________
concatenate_134 (Concatenate)   (None, 7, 7, 512)    0           conv2d_327[0][0]                 
                                                                 conv2d_328[0][0]                 
                                                                 conv2d_329[0][0]                 
__________________________________________________________________________________________________
lambda_99 (Lambda)              [(None, 7, 7, 512),  0           concatenate_134[0][0]            
__________________________________________________________________________________________________
conv2d_330 (Conv2D)             (None, 7, 7, 170)    783530      lambda_99[0][0]                  
__________________________________________________________________________________________________
conv2d_331 (Conv2D)             (None, 7, 7, 170)    783530      lambda_99[0][1]                  
__________________________________________________________________________________________________
conv2d_332 (Conv2D)             (None, 7, 7, 172)    792748      lambda_99[0][2]                  
__________________________________________________________________________________________________
concatenate_135 (Concatenate)   (None, 7, 7, 512)    0           conv2d_330[0][0]                 
                                                                 conv2d_331[0][0]                 
                                                                 conv2d_332[0][0]                 
__________________________________________________________________________________________________
lambda_100 (Lambda)             [(None, 7, 7, 512),  0           concatenate_135[0][0]            
__________________________________________________________________________________________________
lambda_101 (Lambda)             [(None, 14, 14, 1024 0           activation_29[0][0]              
__________________________________________________________________________________________________
conv2d_333 (Conv2D)             (None, 7, 7, 682)    349866      lambda_100[0][0]                 
__________________________________________________________________________________________________
conv2d_334 (Conv2D)             (None, 7, 7, 682)    349866      lambda_100[0][1]                 
__________________________________________________________________________________________________
conv2d_335 (Conv2D)             (None, 7, 7, 684)    350892      lambda_100[0][2]                 
__________________________________________________________________________________________________
conv2d_336 (Conv2D)             (None, 7, 7, 682)    699050      lambda_101[0][0]                 
__________________________________________________________________________________________________
conv2d_337 (Conv2D)             (None, 7, 7, 682)    699050      lambda_101[0][1]                 
__________________________________________________________________________________________________
conv2d_338 (Conv2D)             (None, 7, 7, 684)    701100      lambda_101[0][2]                 
__________________________________________________________________________________________________
concatenate_136 (Concatenate)   (None, 7, 7, 2048)   0           conv2d_333[0][0]                 
                                                                 conv2d_334[0][0]                 
                                                                 conv2d_335[0][0]                 
__________________________________________________________________________________________________
concatenate_137 (Concatenate)   (None, 7, 7, 2048)   0           conv2d_336[0][0]                 
                                                                 conv2d_337[0][0]                 
                                                                 conv2d_338[0][0]                 
__________________________________________________________________________________________________
add_48 (Add)                    (None, 7, 7, 2048)   0           concatenate_136[0][0]            
                                                                 concatenate_137[0][0]            
__________________________________________________________________________________________________
activation_30 (Activation)      (None, 7, 7, 2048)   0           add_48[0][0]                     
__________________________________________________________________________________________________
lambda_102 (Lambda)             [(None, 7, 7, 2048), 0           activation_30[0][0]              
__________________________________________________________________________________________________
conv2d_339 (Conv2D)             (None, 7, 7, 170)    348330      lambda_102[0][0]                 
__________________________________________________________________________________________________
conv2d_340 (Conv2D)             (None, 7, 7, 170)    348330      lambda_102[0][1]                 
__________________________________________________________________________________________________
conv2d_341 (Conv2D)             (None, 7, 7, 172)    352428      lambda_102[0][2]                 
__________________________________________________________________________________________________
concatenate_138 (Concatenate)   (None, 7, 7, 512)    0           conv2d_339[0][0]                 
                                                                 conv2d_340[0][0]                 
                                                                 conv2d_341[0][0]                 
__________________________________________________________________________________________________
lambda_103 (Lambda)             [(None, 7, 7, 512),  0           concatenate_138[0][0]            
__________________________________________________________________________________________________
conv2d_342 (Conv2D)             (None, 7, 7, 170)    783530      lambda_103[0][0]                 
__________________________________________________________________________________________________
conv2d_343 (Conv2D)             (None, 7, 7, 170)    783530      lambda_103[0][1]                 
__________________________________________________________________________________________________
conv2d_344 (Conv2D)             (None, 7, 7, 172)    792748      lambda_103[0][2]                 
__________________________________________________________________________________________________
concatenate_139 (Concatenate)   (None, 7, 7, 512)    0           conv2d_342[0][0]                 
                                                                 conv2d_343[0][0]                 
                                                                 conv2d_344[0][0]                 
__________________________________________________________________________________________________
lambda_104 (Lambda)             [(None, 7, 7, 512),  0           concatenate_139[0][0]            
__________________________________________________________________________________________________
conv2d_345 (Conv2D)             (None, 7, 7, 682)    349866      lambda_104[0][0]                 
__________________________________________________________________________________________________
conv2d_346 (Conv2D)             (None, 7, 7, 682)    349866      lambda_104[0][1]                 
__________________________________________________________________________________________________
conv2d_347 (Conv2D)             (None, 7, 7, 684)    350892      lambda_104[0][2]                 
__________________________________________________________________________________________________
concatenate_140 (Concatenate)   (None, 7, 7, 2048)   0           conv2d_345[0][0]                 
                                                                 conv2d_346[0][0]                 
                                                                 conv2d_347[0][0]                 
__________________________________________________________________________________________________
add_49 (Add)                    (None, 7, 7, 2048)   0           concatenate_140[0][0]            
                                                                 activation_30[0][0]              
__________________________________________________________________________________________________
activation_31 (Activation)      (None, 7, 7, 2048)   0           add_49[0][0]                     
__________________________________________________________________________________________________
lambda_105 (Lambda)             [(None, 7, 7, 2048), 0           activation_31[0][0]              
__________________________________________________________________________________________________
conv2d_348 (Conv2D)             (None, 7, 7, 170)    348330      lambda_105[0][0]                 
__________________________________________________________________________________________________
conv2d_349 (Conv2D)             (None, 7, 7, 170)    348330      lambda_105[0][1]                 
__________________________________________________________________________________________________
conv2d_350 (Conv2D)             (None, 7, 7, 172)    352428      lambda_105[0][2]                 
__________________________________________________________________________________________________
concatenate_141 (Concatenate)   (None, 7, 7, 512)    0           conv2d_348[0][0]                 
                                                                 conv2d_349[0][0]                 
                                                                 conv2d_350[0][0]                 
__________________________________________________________________________________________________
lambda_106 (Lambda)             [(None, 7, 7, 512),  0           concatenate_141[0][0]            
__________________________________________________________________________________________________
conv2d_351 (Conv2D)             (None, 7, 7, 170)    783530      lambda_106[0][0]                 
__________________________________________________________________________________________________
conv2d_352 (Conv2D)             (None, 7, 7, 170)    783530      lambda_106[0][1]                 
__________________________________________________________________________________________________
conv2d_353 (Conv2D)             (None, 7, 7, 172)    792748      lambda_106[0][2]                 
__________________________________________________________________________________________________
concatenate_142 (Concatenate)   (None, 7, 7, 512)    0           conv2d_351[0][0]                 
                                                                 conv2d_352[0][0]                 
                                                                 conv2d_353[0][0]                 
__________________________________________________________________________________________________
lambda_107 (Lambda)             [(None, 7, 7, 512),  0           concatenate_142[0][0]            
__________________________________________________________________________________________________
conv2d_354 (Conv2D)             (None, 7, 7, 682)    349866      lambda_107[0][0]                 
__________________________________________________________________________________________________
conv2d_355 (Conv2D)             (None, 7, 7, 682)    349866      lambda_107[0][1]                 
__________________________________________________________________________________________________
conv2d_356 (Conv2D)             (None, 7, 7, 684)    350892      lambda_107[0][2]                 
__________________________________________________________________________________________________
concatenate_143 (Concatenate)   (None, 7, 7, 2048)   0           conv2d_354[0][0]                 
                                                                 conv2d_355[0][0]                 
                                                                 conv2d_356[0][0]                 
__________________________________________________________________________________________________
add_50 (Add)                    (None, 7, 7, 2048)   0           concatenate_143[0][0]            
                                                                 activation_31[0][0]              
__________________________________________________________________________________________________
activation_32 (Activation)      (None, 7, 7, 2048)   0           add_50[0][0]                     
__________________________________________________________________________________________________
average_pooling2d_2 (AveragePoo (None, 1, 1, 2048)   0           activation_32[0][0]              
__________________________________________________________________________________________________
flatten_6 (Flatten)             (None, 2048)         0           average_pooling2d_2[0][0]        
__________________________________________________________________________________________________
dense_26 (Dense)                (None, 1000)         2049000     flatten_6[0][0]                  
==================================================================================================
Total params: 25,530,472
Trainable params: 25,530,472
Non-trainable params: 0
__________________________________________________________________________________________________
None
