__________________________________________________________________________________________________
Layer (type)                    Output Shape         Param #     Connected to                     
==================================================================================================
input_11 (InputLayer)           (None, 224, 224, 3)  0                                            
__________________________________________________________________________________________________
zero_padding2d_21 (ZeroPadding2 (None, 230, 230, 3)  0           input_11[0][0]                   
__________________________________________________________________________________________________
lambda_108 (Lambda)             [(None, 230, 230, 3) 0           zero_padding2d_21[0][0]          
__________________________________________________________________________________________________
conv2d_357 (Conv2D)             (None, 112, 112, 21) 3108        lambda_108[0][0]                 
__________________________________________________________________________________________________
conv2d_358 (Conv2D)             (None, 112, 112, 21) 3108        lambda_108[0][1]                 
__________________________________________________________________________________________________
conv2d_359 (Conv2D)             (None, 112, 112, 22) 3256        lambda_108[0][2]                 
__________________________________________________________________________________________________
concatenate_91 (Concatenate)    (None, 112, 112, 64) 0           conv2d_357[0][0]                 
                                                                 conv2d_358[0][0]                 
                                                                 conv2d_359[0][0]                 
__________________________________________________________________________________________________
max_pooling2d_31 (MaxPooling2D) (None, 55, 55, 64)   0           concatenate_91[0][0]             
__________________________________________________________________________________________________
lambda_109 (Lambda)             [(None, 55, 55, 64), 0           max_pooling2d_31[0][0]           
__________________________________________________________________________________________________
conv2d_360 (Conv2D)             (None, 55, 55, 21)   1365        lambda_109[0][0]                 
__________________________________________________________________________________________________
conv2d_361 (Conv2D)             (None, 55, 55, 21)   1365        lambda_109[0][1]                 
__________________________________________________________________________________________________
conv2d_362 (Conv2D)             (None, 55, 55, 22)   1430        lambda_109[0][2]                 
__________________________________________________________________________________________________
concatenate_92 (Concatenate)    (None, 55, 55, 64)   0           conv2d_360[0][0]                 
                                                                 conv2d_361[0][0]                 
                                                                 conv2d_362[0][0]                 
__________________________________________________________________________________________________
lambda_110 (Lambda)             [(None, 55, 55, 64), 0           concatenate_92[0][0]             
__________________________________________________________________________________________________
conv2d_363 (Conv2D)             (None, 55, 55, 21)   12117       lambda_110[0][0]                 
__________________________________________________________________________________________________
conv2d_364 (Conv2D)             (None, 55, 55, 21)   12117       lambda_110[0][1]                 
__________________________________________________________________________________________________
conv2d_365 (Conv2D)             (None, 55, 55, 22)   12694       lambda_110[0][2]                 
__________________________________________________________________________________________________
concatenate_93 (Concatenate)    (None, 55, 55, 64)   0           conv2d_363[0][0]                 
                                                                 conv2d_364[0][0]                 
                                                                 conv2d_365[0][0]                 
__________________________________________________________________________________________________
lambda_111 (Lambda)             [(None, 55, 55, 64), 0           concatenate_93[0][0]             
__________________________________________________________________________________________________
lambda_112 (Lambda)             [(None, 55, 55, 64), 0           max_pooling2d_31[0][0]           
__________________________________________________________________________________________________
conv2d_366 (Conv2D)             (None, 55, 55, 85)   5525        lambda_111[0][0]                 
__________________________________________________________________________________________________
conv2d_367 (Conv2D)             (None, 55, 55, 85)   5525        lambda_111[0][1]                 
__________________________________________________________________________________________________
conv2d_368 (Conv2D)             (None, 55, 55, 86)   5590        lambda_111[0][2]                 
__________________________________________________________________________________________________
conv2d_369 (Conv2D)             (None, 55, 55, 85)   5525        lambda_112[0][0]                 
__________________________________________________________________________________________________
conv2d_370 (Conv2D)             (None, 55, 55, 85)   5525        lambda_112[0][1]                 
__________________________________________________________________________________________________
conv2d_371 (Conv2D)             (None, 55, 55, 86)   5590        lambda_112[0][2]                 
__________________________________________________________________________________________________
concatenate_94 (Concatenate)    (None, 55, 55, 256)  0           conv2d_366[0][0]                 
                                                                 conv2d_367[0][0]                 
                                                                 conv2d_368[0][0]                 
__________________________________________________________________________________________________
concatenate_95 (Concatenate)    (None, 55, 55, 256)  0           conv2d_369[0][0]                 
                                                                 conv2d_370[0][0]                 
                                                                 conv2d_371[0][0]                 
__________________________________________________________________________________________________
add_104 (Add)                   (None, 55, 55, 256)  0           concatenate_94[0][0]             
                                                                 concatenate_95[0][0]             
__________________________________________________________________________________________________
activation_33 (Activation)      (None, 55, 55, 256)  0           add_104[0][0]                    
__________________________________________________________________________________________________
lambda_113 (Lambda)             [(None, 55, 55, 256) 0           activation_33[0][0]              
__________________________________________________________________________________________________
conv2d_372 (Conv2D)             (None, 55, 55, 21)   5397        lambda_113[0][0]                 
__________________________________________________________________________________________________
conv2d_373 (Conv2D)             (None, 55, 55, 21)   5397        lambda_113[0][1]                 
__________________________________________________________________________________________________
conv2d_374 (Conv2D)             (None, 55, 55, 22)   5654        lambda_113[0][2]                 
__________________________________________________________________________________________________
concatenate_96 (Concatenate)    (None, 55, 55, 64)   0           conv2d_372[0][0]                 
                                                                 conv2d_373[0][0]                 
                                                                 conv2d_374[0][0]                 
__________________________________________________________________________________________________
lambda_114 (Lambda)             [(None, 55, 55, 64), 0           concatenate_96[0][0]             
__________________________________________________________________________________________________
conv2d_375 (Conv2D)             (None, 55, 55, 21)   12117       lambda_114[0][0]                 
__________________________________________________________________________________________________
conv2d_376 (Conv2D)             (None, 55, 55, 21)   12117       lambda_114[0][1]                 
__________________________________________________________________________________________________
conv2d_377 (Conv2D)             (None, 55, 55, 22)   12694       lambda_114[0][2]                 
__________________________________________________________________________________________________
concatenate_97 (Concatenate)    (None, 55, 55, 64)   0           conv2d_375[0][0]                 
                                                                 conv2d_376[0][0]                 
                                                                 conv2d_377[0][0]                 
__________________________________________________________________________________________________
lambda_115 (Lambda)             [(None, 55, 55, 64), 0           concatenate_97[0][0]             
__________________________________________________________________________________________________
conv2d_378 (Conv2D)             (None, 55, 55, 85)   5525        lambda_115[0][0]                 
__________________________________________________________________________________________________
conv2d_379 (Conv2D)             (None, 55, 55, 85)   5525        lambda_115[0][1]                 
__________________________________________________________________________________________________
conv2d_380 (Conv2D)             (None, 55, 55, 86)   5590        lambda_115[0][2]                 
__________________________________________________________________________________________________
concatenate_98 (Concatenate)    (None, 55, 55, 256)  0           conv2d_378[0][0]                 
                                                                 conv2d_379[0][0]                 
                                                                 conv2d_380[0][0]                 
__________________________________________________________________________________________________
add_105 (Add)                   (None, 55, 55, 256)  0           concatenate_98[0][0]             
                                                                 activation_33[0][0]              
__________________________________________________________________________________________________
activation_34 (Activation)      (None, 55, 55, 256)  0           add_105[0][0]                    
__________________________________________________________________________________________________
lambda_116 (Lambda)             [(None, 55, 55, 256) 0           activation_34[0][0]              
__________________________________________________________________________________________________
conv2d_381 (Conv2D)             (None, 55, 55, 21)   5397        lambda_116[0][0]                 
__________________________________________________________________________________________________
conv2d_382 (Conv2D)             (None, 55, 55, 21)   5397        lambda_116[0][1]                 
__________________________________________________________________________________________________
conv2d_383 (Conv2D)             (None, 55, 55, 22)   5654        lambda_116[0][2]                 
__________________________________________________________________________________________________
concatenate_99 (Concatenate)    (None, 55, 55, 64)   0           conv2d_381[0][0]                 
                                                                 conv2d_382[0][0]                 
                                                                 conv2d_383[0][0]                 
__________________________________________________________________________________________________
lambda_117 (Lambda)             [(None, 55, 55, 64), 0           concatenate_99[0][0]             
__________________________________________________________________________________________________
conv2d_384 (Conv2D)             (None, 55, 55, 21)   12117       lambda_117[0][0]                 
__________________________________________________________________________________________________
conv2d_385 (Conv2D)             (None, 55, 55, 21)   12117       lambda_117[0][1]                 
__________________________________________________________________________________________________
conv2d_386 (Conv2D)             (None, 55, 55, 22)   12694       lambda_117[0][2]                 
__________________________________________________________________________________________________
concatenate_100 (Concatenate)   (None, 55, 55, 64)   0           conv2d_384[0][0]                 
                                                                 conv2d_385[0][0]                 
                                                                 conv2d_386[0][0]                 
__________________________________________________________________________________________________
lambda_118 (Lambda)             [(None, 55, 55, 64), 0           concatenate_100[0][0]            
__________________________________________________________________________________________________
conv2d_387 (Conv2D)             (None, 55, 55, 85)   5525        lambda_118[0][0]                 
__________________________________________________________________________________________________
conv2d_388 (Conv2D)             (None, 55, 55, 85)   5525        lambda_118[0][1]                 
__________________________________________________________________________________________________
conv2d_389 (Conv2D)             (None, 55, 55, 86)   5590        lambda_118[0][2]                 
__________________________________________________________________________________________________
concatenate_101 (Concatenate)   (None, 55, 55, 256)  0           conv2d_387[0][0]                 
                                                                 conv2d_388[0][0]                 
                                                                 conv2d_389[0][0]                 
__________________________________________________________________________________________________
add_106 (Add)                   (None, 55, 55, 256)  0           concatenate_101[0][0]            
                                                                 activation_34[0][0]              
__________________________________________________________________________________________________
activation_35 (Activation)      (None, 55, 55, 256)  0           add_106[0][0]                    
__________________________________________________________________________________________________
lambda_119 (Lambda)             [(None, 55, 55, 256) 0           activation_35[0][0]              
__________________________________________________________________________________________________
conv2d_390 (Conv2D)             (None, 28, 28, 42)   10794       lambda_119[0][0]                 
__________________________________________________________________________________________________
conv2d_391 (Conv2D)             (None, 28, 28, 42)   10794       lambda_119[0][1]                 
__________________________________________________________________________________________________
conv2d_392 (Conv2D)             (None, 28, 28, 44)   11308       lambda_119[0][2]                 
__________________________________________________________________________________________________
concatenate_102 (Concatenate)   (None, 28, 28, 128)  0           conv2d_390[0][0]                 
                                                                 conv2d_391[0][0]                 
                                                                 conv2d_392[0][0]                 
__________________________________________________________________________________________________
lambda_120 (Lambda)             [(None, 28, 28, 128) 0           concatenate_102[0][0]            
__________________________________________________________________________________________________
conv2d_393 (Conv2D)             (None, 28, 28, 42)   48426       lambda_120[0][0]                 
__________________________________________________________________________________________________
conv2d_394 (Conv2D)             (None, 28, 28, 42)   48426       lambda_120[0][1]                 
__________________________________________________________________________________________________
conv2d_395 (Conv2D)             (None, 28, 28, 44)   50732       lambda_120[0][2]                 
__________________________________________________________________________________________________
concatenate_103 (Concatenate)   (None, 28, 28, 128)  0           conv2d_393[0][0]                 
                                                                 conv2d_394[0][0]                 
                                                                 conv2d_395[0][0]                 
__________________________________________________________________________________________________
lambda_121 (Lambda)             [(None, 28, 28, 128) 0           concatenate_103[0][0]            
__________________________________________________________________________________________________
lambda_122 (Lambda)             [(None, 55, 55, 256) 0           activation_35[0][0]              
__________________________________________________________________________________________________
conv2d_396 (Conv2D)             (None, 28, 28, 170)  21930       lambda_121[0][0]                 
__________________________________________________________________________________________________
conv2d_397 (Conv2D)             (None, 28, 28, 170)  21930       lambda_121[0][1]                 
__________________________________________________________________________________________________
conv2d_398 (Conv2D)             (None, 28, 28, 172)  22188       lambda_121[0][2]                 
__________________________________________________________________________________________________
conv2d_399 (Conv2D)             (None, 28, 28, 170)  43690       lambda_122[0][0]                 
__________________________________________________________________________________________________
conv2d_400 (Conv2D)             (None, 28, 28, 170)  43690       lambda_122[0][1]                 
__________________________________________________________________________________________________
conv2d_401 (Conv2D)             (None, 28, 28, 172)  44204       lambda_122[0][2]                 
__________________________________________________________________________________________________
concatenate_104 (Concatenate)   (None, 28, 28, 512)  0           conv2d_396[0][0]                 
                                                                 conv2d_397[0][0]                 
                                                                 conv2d_398[0][0]                 
__________________________________________________________________________________________________
concatenate_105 (Concatenate)   (None, 28, 28, 512)  0           conv2d_399[0][0]                 
                                                                 conv2d_400[0][0]                 
                                                                 conv2d_401[0][0]                 
__________________________________________________________________________________________________
add_107 (Add)                   (None, 28, 28, 512)  0           concatenate_104[0][0]            
                                                                 concatenate_105[0][0]            
__________________________________________________________________________________________________
activation_36 (Activation)      (None, 28, 28, 512)  0           add_107[0][0]                    
__________________________________________________________________________________________________
lambda_123 (Lambda)             [(None, 28, 28, 512) 0           activation_36[0][0]              
__________________________________________________________________________________________________
conv2d_402 (Conv2D)             (None, 28, 28, 42)   21546       lambda_123[0][0]                 
__________________________________________________________________________________________________
conv2d_403 (Conv2D)             (None, 28, 28, 42)   21546       lambda_123[0][1]                 
__________________________________________________________________________________________________
conv2d_404 (Conv2D)             (None, 28, 28, 44)   22572       lambda_123[0][2]                 
__________________________________________________________________________________________________
concatenate_106 (Concatenate)   (None, 28, 28, 128)  0           conv2d_402[0][0]                 
                                                                 conv2d_403[0][0]                 
                                                                 conv2d_404[0][0]                 
__________________________________________________________________________________________________
lambda_124 (Lambda)             [(None, 28, 28, 128) 0           concatenate_106[0][0]            
__________________________________________________________________________________________________
conv2d_405 (Conv2D)             (None, 28, 28, 42)   48426       lambda_124[0][0]                 
__________________________________________________________________________________________________
conv2d_406 (Conv2D)             (None, 28, 28, 42)   48426       lambda_124[0][1]                 
__________________________________________________________________________________________________
conv2d_407 (Conv2D)             (None, 28, 28, 44)   50732       lambda_124[0][2]                 
__________________________________________________________________________________________________
concatenate_107 (Concatenate)   (None, 28, 28, 128)  0           conv2d_405[0][0]                 
                                                                 conv2d_406[0][0]                 
                                                                 conv2d_407[0][0]                 
__________________________________________________________________________________________________
lambda_125 (Lambda)             [(None, 28, 28, 128) 0           concatenate_107[0][0]            
__________________________________________________________________________________________________
conv2d_408 (Conv2D)             (None, 28, 28, 170)  21930       lambda_125[0][0]                 
__________________________________________________________________________________________________
conv2d_409 (Conv2D)             (None, 28, 28, 170)  21930       lambda_125[0][1]                 
__________________________________________________________________________________________________
conv2d_410 (Conv2D)             (None, 28, 28, 172)  22188       lambda_125[0][2]                 
__________________________________________________________________________________________________
concatenate_108 (Concatenate)   (None, 28, 28, 512)  0           conv2d_408[0][0]                 
                                                                 conv2d_409[0][0]                 
                                                                 conv2d_410[0][0]                 
__________________________________________________________________________________________________
add_108 (Add)                   (None, 28, 28, 512)  0           concatenate_108[0][0]            
                                                                 activation_36[0][0]              
__________________________________________________________________________________________________
activation_37 (Activation)      (None, 28, 28, 512)  0           add_108[0][0]                    
__________________________________________________________________________________________________
lambda_126 (Lambda)             [(None, 28, 28, 512) 0           activation_37[0][0]              
__________________________________________________________________________________________________
conv2d_411 (Conv2D)             (None, 28, 28, 42)   21546       lambda_126[0][0]                 
__________________________________________________________________________________________________
conv2d_412 (Conv2D)             (None, 28, 28, 42)   21546       lambda_126[0][1]                 
__________________________________________________________________________________________________
conv2d_413 (Conv2D)             (None, 28, 28, 44)   22572       lambda_126[0][2]                 
__________________________________________________________________________________________________
concatenate_109 (Concatenate)   (None, 28, 28, 128)  0           conv2d_411[0][0]                 
                                                                 conv2d_412[0][0]                 
                                                                 conv2d_413[0][0]                 
__________________________________________________________________________________________________
lambda_127 (Lambda)             [(None, 28, 28, 128) 0           concatenate_109[0][0]            
__________________________________________________________________________________________________
conv2d_414 (Conv2D)             (None, 28, 28, 42)   48426       lambda_127[0][0]                 
__________________________________________________________________________________________________
conv2d_415 (Conv2D)             (None, 28, 28, 42)   48426       lambda_127[0][1]                 
__________________________________________________________________________________________________
conv2d_416 (Conv2D)             (None, 28, 28, 44)   50732       lambda_127[0][2]                 
__________________________________________________________________________________________________
concatenate_110 (Concatenate)   (None, 28, 28, 128)  0           conv2d_414[0][0]                 
                                                                 conv2d_415[0][0]                 
                                                                 conv2d_416[0][0]                 
__________________________________________________________________________________________________
lambda_128 (Lambda)             [(None, 28, 28, 128) 0           concatenate_110[0][0]            
__________________________________________________________________________________________________
conv2d_417 (Conv2D)             (None, 28, 28, 170)  21930       lambda_128[0][0]                 
__________________________________________________________________________________________________
conv2d_418 (Conv2D)             (None, 28, 28, 170)  21930       lambda_128[0][1]                 
__________________________________________________________________________________________________
conv2d_419 (Conv2D)             (None, 28, 28, 172)  22188       lambda_128[0][2]                 
__________________________________________________________________________________________________
concatenate_111 (Concatenate)   (None, 28, 28, 512)  0           conv2d_417[0][0]                 
                                                                 conv2d_418[0][0]                 
                                                                 conv2d_419[0][0]                 
__________________________________________________________________________________________________
add_109 (Add)                   (None, 28, 28, 512)  0           concatenate_111[0][0]            
                                                                 activation_37[0][0]              
__________________________________________________________________________________________________
activation_38 (Activation)      (None, 28, 28, 512)  0           add_109[0][0]                    
__________________________________________________________________________________________________
lambda_129 (Lambda)             [(None, 28, 28, 512) 0           activation_38[0][0]              
__________________________________________________________________________________________________
conv2d_420 (Conv2D)             (None, 28, 28, 42)   21546       lambda_129[0][0]                 
__________________________________________________________________________________________________
conv2d_421 (Conv2D)             (None, 28, 28, 42)   21546       lambda_129[0][1]                 
__________________________________________________________________________________________________
conv2d_422 (Conv2D)             (None, 28, 28, 44)   22572       lambda_129[0][2]                 
__________________________________________________________________________________________________
concatenate_112 (Concatenate)   (None, 28, 28, 128)  0           conv2d_420[0][0]                 
                                                                 conv2d_421[0][0]                 
                                                                 conv2d_422[0][0]                 
__________________________________________________________________________________________________
lambda_130 (Lambda)             [(None, 28, 28, 128) 0           concatenate_112[0][0]            
__________________________________________________________________________________________________
conv2d_423 (Conv2D)             (None, 28, 28, 42)   48426       lambda_130[0][0]                 
__________________________________________________________________________________________________
conv2d_424 (Conv2D)             (None, 28, 28, 42)   48426       lambda_130[0][1]                 
__________________________________________________________________________________________________
conv2d_425 (Conv2D)             (None, 28, 28, 44)   50732       lambda_130[0][2]                 
__________________________________________________________________________________________________
concatenate_113 (Concatenate)   (None, 28, 28, 128)  0           conv2d_423[0][0]                 
                                                                 conv2d_424[0][0]                 
                                                                 conv2d_425[0][0]                 
__________________________________________________________________________________________________
lambda_131 (Lambda)             [(None, 28, 28, 128) 0           concatenate_113[0][0]            
__________________________________________________________________________________________________
conv2d_426 (Conv2D)             (None, 28, 28, 170)  21930       lambda_131[0][0]                 
__________________________________________________________________________________________________
conv2d_427 (Conv2D)             (None, 28, 28, 170)  21930       lambda_131[0][1]                 
__________________________________________________________________________________________________
conv2d_428 (Conv2D)             (None, 28, 28, 172)  22188       lambda_131[0][2]                 
__________________________________________________________________________________________________
concatenate_114 (Concatenate)   (None, 28, 28, 512)  0           conv2d_426[0][0]                 
                                                                 conv2d_427[0][0]                 
                                                                 conv2d_428[0][0]                 
__________________________________________________________________________________________________
add_110 (Add)                   (None, 28, 28, 512)  0           concatenate_114[0][0]            
                                                                 activation_38[0][0]              
__________________________________________________________________________________________________
activation_39 (Activation)      (None, 28, 28, 512)  0           add_110[0][0]                    
__________________________________________________________________________________________________
lambda_132 (Lambda)             [(None, 28, 28, 512) 0           activation_39[0][0]              
__________________________________________________________________________________________________
conv2d_429 (Conv2D)             (None, 14, 14, 85)   43605       lambda_132[0][0]                 
__________________________________________________________________________________________________
conv2d_430 (Conv2D)             (None, 14, 14, 85)   43605       lambda_132[0][1]                 
__________________________________________________________________________________________________
conv2d_431 (Conv2D)             (None, 14, 14, 86)   44118       lambda_132[0][2]                 
__________________________________________________________________________________________________
concatenate_115 (Concatenate)   (None, 14, 14, 256)  0           conv2d_429[0][0]                 
                                                                 conv2d_430[0][0]                 
                                                                 conv2d_431[0][0]                 
__________________________________________________________________________________________________
lambda_133 (Lambda)             [(None, 14, 14, 256) 0           concatenate_115[0][0]            
__________________________________________________________________________________________________
conv2d_432 (Conv2D)             (None, 14, 14, 85)   195925      lambda_133[0][0]                 
__________________________________________________________________________________________________
conv2d_433 (Conv2D)             (None, 14, 14, 85)   195925      lambda_133[0][1]                 
__________________________________________________________________________________________________
conv2d_434 (Conv2D)             (None, 14, 14, 86)   198230      lambda_133[0][2]                 
__________________________________________________________________________________________________
concatenate_116 (Concatenate)   (None, 14, 14, 256)  0           conv2d_432[0][0]                 
                                                                 conv2d_433[0][0]                 
                                                                 conv2d_434[0][0]                 
__________________________________________________________________________________________________
lambda_134 (Lambda)             [(None, 14, 14, 256) 0           concatenate_116[0][0]            
__________________________________________________________________________________________________
lambda_135 (Lambda)             [(None, 28, 28, 512) 0           activation_39[0][0]              
__________________________________________________________________________________________________
conv2d_435 (Conv2D)             (None, 14, 14, 341)  87637       lambda_134[0][0]                 
__________________________________________________________________________________________________
conv2d_436 (Conv2D)             (None, 14, 14, 341)  87637       lambda_134[0][1]                 
__________________________________________________________________________________________________
conv2d_437 (Conv2D)             (None, 14, 14, 342)  87894       lambda_134[0][2]                 
__________________________________________________________________________________________________
conv2d_438 (Conv2D)             (None, 14, 14, 341)  174933      lambda_135[0][0]                 
__________________________________________________________________________________________________
conv2d_439 (Conv2D)             (None, 14, 14, 341)  174933      lambda_135[0][1]                 
__________________________________________________________________________________________________
conv2d_440 (Conv2D)             (None, 14, 14, 342)  175446      lambda_135[0][2]                 
__________________________________________________________________________________________________
concatenate_117 (Concatenate)   (None, 14, 14, 1024) 0           conv2d_435[0][0]                 
                                                                 conv2d_436[0][0]                 
                                                                 conv2d_437[0][0]                 
__________________________________________________________________________________________________
concatenate_118 (Concatenate)   (None, 14, 14, 1024) 0           conv2d_438[0][0]                 
                                                                 conv2d_439[0][0]                 
                                                                 conv2d_440[0][0]                 
__________________________________________________________________________________________________
add_111 (Add)                   (None, 14, 14, 1024) 0           concatenate_117[0][0]            
                                                                 concatenate_118[0][0]            
__________________________________________________________________________________________________
activation_40 (Activation)      (None, 14, 14, 1024) 0           add_111[0][0]                    
__________________________________________________________________________________________________
lambda_136 (Lambda)             [(None, 14, 14, 1024 0           activation_40[0][0]              
__________________________________________________________________________________________________
conv2d_441 (Conv2D)             (None, 14, 14, 85)   87125       lambda_136[0][0]                 
__________________________________________________________________________________________________
conv2d_442 (Conv2D)             (None, 14, 14, 85)   87125       lambda_136[0][1]                 
__________________________________________________________________________________________________
conv2d_443 (Conv2D)             (None, 14, 14, 86)   88150       lambda_136[0][2]                 
__________________________________________________________________________________________________
concatenate_119 (Concatenate)   (None, 14, 14, 256)  0           conv2d_441[0][0]                 
                                                                 conv2d_442[0][0]                 
                                                                 conv2d_443[0][0]                 
__________________________________________________________________________________________________
lambda_137 (Lambda)             [(None, 14, 14, 256) 0           concatenate_119[0][0]            
__________________________________________________________________________________________________
conv2d_444 (Conv2D)             (None, 14, 14, 85)   195925      lambda_137[0][0]                 
__________________________________________________________________________________________________
conv2d_445 (Conv2D)             (None, 14, 14, 85)   195925      lambda_137[0][1]                 
__________________________________________________________________________________________________
conv2d_446 (Conv2D)             (None, 14, 14, 86)   198230      lambda_137[0][2]                 
__________________________________________________________________________________________________
concatenate_120 (Concatenate)   (None, 14, 14, 256)  0           conv2d_444[0][0]                 
                                                                 conv2d_445[0][0]                 
                                                                 conv2d_446[0][0]                 
__________________________________________________________________________________________________
lambda_138 (Lambda)             [(None, 14, 14, 256) 0           concatenate_120[0][0]            
__________________________________________________________________________________________________
conv2d_447 (Conv2D)             (None, 14, 14, 341)  87637       lambda_138[0][0]                 
__________________________________________________________________________________________________
conv2d_448 (Conv2D)             (None, 14, 14, 341)  87637       lambda_138[0][1]                 
__________________________________________________________________________________________________
conv2d_449 (Conv2D)             (None, 14, 14, 342)  87894       lambda_138[0][2]                 
__________________________________________________________________________________________________
concatenate_121 (Concatenate)   (None, 14, 14, 1024) 0           conv2d_447[0][0]                 
                                                                 conv2d_448[0][0]                 
                                                                 conv2d_449[0][0]                 
__________________________________________________________________________________________________
add_112 (Add)                   (None, 14, 14, 1024) 0           concatenate_121[0][0]            
                                                                 activation_40[0][0]              
__________________________________________________________________________________________________
activation_41 (Activation)      (None, 14, 14, 1024) 0           add_112[0][0]                    
__________________________________________________________________________________________________
lambda_139 (Lambda)             [(None, 14, 14, 1024 0           activation_41[0][0]              
__________________________________________________________________________________________________
conv2d_450 (Conv2D)             (None, 14, 14, 85)   87125       lambda_139[0][0]                 
__________________________________________________________________________________________________
conv2d_451 (Conv2D)             (None, 14, 14, 85)   87125       lambda_139[0][1]                 
__________________________________________________________________________________________________
conv2d_452 (Conv2D)             (None, 14, 14, 86)   88150       lambda_139[0][2]                 
__________________________________________________________________________________________________
concatenate_122 (Concatenate)   (None, 14, 14, 256)  0           conv2d_450[0][0]                 
                                                                 conv2d_451[0][0]                 
                                                                 conv2d_452[0][0]                 
__________________________________________________________________________________________________
lambda_140 (Lambda)             [(None, 14, 14, 256) 0           concatenate_122[0][0]            
__________________________________________________________________________________________________
conv2d_453 (Conv2D)             (None, 14, 14, 85)   195925      lambda_140[0][0]                 
__________________________________________________________________________________________________
conv2d_454 (Conv2D)             (None, 14, 14, 85)   195925      lambda_140[0][1]                 
__________________________________________________________________________________________________
conv2d_455 (Conv2D)             (None, 14, 14, 86)   198230      lambda_140[0][2]                 
__________________________________________________________________________________________________
concatenate_123 (Concatenate)   (None, 14, 14, 256)  0           conv2d_453[0][0]                 
                                                                 conv2d_454[0][0]                 
                                                                 conv2d_455[0][0]                 
__________________________________________________________________________________________________
lambda_141 (Lambda)             [(None, 14, 14, 256) 0           concatenate_123[0][0]            
__________________________________________________________________________________________________
conv2d_456 (Conv2D)             (None, 14, 14, 341)  87637       lambda_141[0][0]                 
__________________________________________________________________________________________________
conv2d_457 (Conv2D)             (None, 14, 14, 341)  87637       lambda_141[0][1]                 
__________________________________________________________________________________________________
conv2d_458 (Conv2D)             (None, 14, 14, 342)  87894       lambda_141[0][2]                 
__________________________________________________________________________________________________
concatenate_124 (Concatenate)   (None, 14, 14, 1024) 0           conv2d_456[0][0]                 
                                                                 conv2d_457[0][0]                 
                                                                 conv2d_458[0][0]                 
__________________________________________________________________________________________________
add_113 (Add)                   (None, 14, 14, 1024) 0           concatenate_124[0][0]            
                                                                 activation_41[0][0]              
__________________________________________________________________________________________________
activation_42 (Activation)      (None, 14, 14, 1024) 0           add_113[0][0]                    
__________________________________________________________________________________________________
lambda_142 (Lambda)             [(None, 14, 14, 1024 0           activation_42[0][0]              
__________________________________________________________________________________________________
conv2d_459 (Conv2D)             (None, 14, 14, 85)   87125       lambda_142[0][0]                 
__________________________________________________________________________________________________
conv2d_460 (Conv2D)             (None, 14, 14, 85)   87125       lambda_142[0][1]                 
__________________________________________________________________________________________________
conv2d_461 (Conv2D)             (None, 14, 14, 86)   88150       lambda_142[0][2]                 
__________________________________________________________________________________________________
concatenate_125 (Concatenate)   (None, 14, 14, 256)  0           conv2d_459[0][0]                 
                                                                 conv2d_460[0][0]                 
                                                                 conv2d_461[0][0]                 
__________________________________________________________________________________________________
lambda_143 (Lambda)             [(None, 14, 14, 256) 0           concatenate_125[0][0]            
__________________________________________________________________________________________________
conv2d_462 (Conv2D)             (None, 14, 14, 85)   195925      lambda_143[0][0]                 
__________________________________________________________________________________________________
conv2d_463 (Conv2D)             (None, 14, 14, 85)   195925      lambda_143[0][1]                 
__________________________________________________________________________________________________
conv2d_464 (Conv2D)             (None, 14, 14, 86)   198230      lambda_143[0][2]                 
__________________________________________________________________________________________________
concatenate_126 (Concatenate)   (None, 14, 14, 256)  0           conv2d_462[0][0]                 
                                                                 conv2d_463[0][0]                 
                                                                 conv2d_464[0][0]                 
__________________________________________________________________________________________________
lambda_144 (Lambda)             [(None, 14, 14, 256) 0           concatenate_126[0][0]            
__________________________________________________________________________________________________
conv2d_465 (Conv2D)             (None, 14, 14, 341)  87637       lambda_144[0][0]                 
__________________________________________________________________________________________________
conv2d_466 (Conv2D)             (None, 14, 14, 341)  87637       lambda_144[0][1]                 
__________________________________________________________________________________________________
conv2d_467 (Conv2D)             (None, 14, 14, 342)  87894       lambda_144[0][2]                 
__________________________________________________________________________________________________
concatenate_127 (Concatenate)   (None, 14, 14, 1024) 0           conv2d_465[0][0]                 
                                                                 conv2d_466[0][0]                 
                                                                 conv2d_467[0][0]                 
__________________________________________________________________________________________________
add_114 (Add)                   (None, 14, 14, 1024) 0           concatenate_127[0][0]            
                                                                 activation_42[0][0]              
__________________________________________________________________________________________________
activation_43 (Activation)      (None, 14, 14, 1024) 0           add_114[0][0]                    
__________________________________________________________________________________________________
lambda_145 (Lambda)             [(None, 14, 14, 1024 0           activation_43[0][0]              
__________________________________________________________________________________________________
conv2d_468 (Conv2D)             (None, 14, 14, 85)   87125       lambda_145[0][0]                 
__________________________________________________________________________________________________
conv2d_469 (Conv2D)             (None, 14, 14, 85)   87125       lambda_145[0][1]                 
__________________________________________________________________________________________________
conv2d_470 (Conv2D)             (None, 14, 14, 86)   88150       lambda_145[0][2]                 
__________________________________________________________________________________________________
concatenate_128 (Concatenate)   (None, 14, 14, 256)  0           conv2d_468[0][0]                 
                                                                 conv2d_469[0][0]                 
                                                                 conv2d_470[0][0]                 
__________________________________________________________________________________________________
lambda_146 (Lambda)             [(None, 14, 14, 256) 0           concatenate_128[0][0]            
__________________________________________________________________________________________________
conv2d_471 (Conv2D)             (None, 14, 14, 85)   195925      lambda_146[0][0]                 
__________________________________________________________________________________________________
conv2d_472 (Conv2D)             (None, 14, 14, 85)   195925      lambda_146[0][1]                 
__________________________________________________________________________________________________
conv2d_473 (Conv2D)             (None, 14, 14, 86)   198230      lambda_146[0][2]                 
__________________________________________________________________________________________________
concatenate_129 (Concatenate)   (None, 14, 14, 256)  0           conv2d_471[0][0]                 
                                                                 conv2d_472[0][0]                 
                                                                 conv2d_473[0][0]                 
__________________________________________________________________________________________________
lambda_147 (Lambda)             [(None, 14, 14, 256) 0           concatenate_129[0][0]            
__________________________________________________________________________________________________
conv2d_474 (Conv2D)             (None, 14, 14, 341)  87637       lambda_147[0][0]                 
__________________________________________________________________________________________________
conv2d_475 (Conv2D)             (None, 14, 14, 341)  87637       lambda_147[0][1]                 
__________________________________________________________________________________________________
conv2d_476 (Conv2D)             (None, 14, 14, 342)  87894       lambda_147[0][2]                 
__________________________________________________________________________________________________
concatenate_130 (Concatenate)   (None, 14, 14, 1024) 0           conv2d_474[0][0]                 
                                                                 conv2d_475[0][0]                 
                                                                 conv2d_476[0][0]                 
__________________________________________________________________________________________________
add_115 (Add)                   (None, 14, 14, 1024) 0           concatenate_130[0][0]            
                                                                 activation_43[0][0]              
__________________________________________________________________________________________________
activation_44 (Activation)      (None, 14, 14, 1024) 0           add_115[0][0]                    
__________________________________________________________________________________________________
lambda_148 (Lambda)             [(None, 14, 14, 1024 0           activation_44[0][0]              
__________________________________________________________________________________________________
conv2d_477 (Conv2D)             (None, 14, 14, 85)   87125       lambda_148[0][0]                 
__________________________________________________________________________________________________
conv2d_478 (Conv2D)             (None, 14, 14, 85)   87125       lambda_148[0][1]                 
__________________________________________________________________________________________________
conv2d_479 (Conv2D)             (None, 14, 14, 86)   88150       lambda_148[0][2]                 
__________________________________________________________________________________________________
concatenate_131 (Concatenate)   (None, 14, 14, 256)  0           conv2d_477[0][0]                 
                                                                 conv2d_478[0][0]                 
                                                                 conv2d_479[0][0]                 
__________________________________________________________________________________________________
lambda_149 (Lambda)             [(None, 14, 14, 256) 0           concatenate_131[0][0]            
__________________________________________________________________________________________________
conv2d_480 (Conv2D)             (None, 14, 14, 85)   195925      lambda_149[0][0]                 
__________________________________________________________________________________________________
conv2d_481 (Conv2D)             (None, 14, 14, 85)   195925      lambda_149[0][1]                 
__________________________________________________________________________________________________
conv2d_482 (Conv2D)             (None, 14, 14, 86)   198230      lambda_149[0][2]                 
__________________________________________________________________________________________________
concatenate_132 (Concatenate)   (None, 14, 14, 256)  0           conv2d_480[0][0]                 
                                                                 conv2d_481[0][0]                 
                                                                 conv2d_482[0][0]                 
__________________________________________________________________________________________________
lambda_150 (Lambda)             [(None, 14, 14, 256) 0           concatenate_132[0][0]            
__________________________________________________________________________________________________
conv2d_483 (Conv2D)             (None, 14, 14, 341)  87637       lambda_150[0][0]                 
__________________________________________________________________________________________________
conv2d_484 (Conv2D)             (None, 14, 14, 341)  87637       lambda_150[0][1]                 
__________________________________________________________________________________________________
conv2d_485 (Conv2D)             (None, 14, 14, 342)  87894       lambda_150[0][2]                 
__________________________________________________________________________________________________
concatenate_133 (Concatenate)   (None, 14, 14, 1024) 0           conv2d_483[0][0]                 
                                                                 conv2d_484[0][0]                 
                                                                 conv2d_485[0][0]                 
__________________________________________________________________________________________________
add_116 (Add)                   (None, 14, 14, 1024) 0           concatenate_133[0][0]            
                                                                 activation_44[0][0]              
__________________________________________________________________________________________________
activation_45 (Activation)      (None, 14, 14, 1024) 0           add_116[0][0]                    
__________________________________________________________________________________________________
lambda_151 (Lambda)             [(None, 14, 14, 1024 0           activation_45[0][0]              
__________________________________________________________________________________________________
conv2d_486 (Conv2D)             (None, 7, 7, 170)    174250      lambda_151[0][0]                 
__________________________________________________________________________________________________
conv2d_487 (Conv2D)             (None, 7, 7, 170)    174250      lambda_151[0][1]                 
__________________________________________________________________________________________________
conv2d_488 (Conv2D)             (None, 7, 7, 172)    176300      lambda_151[0][2]                 
__________________________________________________________________________________________________
concatenate_134 (Concatenate)   (None, 7, 7, 512)    0           conv2d_486[0][0]                 
                                                                 conv2d_487[0][0]                 
                                                                 conv2d_488[0][0]                 
__________________________________________________________________________________________________
lambda_152 (Lambda)             [(None, 7, 7, 512),  0           concatenate_134[0][0]            
__________________________________________________________________________________________________
conv2d_489 (Conv2D)             (None, 7, 7, 170)    783530      lambda_152[0][0]                 
__________________________________________________________________________________________________
conv2d_490 (Conv2D)             (None, 7, 7, 170)    783530      lambda_152[0][1]                 
__________________________________________________________________________________________________
conv2d_491 (Conv2D)             (None, 7, 7, 172)    792748      lambda_152[0][2]                 
__________________________________________________________________________________________________
concatenate_135 (Concatenate)   (None, 7, 7, 512)    0           conv2d_489[0][0]                 
                                                                 conv2d_490[0][0]                 
                                                                 conv2d_491[0][0]                 
__________________________________________________________________________________________________
lambda_153 (Lambda)             [(None, 7, 7, 512),  0           concatenate_135[0][0]            
__________________________________________________________________________________________________
lambda_154 (Lambda)             [(None, 14, 14, 1024 0           activation_45[0][0]              
__________________________________________________________________________________________________
conv2d_492 (Conv2D)             (None, 7, 7, 682)    349866      lambda_153[0][0]                 
__________________________________________________________________________________________________
conv2d_493 (Conv2D)             (None, 7, 7, 682)    349866      lambda_153[0][1]                 
__________________________________________________________________________________________________
conv2d_494 (Conv2D)             (None, 7, 7, 684)    350892      lambda_153[0][2]                 
__________________________________________________________________________________________________
conv2d_495 (Conv2D)             (None, 7, 7, 682)    699050      lambda_154[0][0]                 
__________________________________________________________________________________________________
conv2d_496 (Conv2D)             (None, 7, 7, 682)    699050      lambda_154[0][1]                 
__________________________________________________________________________________________________
conv2d_497 (Conv2D)             (None, 7, 7, 684)    701100      lambda_154[0][2]                 
__________________________________________________________________________________________________
concatenate_136 (Concatenate)   (None, 7, 7, 2048)   0           conv2d_492[0][0]                 
                                                                 conv2d_493[0][0]                 
                                                                 conv2d_494[0][0]                 
__________________________________________________________________________________________________
concatenate_137 (Concatenate)   (None, 7, 7, 2048)   0           conv2d_495[0][0]                 
                                                                 conv2d_496[0][0]                 
                                                                 conv2d_497[0][0]                 
__________________________________________________________________________________________________
add_117 (Add)                   (None, 7, 7, 2048)   0           concatenate_136[0][0]            
                                                                 concatenate_137[0][0]            
__________________________________________________________________________________________________
activation_46 (Activation)      (None, 7, 7, 2048)   0           add_117[0][0]                    
__________________________________________________________________________________________________
lambda_155 (Lambda)             [(None, 7, 7, 2048), 0           activation_46[0][0]              
__________________________________________________________________________________________________
conv2d_498 (Conv2D)             (None, 7, 7, 170)    348330      lambda_155[0][0]                 
__________________________________________________________________________________________________
conv2d_499 (Conv2D)             (None, 7, 7, 170)    348330      lambda_155[0][1]                 
__________________________________________________________________________________________________
conv2d_500 (Conv2D)             (None, 7, 7, 172)    352428      lambda_155[0][2]                 
__________________________________________________________________________________________________
concatenate_138 (Concatenate)   (None, 7, 7, 512)    0           conv2d_498[0][0]                 
                                                                 conv2d_499[0][0]                 
                                                                 conv2d_500[0][0]                 
__________________________________________________________________________________________________
lambda_156 (Lambda)             [(None, 7, 7, 512),  0           concatenate_138[0][0]            
__________________________________________________________________________________________________
conv2d_501 (Conv2D)             (None, 7, 7, 170)    783530      lambda_156[0][0]                 
__________________________________________________________________________________________________
conv2d_502 (Conv2D)             (None, 7, 7, 170)    783530      lambda_156[0][1]                 
__________________________________________________________________________________________________
conv2d_503 (Conv2D)             (None, 7, 7, 172)    792748      lambda_156[0][2]                 
__________________________________________________________________________________________________
concatenate_139 (Concatenate)   (None, 7, 7, 512)    0           conv2d_501[0][0]                 
                                                                 conv2d_502[0][0]                 
                                                                 conv2d_503[0][0]                 
__________________________________________________________________________________________________
lambda_157 (Lambda)             [(None, 7, 7, 512),  0           concatenate_139[0][0]            
__________________________________________________________________________________________________
conv2d_504 (Conv2D)             (None, 7, 7, 682)    349866      lambda_157[0][0]                 
__________________________________________________________________________________________________
conv2d_505 (Conv2D)             (None, 7, 7, 682)    349866      lambda_157[0][1]                 
__________________________________________________________________________________________________
conv2d_506 (Conv2D)             (None, 7, 7, 684)    350892      lambda_157[0][2]                 
__________________________________________________________________________________________________
concatenate_140 (Concatenate)   (None, 7, 7, 2048)   0           conv2d_504[0][0]                 
                                                                 conv2d_505[0][0]                 
                                                                 conv2d_506[0][0]                 
__________________________________________________________________________________________________
add_118 (Add)                   (None, 7, 7, 2048)   0           concatenate_140[0][0]            
                                                                 activation_46[0][0]              
__________________________________________________________________________________________________
activation_47 (Activation)      (None, 7, 7, 2048)   0           add_118[0][0]                    
__________________________________________________________________________________________________
lambda_158 (Lambda)             [(None, 7, 7, 2048), 0           activation_47[0][0]              
__________________________________________________________________________________________________
conv2d_507 (Conv2D)             (None, 7, 7, 170)    348330      lambda_158[0][0]                 
__________________________________________________________________________________________________
conv2d_508 (Conv2D)             (None, 7, 7, 170)    348330      lambda_158[0][1]                 
__________________________________________________________________________________________________
conv2d_509 (Conv2D)             (None, 7, 7, 172)    352428      lambda_158[0][2]                 
__________________________________________________________________________________________________
concatenate_141 (Concatenate)   (None, 7, 7, 512)    0           conv2d_507[0][0]                 
                                                                 conv2d_508[0][0]                 
                                                                 conv2d_509[0][0]                 
__________________________________________________________________________________________________
lambda_159 (Lambda)             [(None, 7, 7, 512),  0           concatenate_141[0][0]            
__________________________________________________________________________________________________
conv2d_510 (Conv2D)             (None, 7, 7, 170)    783530      lambda_159[0][0]                 
__________________________________________________________________________________________________
conv2d_511 (Conv2D)             (None, 7, 7, 170)    783530      lambda_159[0][1]                 
__________________________________________________________________________________________________
conv2d_512 (Conv2D)             (None, 7, 7, 172)    792748      lambda_159[0][2]                 
__________________________________________________________________________________________________
concatenate_142 (Concatenate)   (None, 7, 7, 512)    0           conv2d_510[0][0]                 
                                                                 conv2d_511[0][0]                 
                                                                 conv2d_512[0][0]                 
__________________________________________________________________________________________________
lambda_160 (Lambda)             [(None, 7, 7, 512),  0           concatenate_142[0][0]            
__________________________________________________________________________________________________
conv2d_513 (Conv2D)             (None, 7, 7, 682)    349866      lambda_160[0][0]                 
__________________________________________________________________________________________________
conv2d_514 (Conv2D)             (None, 7, 7, 682)    349866      lambda_160[0][1]                 
__________________________________________________________________________________________________
conv2d_515 (Conv2D)             (None, 7, 7, 684)    350892      lambda_160[0][2]                 
__________________________________________________________________________________________________
concatenate_143 (Concatenate)   (None, 7, 7, 2048)   0           conv2d_513[0][0]                 
                                                                 conv2d_514[0][0]                 
                                                                 conv2d_515[0][0]                 
__________________________________________________________________________________________________
add_119 (Add)                   (None, 7, 7, 2048)   0           concatenate_143[0][0]            
                                                                 activation_47[0][0]              
__________________________________________________________________________________________________
activation_48 (Activation)      (None, 7, 7, 2048)   0           add_119[0][0]                    
__________________________________________________________________________________________________
average_pooling2d_3 (AveragePoo (None, 1, 1, 2048)   0           activation_48[0][0]              
__________________________________________________________________________________________________
flatten_7 (Flatten)             (None, 2048)         0           average_pooling2d_3[0][0]        
__________________________________________________________________________________________________
dense_27 (Dense)                (None, 1000)         2049000     flatten_7[0][0]                  
==================================================================================================
Total params: 25,530,472
Trainable params: 25,530,472
Non-trainable params: 0
__________________________________________________________________________________________________
None
