__________________________________________________________________________________________________
Layer (type)                    Output Shape         Param #     Connected to                     
==================================================================================================
input_2 (InputLayer)            (None, 224, 224, 3)  0                                            
__________________________________________________________________________________________________
zero_padding2d_2 (ZeroPadding2D (None, 230, 230, 3)  0           input_2[0][0]                    
__________________________________________________________________________________________________
lambda_1 (Lambda)               [(None, 230, 230, 3) 0           zero_padding2d_2[0][0]           
__________________________________________________________________________________________________
conv2d_54 (Conv2D)              (None, 112, 112, 21) 3108        lambda_1[0][0]                   
__________________________________________________________________________________________________
conv2d_55 (Conv2D)              (None, 112, 112, 21) 3108        lambda_1[0][1]                   
__________________________________________________________________________________________________
conv2d_56 (Conv2D)              (None, 112, 112, 22) 3256        lambda_1[0][2]                   
__________________________________________________________________________________________________
concatenate_1 (Concatenate)     (None, 112, 112, 64) 0           conv2d_54[0][0]                  
                                                                 conv2d_55[0][0]                  
                                                                 conv2d_56[0][0]                  
__________________________________________________________________________________________________
max_pooling2d_2 (MaxPooling2D)  (None, 55, 55, 64)   0           concatenate_1[0][0]              
__________________________________________________________________________________________________
lambda_2 (Lambda)               [(None, 55, 55, 64), 0           max_pooling2d_2[0][0]            
__________________________________________________________________________________________________
conv2d_57 (Conv2D)              (None, 55, 55, 21)   1365        lambda_2[0][0]                   
__________________________________________________________________________________________________
conv2d_58 (Conv2D)              (None, 55, 55, 21)   1365        lambda_2[0][1]                   
__________________________________________________________________________________________________
conv2d_59 (Conv2D)              (None, 55, 55, 22)   1430        lambda_2[0][2]                   
__________________________________________________________________________________________________
concatenate_2 (Concatenate)     (None, 55, 55, 64)   0           conv2d_57[0][0]                  
                                                                 conv2d_58[0][0]                  
                                                                 conv2d_59[0][0]                  
__________________________________________________________________________________________________
lambda_3 (Lambda)               [(None, 55, 55, 64), 0           concatenate_2[0][0]              
__________________________________________________________________________________________________
conv2d_60 (Conv2D)              (None, 55, 55, 21)   12117       lambda_3[0][0]                   
__________________________________________________________________________________________________
conv2d_61 (Conv2D)              (None, 55, 55, 21)   12117       lambda_3[0][1]                   
__________________________________________________________________________________________________
conv2d_62 (Conv2D)              (None, 55, 55, 22)   12694       lambda_3[0][2]                   
__________________________________________________________________________________________________
concatenate_3 (Concatenate)     (None, 55, 55, 64)   0           conv2d_60[0][0]                  
                                                                 conv2d_61[0][0]                  
                                                                 conv2d_62[0][0]                  
__________________________________________________________________________________________________
lambda_4 (Lambda)               [(None, 55, 55, 64), 0           concatenate_3[0][0]              
__________________________________________________________________________________________________
lambda_5 (Lambda)               [(None, 55, 55, 64), 0           max_pooling2d_2[0][0]            
__________________________________________________________________________________________________
conv2d_63 (Conv2D)              (None, 55, 55, 85)   5525        lambda_4[0][0]                   
__________________________________________________________________________________________________
conv2d_64 (Conv2D)              (None, 55, 55, 85)   5525        lambda_4[0][1]                   
__________________________________________________________________________________________________
conv2d_65 (Conv2D)              (None, 55, 55, 86)   5590        lambda_4[0][2]                   
__________________________________________________________________________________________________
conv2d_66 (Conv2D)              (None, 55, 55, 85)   5525        lambda_5[0][0]                   
__________________________________________________________________________________________________
conv2d_67 (Conv2D)              (None, 55, 55, 85)   5525        lambda_5[0][1]                   
__________________________________________________________________________________________________
conv2d_68 (Conv2D)              (None, 55, 55, 86)   5590        lambda_5[0][2]                   
__________________________________________________________________________________________________
concatenate_4 (Concatenate)     (None, 55, 55, 256)  0           conv2d_63[0][0]                  
                                                                 conv2d_64[0][0]                  
                                                                 conv2d_65[0][0]                  
__________________________________________________________________________________________________
concatenate_5 (Concatenate)     (None, 55, 55, 256)  0           conv2d_66[0][0]                  
                                                                 conv2d_67[0][0]                  
                                                                 conv2d_68[0][0]                  
__________________________________________________________________________________________________
add_17 (Add)                    (None, 55, 55, 256)  0           concatenate_4[0][0]              
                                                                 concatenate_5[0][0]              
__________________________________________________________________________________________________
activation_17 (Activation)      (None, 55, 55, 256)  0           add_17[0][0]                     
__________________________________________________________________________________________________
lambda_6 (Lambda)               [(None, 55, 55, 256) 0           activation_17[0][0]              
__________________________________________________________________________________________________
conv2d_69 (Conv2D)              (None, 55, 55, 21)   5397        lambda_6[0][0]                   
__________________________________________________________________________________________________
conv2d_70 (Conv2D)              (None, 55, 55, 21)   5397        lambda_6[0][1]                   
__________________________________________________________________________________________________
conv2d_71 (Conv2D)              (None, 55, 55, 22)   5654        lambda_6[0][2]                   
__________________________________________________________________________________________________
concatenate_6 (Concatenate)     (None, 55, 55, 64)   0           conv2d_69[0][0]                  
                                                                 conv2d_70[0][0]                  
                                                                 conv2d_71[0][0]                  
__________________________________________________________________________________________________
lambda_7 (Lambda)               [(None, 55, 55, 64), 0           concatenate_6[0][0]              
__________________________________________________________________________________________________
conv2d_72 (Conv2D)              (None, 55, 55, 21)   12117       lambda_7[0][0]                   
__________________________________________________________________________________________________
conv2d_73 (Conv2D)              (None, 55, 55, 21)   12117       lambda_7[0][1]                   
__________________________________________________________________________________________________
conv2d_74 (Conv2D)              (None, 55, 55, 22)   12694       lambda_7[0][2]                   
__________________________________________________________________________________________________
concatenate_7 (Concatenate)     (None, 55, 55, 64)   0           conv2d_72[0][0]                  
                                                                 conv2d_73[0][0]                  
                                                                 conv2d_74[0][0]                  
__________________________________________________________________________________________________
lambda_8 (Lambda)               [(None, 55, 55, 64), 0           concatenate_7[0][0]              
__________________________________________________________________________________________________
conv2d_75 (Conv2D)              (None, 55, 55, 85)   5525        lambda_8[0][0]                   
__________________________________________________________________________________________________
conv2d_76 (Conv2D)              (None, 55, 55, 85)   5525        lambda_8[0][1]                   
__________________________________________________________________________________________________
conv2d_77 (Conv2D)              (None, 55, 55, 86)   5590        lambda_8[0][2]                   
__________________________________________________________________________________________________
concatenate_8 (Concatenate)     (None, 55, 55, 256)  0           conv2d_75[0][0]                  
                                                                 conv2d_76[0][0]                  
                                                                 conv2d_77[0][0]                  
__________________________________________________________________________________________________
add_18 (Add)                    (None, 55, 55, 256)  0           concatenate_8[0][0]              
                                                                 activation_17[0][0]              
__________________________________________________________________________________________________
activation_18 (Activation)      (None, 55, 55, 256)  0           add_18[0][0]                     
__________________________________________________________________________________________________
lambda_9 (Lambda)               [(None, 55, 55, 256) 0           activation_18[0][0]              
__________________________________________________________________________________________________
conv2d_78 (Conv2D)              (None, 55, 55, 21)   5397        lambda_9[0][0]                   
__________________________________________________________________________________________________
conv2d_79 (Conv2D)              (None, 55, 55, 21)   5397        lambda_9[0][1]                   
__________________________________________________________________________________________________
conv2d_80 (Conv2D)              (None, 55, 55, 22)   5654        lambda_9[0][2]                   
__________________________________________________________________________________________________
concatenate_9 (Concatenate)     (None, 55, 55, 64)   0           conv2d_78[0][0]                  
                                                                 conv2d_79[0][0]                  
                                                                 conv2d_80[0][0]                  
__________________________________________________________________________________________________
lambda_10 (Lambda)              [(None, 55, 55, 64), 0           concatenate_9[0][0]              
__________________________________________________________________________________________________
conv2d_81 (Conv2D)              (None, 55, 55, 21)   12117       lambda_10[0][0]                  
__________________________________________________________________________________________________
conv2d_82 (Conv2D)              (None, 55, 55, 21)   12117       lambda_10[0][1]                  
__________________________________________________________________________________________________
conv2d_83 (Conv2D)              (None, 55, 55, 22)   12694       lambda_10[0][2]                  
__________________________________________________________________________________________________
concatenate_10 (Concatenate)    (None, 55, 55, 64)   0           conv2d_81[0][0]                  
                                                                 conv2d_82[0][0]                  
                                                                 conv2d_83[0][0]                  
__________________________________________________________________________________________________
lambda_11 (Lambda)              [(None, 55, 55, 64), 0           concatenate_10[0][0]             
__________________________________________________________________________________________________
conv2d_84 (Conv2D)              (None, 55, 55, 85)   5525        lambda_11[0][0]                  
__________________________________________________________________________________________________
conv2d_85 (Conv2D)              (None, 55, 55, 85)   5525        lambda_11[0][1]                  
__________________________________________________________________________________________________
conv2d_86 (Conv2D)              (None, 55, 55, 86)   5590        lambda_11[0][2]                  
__________________________________________________________________________________________________
concatenate_11 (Concatenate)    (None, 55, 55, 256)  0           conv2d_84[0][0]                  
                                                                 conv2d_85[0][0]                  
                                                                 conv2d_86[0][0]                  
__________________________________________________________________________________________________
add_19 (Add)                    (None, 55, 55, 256)  0           concatenate_11[0][0]             
                                                                 activation_18[0][0]              
__________________________________________________________________________________________________
activation_19 (Activation)      (None, 55, 55, 256)  0           add_19[0][0]                     
==================================================================================================
Total params: 223,872
Trainable params: 223,872
Non-trainable params: 0
__________________________________________________________________________________________________
None
__________________________________________________________________________________________________
Layer (type)                    Output Shape         Param #     Connected to                     
==================================================================================================
input_2 (InputLayer)            (None, 224, 224, 3)  0                                            
__________________________________________________________________________________________________
zero_padding2d_2 (ZeroPadding2D (None, 230, 230, 3)  0           input_2[0][0]                    
__________________________________________________________________________________________________
lambda_1 (Lambda)               [(None, 230, 230, 3) 0           zero_padding2d_2[0][0]           
__________________________________________________________________________________________________
conv2d_54 (Conv2D)              (None, 112, 112, 21) 3108        lambda_1[0][0]                   
__________________________________________________________________________________________________
conv2d_55 (Conv2D)              (None, 112, 112, 21) 3108        lambda_1[0][1]                   
__________________________________________________________________________________________________
conv2d_56 (Conv2D)              (None, 112, 112, 22) 3256        lambda_1[0][2]                   
__________________________________________________________________________________________________
concatenate_1 (Concatenate)     (None, 112, 112, 64) 0           conv2d_54[0][0]                  
                                                                 conv2d_55[0][0]                  
                                                                 conv2d_56[0][0]                  
__________________________________________________________________________________________________
max_pooling2d_2 (MaxPooling2D)  (None, 55, 55, 64)   0           concatenate_1[0][0]              
__________________________________________________________________________________________________
lambda_2 (Lambda)               [(None, 55, 55, 64), 0           max_pooling2d_2[0][0]            
__________________________________________________________________________________________________
conv2d_57 (Conv2D)              (None, 55, 55, 21)   1365        lambda_2[0][0]                   
__________________________________________________________________________________________________
conv2d_58 (Conv2D)              (None, 55, 55, 21)   1365        lambda_2[0][1]                   
__________________________________________________________________________________________________
conv2d_59 (Conv2D)              (None, 55, 55, 22)   1430        lambda_2[0][2]                   
__________________________________________________________________________________________________
concatenate_2 (Concatenate)     (None, 55, 55, 64)   0           conv2d_57[0][0]                  
                                                                 conv2d_58[0][0]                  
                                                                 conv2d_59[0][0]                  
__________________________________________________________________________________________________
lambda_3 (Lambda)               [(None, 55, 55, 64), 0           concatenate_2[0][0]              
__________________________________________________________________________________________________
conv2d_60 (Conv2D)              (None, 55, 55, 21)   12117       lambda_3[0][0]                   
__________________________________________________________________________________________________
conv2d_61 (Conv2D)              (None, 55, 55, 21)   12117       lambda_3[0][1]                   
__________________________________________________________________________________________________
conv2d_62 (Conv2D)              (None, 55, 55, 22)   12694       lambda_3[0][2]                   
__________________________________________________________________________________________________
concatenate_3 (Concatenate)     (None, 55, 55, 64)   0           conv2d_60[0][0]                  
                                                                 conv2d_61[0][0]                  
                                                                 conv2d_62[0][0]                  
__________________________________________________________________________________________________
lambda_4 (Lambda)               [(None, 55, 55, 64), 0           concatenate_3[0][0]              
__________________________________________________________________________________________________
lambda_5 (Lambda)               [(None, 55, 55, 64), 0           max_pooling2d_2[0][0]            
__________________________________________________________________________________________________
conv2d_63 (Conv2D)              (None, 55, 55, 85)   5525        lambda_4[0][0]                   
__________________________________________________________________________________________________
conv2d_64 (Conv2D)              (None, 55, 55, 85)   5525        lambda_4[0][1]                   
__________________________________________________________________________________________________
conv2d_65 (Conv2D)              (None, 55, 55, 86)   5590        lambda_4[0][2]                   
__________________________________________________________________________________________________
conv2d_66 (Conv2D)              (None, 55, 55, 85)   5525        lambda_5[0][0]                   
__________________________________________________________________________________________________
conv2d_67 (Conv2D)              (None, 55, 55, 85)   5525        lambda_5[0][1]                   
__________________________________________________________________________________________________
conv2d_68 (Conv2D)              (None, 55, 55, 86)   5590        lambda_5[0][2]                   
__________________________________________________________________________________________________
concatenate_4 (Concatenate)     (None, 55, 55, 256)  0           conv2d_63[0][0]                  
                                                                 conv2d_64[0][0]                  
                                                                 conv2d_65[0][0]                  
__________________________________________________________________________________________________
concatenate_5 (Concatenate)     (None, 55, 55, 256)  0           conv2d_66[0][0]                  
                                                                 conv2d_67[0][0]                  
                                                                 conv2d_68[0][0]                  
__________________________________________________________________________________________________
add_17 (Add)                    (None, 55, 55, 256)  0           concatenate_4[0][0]              
                                                                 concatenate_5[0][0]              
__________________________________________________________________________________________________
activation_17 (Activation)      (None, 55, 55, 256)  0           add_17[0][0]                     
__________________________________________________________________________________________________
lambda_6 (Lambda)               [(None, 55, 55, 256) 0           activation_17[0][0]              
__________________________________________________________________________________________________
conv2d_69 (Conv2D)              (None, 55, 55, 21)   5397        lambda_6[0][0]                   
__________________________________________________________________________________________________
conv2d_70 (Conv2D)              (None, 55, 55, 21)   5397        lambda_6[0][1]                   
__________________________________________________________________________________________________
conv2d_71 (Conv2D)              (None, 55, 55, 22)   5654        lambda_6[0][2]                   
__________________________________________________________________________________________________
concatenate_6 (Concatenate)     (None, 55, 55, 64)   0           conv2d_69[0][0]                  
                                                                 conv2d_70[0][0]                  
                                                                 conv2d_71[0][0]                  
__________________________________________________________________________________________________
lambda_7 (Lambda)               [(None, 55, 55, 64), 0           concatenate_6[0][0]              
__________________________________________________________________________________________________
conv2d_72 (Conv2D)              (None, 55, 55, 21)   12117       lambda_7[0][0]                   
__________________________________________________________________________________________________
conv2d_73 (Conv2D)              (None, 55, 55, 21)   12117       lambda_7[0][1]                   
__________________________________________________________________________________________________
conv2d_74 (Conv2D)              (None, 55, 55, 22)   12694       lambda_7[0][2]                   
__________________________________________________________________________________________________
concatenate_7 (Concatenate)     (None, 55, 55, 64)   0           conv2d_72[0][0]                  
                                                                 conv2d_73[0][0]                  
                                                                 conv2d_74[0][0]                  
__________________________________________________________________________________________________
lambda_8 (Lambda)               [(None, 55, 55, 64), 0           concatenate_7[0][0]              
__________________________________________________________________________________________________
conv2d_75 (Conv2D)              (None, 55, 55, 85)   5525        lambda_8[0][0]                   
__________________________________________________________________________________________________
conv2d_76 (Conv2D)              (None, 55, 55, 85)   5525        lambda_8[0][1]                   
__________________________________________________________________________________________________
conv2d_77 (Conv2D)              (None, 55, 55, 86)   5590        lambda_8[0][2]                   
__________________________________________________________________________________________________
concatenate_8 (Concatenate)     (None, 55, 55, 256)  0           conv2d_75[0][0]                  
                                                                 conv2d_76[0][0]                  
                                                                 conv2d_77[0][0]                  
__________________________________________________________________________________________________
add_18 (Add)                    (None, 55, 55, 256)  0           concatenate_8[0][0]              
                                                                 activation_17[0][0]              
__________________________________________________________________________________________________
activation_18 (Activation)      (None, 55, 55, 256)  0           add_18[0][0]                     
__________________________________________________________________________________________________
lambda_9 (Lambda)               [(None, 55, 55, 256) 0           activation_18[0][0]              
__________________________________________________________________________________________________
conv2d_78 (Conv2D)              (None, 55, 55, 21)   5397        lambda_9[0][0]                   
__________________________________________________________________________________________________
conv2d_79 (Conv2D)              (None, 55, 55, 21)   5397        lambda_9[0][1]                   
__________________________________________________________________________________________________
conv2d_80 (Conv2D)              (None, 55, 55, 22)   5654        lambda_9[0][2]                   
__________________________________________________________________________________________________
concatenate_9 (Concatenate)     (None, 55, 55, 64)   0           conv2d_78[0][0]                  
                                                                 conv2d_79[0][0]                  
                                                                 conv2d_80[0][0]                  
__________________________________________________________________________________________________
lambda_10 (Lambda)              [(None, 55, 55, 64), 0           concatenate_9[0][0]              
__________________________________________________________________________________________________
conv2d_81 (Conv2D)              (None, 55, 55, 21)   12117       lambda_10[0][0]                  
__________________________________________________________________________________________________
conv2d_82 (Conv2D)              (None, 55, 55, 21)   12117       lambda_10[0][1]                  
__________________________________________________________________________________________________
conv2d_83 (Conv2D)              (None, 55, 55, 22)   12694       lambda_10[0][2]                  
__________________________________________________________________________________________________
concatenate_10 (Concatenate)    (None, 55, 55, 64)   0           conv2d_81[0][0]                  
                                                                 conv2d_82[0][0]                  
                                                                 conv2d_83[0][0]                  
__________________________________________________________________________________________________
lambda_11 (Lambda)              [(None, 55, 55, 64), 0           concatenate_10[0][0]             
__________________________________________________________________________________________________
conv2d_84 (Conv2D)              (None, 55, 55, 85)   5525        lambda_11[0][0]                  
__________________________________________________________________________________________________
conv2d_85 (Conv2D)              (None, 55, 55, 85)   5525        lambda_11[0][1]                  
__________________________________________________________________________________________________
conv2d_86 (Conv2D)              (None, 55, 55, 86)   5590        lambda_11[0][2]                  
__________________________________________________________________________________________________
concatenate_11 (Concatenate)    (None, 55, 55, 256)  0           conv2d_84[0][0]                  
                                                                 conv2d_85[0][0]                  
                                                                 conv2d_86[0][0]                  
__________________________________________________________________________________________________
add_19 (Add)                    (None, 55, 55, 256)  0           concatenate_11[0][0]             
                                                                 activation_18[0][0]              
__________________________________________________________________________________________________
activation_19 (Activation)      (None, 55, 55, 256)  0           add_19[0][0]                     
__________________________________________________________________________________________________
lambda_12 (Lambda)              [(None, 55, 55, 256) 0           activation_19[0][0]              
__________________________________________________________________________________________________
conv2d_87 (Conv2D)              (None, 28, 28, 42)   10794       lambda_12[0][0]                  
__________________________________________________________________________________________________
conv2d_88 (Conv2D)              (None, 28, 28, 42)   10794       lambda_12[0][1]                  
__________________________________________________________________________________________________
conv2d_89 (Conv2D)              (None, 28, 28, 44)   11308       lambda_12[0][2]                  
__________________________________________________________________________________________________
concatenate_12 (Concatenate)    (None, 28, 28, 128)  0           conv2d_87[0][0]                  
                                                                 conv2d_88[0][0]                  
                                                                 conv2d_89[0][0]                  
__________________________________________________________________________________________________
lambda_13 (Lambda)              [(None, 28, 28, 128) 0           concatenate_12[0][0]             
__________________________________________________________________________________________________
conv2d_90 (Conv2D)              (None, 28, 28, 42)   48426       lambda_13[0][0]                  
__________________________________________________________________________________________________
conv2d_91 (Conv2D)              (None, 28, 28, 42)   48426       lambda_13[0][1]                  
__________________________________________________________________________________________________
conv2d_92 (Conv2D)              (None, 28, 28, 44)   50732       lambda_13[0][2]                  
__________________________________________________________________________________________________
concatenate_13 (Concatenate)    (None, 28, 28, 128)  0           conv2d_90[0][0]                  
                                                                 conv2d_91[0][0]                  
                                                                 conv2d_92[0][0]                  
__________________________________________________________________________________________________
lambda_14 (Lambda)              [(None, 28, 28, 128) 0           concatenate_13[0][0]             
__________________________________________________________________________________________________
lambda_15 (Lambda)              [(None, 55, 55, 256) 0           activation_19[0][0]              
__________________________________________________________________________________________________
conv2d_93 (Conv2D)              (None, 28, 28, 170)  21930       lambda_14[0][0]                  
__________________________________________________________________________________________________
conv2d_94 (Conv2D)              (None, 28, 28, 170)  21930       lambda_14[0][1]                  
__________________________________________________________________________________________________
conv2d_95 (Conv2D)              (None, 28, 28, 172)  22188       lambda_14[0][2]                  
__________________________________________________________________________________________________
conv2d_96 (Conv2D)              (None, 28, 28, 170)  43690       lambda_15[0][0]                  
__________________________________________________________________________________________________
conv2d_97 (Conv2D)              (None, 28, 28, 170)  43690       lambda_15[0][1]                  
__________________________________________________________________________________________________
conv2d_98 (Conv2D)              (None, 28, 28, 172)  44204       lambda_15[0][2]                  
__________________________________________________________________________________________________
concatenate_14 (Concatenate)    (None, 28, 28, 512)  0           conv2d_93[0][0]                  
                                                                 conv2d_94[0][0]                  
                                                                 conv2d_95[0][0]                  
__________________________________________________________________________________________________
concatenate_15 (Concatenate)    (None, 28, 28, 512)  0           conv2d_96[0][0]                  
                                                                 conv2d_97[0][0]                  
                                                                 conv2d_98[0][0]                  
__________________________________________________________________________________________________
add_20 (Add)                    (None, 28, 28, 512)  0           concatenate_14[0][0]             
                                                                 concatenate_15[0][0]             
__________________________________________________________________________________________________
activation_20 (Activation)      (None, 28, 28, 512)  0           add_20[0][0]                     
__________________________________________________________________________________________________
lambda_16 (Lambda)              [(None, 28, 28, 512) 0           activation_20[0][0]              
__________________________________________________________________________________________________
conv2d_99 (Conv2D)              (None, 28, 28, 42)   21546       lambda_16[0][0]                  
__________________________________________________________________________________________________
conv2d_100 (Conv2D)             (None, 28, 28, 42)   21546       lambda_16[0][1]                  
__________________________________________________________________________________________________
conv2d_101 (Conv2D)             (None, 28, 28, 44)   22572       lambda_16[0][2]                  
__________________________________________________________________________________________________
concatenate_16 (Concatenate)    (None, 28, 28, 128)  0           conv2d_99[0][0]                  
                                                                 conv2d_100[0][0]                 
                                                                 conv2d_101[0][0]                 
__________________________________________________________________________________________________
lambda_17 (Lambda)              [(None, 28, 28, 128) 0           concatenate_16[0][0]             
__________________________________________________________________________________________________
conv2d_102 (Conv2D)             (None, 28, 28, 42)   48426       lambda_17[0][0]                  
__________________________________________________________________________________________________
conv2d_103 (Conv2D)             (None, 28, 28, 42)   48426       lambda_17[0][1]                  
__________________________________________________________________________________________________
conv2d_104 (Conv2D)             (None, 28, 28, 44)   50732       lambda_17[0][2]                  
__________________________________________________________________________________________________
concatenate_17 (Concatenate)    (None, 28, 28, 128)  0           conv2d_102[0][0]                 
                                                                 conv2d_103[0][0]                 
                                                                 conv2d_104[0][0]                 
__________________________________________________________________________________________________
lambda_18 (Lambda)              [(None, 28, 28, 128) 0           concatenate_17[0][0]             
__________________________________________________________________________________________________
conv2d_105 (Conv2D)             (None, 28, 28, 170)  21930       lambda_18[0][0]                  
__________________________________________________________________________________________________
conv2d_106 (Conv2D)             (None, 28, 28, 170)  21930       lambda_18[0][1]                  
__________________________________________________________________________________________________
conv2d_107 (Conv2D)             (None, 28, 28, 172)  22188       lambda_18[0][2]                  
__________________________________________________________________________________________________
concatenate_18 (Concatenate)    (None, 28, 28, 512)  0           conv2d_105[0][0]                 
                                                                 conv2d_106[0][0]                 
                                                                 conv2d_107[0][0]                 
__________________________________________________________________________________________________
add_21 (Add)                    (None, 28, 28, 512)  0           concatenate_18[0][0]             
                                                                 activation_20[0][0]              
__________________________________________________________________________________________________
activation_21 (Activation)      (None, 28, 28, 512)  0           add_21[0][0]                     
__________________________________________________________________________________________________
lambda_19 (Lambda)              [(None, 28, 28, 512) 0           activation_21[0][0]              
__________________________________________________________________________________________________
conv2d_108 (Conv2D)             (None, 28, 28, 42)   21546       lambda_19[0][0]                  
__________________________________________________________________________________________________
conv2d_109 (Conv2D)             (None, 28, 28, 42)   21546       lambda_19[0][1]                  
__________________________________________________________________________________________________
conv2d_110 (Conv2D)             (None, 28, 28, 44)   22572       lambda_19[0][2]                  
__________________________________________________________________________________________________
concatenate_19 (Concatenate)    (None, 28, 28, 128)  0           conv2d_108[0][0]                 
                                                                 conv2d_109[0][0]                 
                                                                 conv2d_110[0][0]                 
__________________________________________________________________________________________________
lambda_20 (Lambda)              [(None, 28, 28, 128) 0           concatenate_19[0][0]             
__________________________________________________________________________________________________
conv2d_111 (Conv2D)             (None, 28, 28, 42)   48426       lambda_20[0][0]                  
__________________________________________________________________________________________________
conv2d_112 (Conv2D)             (None, 28, 28, 42)   48426       lambda_20[0][1]                  
__________________________________________________________________________________________________
conv2d_113 (Conv2D)             (None, 28, 28, 44)   50732       lambda_20[0][2]                  
__________________________________________________________________________________________________
concatenate_20 (Concatenate)    (None, 28, 28, 128)  0           conv2d_111[0][0]                 
                                                                 conv2d_112[0][0]                 
                                                                 conv2d_113[0][0]                 
__________________________________________________________________________________________________
lambda_21 (Lambda)              [(None, 28, 28, 128) 0           concatenate_20[0][0]             
__________________________________________________________________________________________________
conv2d_114 (Conv2D)             (None, 28, 28, 170)  21930       lambda_21[0][0]                  
__________________________________________________________________________________________________
conv2d_115 (Conv2D)             (None, 28, 28, 170)  21930       lambda_21[0][1]                  
__________________________________________________________________________________________________
conv2d_116 (Conv2D)             (None, 28, 28, 172)  22188       lambda_21[0][2]                  
__________________________________________________________________________________________________
concatenate_21 (Concatenate)    (None, 28, 28, 512)  0           conv2d_114[0][0]                 
                                                                 conv2d_115[0][0]                 
                                                                 conv2d_116[0][0]                 
__________________________________________________________________________________________________
add_22 (Add)                    (None, 28, 28, 512)  0           concatenate_21[0][0]             
                                                                 activation_21[0][0]              
__________________________________________________________________________________________________
activation_22 (Activation)      (None, 28, 28, 512)  0           add_22[0][0]                     
__________________________________________________________________________________________________
lambda_22 (Lambda)              [(None, 28, 28, 512) 0           activation_22[0][0]              
__________________________________________________________________________________________________
conv2d_117 (Conv2D)             (None, 28, 28, 42)   21546       lambda_22[0][0]                  
__________________________________________________________________________________________________
conv2d_118 (Conv2D)             (None, 28, 28, 42)   21546       lambda_22[0][1]                  
__________________________________________________________________________________________________
conv2d_119 (Conv2D)             (None, 28, 28, 44)   22572       lambda_22[0][2]                  
__________________________________________________________________________________________________
concatenate_22 (Concatenate)    (None, 28, 28, 128)  0           conv2d_117[0][0]                 
                                                                 conv2d_118[0][0]                 
                                                                 conv2d_119[0][0]                 
__________________________________________________________________________________________________
lambda_23 (Lambda)              [(None, 28, 28, 128) 0           concatenate_22[0][0]             
__________________________________________________________________________________________________
conv2d_120 (Conv2D)             (None, 28, 28, 42)   48426       lambda_23[0][0]                  
__________________________________________________________________________________________________
conv2d_121 (Conv2D)             (None, 28, 28, 42)   48426       lambda_23[0][1]                  
__________________________________________________________________________________________________
conv2d_122 (Conv2D)             (None, 28, 28, 44)   50732       lambda_23[0][2]                  
__________________________________________________________________________________________________
concatenate_23 (Concatenate)    (None, 28, 28, 128)  0           conv2d_120[0][0]                 
                                                                 conv2d_121[0][0]                 
                                                                 conv2d_122[0][0]                 
__________________________________________________________________________________________________
lambda_24 (Lambda)              [(None, 28, 28, 128) 0           concatenate_23[0][0]             
__________________________________________________________________________________________________
conv2d_123 (Conv2D)             (None, 28, 28, 170)  21930       lambda_24[0][0]                  
__________________________________________________________________________________________________
conv2d_124 (Conv2D)             (None, 28, 28, 170)  21930       lambda_24[0][1]                  
__________________________________________________________________________________________________
conv2d_125 (Conv2D)             (None, 28, 28, 172)  22188       lambda_24[0][2]                  
__________________________________________________________________________________________________
concatenate_24 (Concatenate)    (None, 28, 28, 512)  0           conv2d_123[0][0]                 
                                                                 conv2d_124[0][0]                 
                                                                 conv2d_125[0][0]                 
__________________________________________________________________________________________________
add_23 (Add)                    (None, 28, 28, 512)  0           concatenate_24[0][0]             
                                                                 activation_22[0][0]              
__________________________________________________________________________________________________
activation_23 (Activation)      (None, 28, 28, 512)  0           add_23[0][0]                     
__________________________________________________________________________________________________
lambda_25 (Lambda)              [(None, 28, 28, 512) 0           activation_23[0][0]              
__________________________________________________________________________________________________
conv2d_126 (Conv2D)             (None, 14, 14, 85)   43605       lambda_25[0][0]                  
__________________________________________________________________________________________________
conv2d_127 (Conv2D)             (None, 14, 14, 85)   43605       lambda_25[0][1]                  
__________________________________________________________________________________________________
conv2d_128 (Conv2D)             (None, 14, 14, 86)   44118       lambda_25[0][2]                  
__________________________________________________________________________________________________
concatenate_25 (Concatenate)    (None, 14, 14, 256)  0           conv2d_126[0][0]                 
                                                                 conv2d_127[0][0]                 
                                                                 conv2d_128[0][0]                 
__________________________________________________________________________________________________
lambda_26 (Lambda)              [(None, 14, 14, 256) 0           concatenate_25[0][0]             
__________________________________________________________________________________________________
conv2d_129 (Conv2D)             (None, 14, 14, 85)   195925      lambda_26[0][0]                  
__________________________________________________________________________________________________
conv2d_130 (Conv2D)             (None, 14, 14, 85)   195925      lambda_26[0][1]                  
__________________________________________________________________________________________________
conv2d_131 (Conv2D)             (None, 14, 14, 86)   198230      lambda_26[0][2]                  
__________________________________________________________________________________________________
concatenate_26 (Concatenate)    (None, 14, 14, 256)  0           conv2d_129[0][0]                 
                                                                 conv2d_130[0][0]                 
                                                                 conv2d_131[0][0]                 
__________________________________________________________________________________________________
lambda_27 (Lambda)              [(None, 14, 14, 256) 0           concatenate_26[0][0]             
__________________________________________________________________________________________________
lambda_28 (Lambda)              [(None, 28, 28, 512) 0           activation_23[0][0]              
__________________________________________________________________________________________________
conv2d_132 (Conv2D)             (None, 14, 14, 341)  87637       lambda_27[0][0]                  
__________________________________________________________________________________________________
conv2d_133 (Conv2D)             (None, 14, 14, 341)  87637       lambda_27[0][1]                  
__________________________________________________________________________________________________
conv2d_134 (Conv2D)             (None, 14, 14, 342)  87894       lambda_27[0][2]                  
__________________________________________________________________________________________________
conv2d_135 (Conv2D)             (None, 14, 14, 341)  174933      lambda_28[0][0]                  
__________________________________________________________________________________________________
conv2d_136 (Conv2D)             (None, 14, 14, 341)  174933      lambda_28[0][1]                  
__________________________________________________________________________________________________
conv2d_137 (Conv2D)             (None, 14, 14, 342)  175446      lambda_28[0][2]                  
__________________________________________________________________________________________________
concatenate_27 (Concatenate)    (None, 14, 14, 1024) 0           conv2d_132[0][0]                 
                                                                 conv2d_133[0][0]                 
                                                                 conv2d_134[0][0]                 
__________________________________________________________________________________________________
concatenate_28 (Concatenate)    (None, 14, 14, 1024) 0           conv2d_135[0][0]                 
                                                                 conv2d_136[0][0]                 
                                                                 conv2d_137[0][0]                 
__________________________________________________________________________________________________
add_24 (Add)                    (None, 14, 14, 1024) 0           concatenate_27[0][0]             
                                                                 concatenate_28[0][0]             
__________________________________________________________________________________________________
activation_24 (Activation)      (None, 14, 14, 1024) 0           add_24[0][0]                     
__________________________________________________________________________________________________
lambda_29 (Lambda)              [(None, 14, 14, 1024 0           activation_24[0][0]              
__________________________________________________________________________________________________
conv2d_138 (Conv2D)             (None, 14, 14, 85)   87125       lambda_29[0][0]                  
__________________________________________________________________________________________________
conv2d_139 (Conv2D)             (None, 14, 14, 85)   87125       lambda_29[0][1]                  
__________________________________________________________________________________________________
conv2d_140 (Conv2D)             (None, 14, 14, 86)   88150       lambda_29[0][2]                  
__________________________________________________________________________________________________
concatenate_29 (Concatenate)    (None, 14, 14, 256)  0           conv2d_138[0][0]                 
                                                                 conv2d_139[0][0]                 
                                                                 conv2d_140[0][0]                 
__________________________________________________________________________________________________
lambda_30 (Lambda)              [(None, 14, 14, 256) 0           concatenate_29[0][0]             
__________________________________________________________________________________________________
conv2d_141 (Conv2D)             (None, 14, 14, 85)   195925      lambda_30[0][0]                  
__________________________________________________________________________________________________
conv2d_142 (Conv2D)             (None, 14, 14, 85)   195925      lambda_30[0][1]                  
__________________________________________________________________________________________________
conv2d_143 (Conv2D)             (None, 14, 14, 86)   198230      lambda_30[0][2]                  
__________________________________________________________________________________________________
concatenate_30 (Concatenate)    (None, 14, 14, 256)  0           conv2d_141[0][0]                 
                                                                 conv2d_142[0][0]                 
                                                                 conv2d_143[0][0]                 
__________________________________________________________________________________________________
lambda_31 (Lambda)              [(None, 14, 14, 256) 0           concatenate_30[0][0]             
__________________________________________________________________________________________________
conv2d_144 (Conv2D)             (None, 14, 14, 341)  87637       lambda_31[0][0]                  
__________________________________________________________________________________________________
conv2d_145 (Conv2D)             (None, 14, 14, 341)  87637       lambda_31[0][1]                  
__________________________________________________________________________________________________
conv2d_146 (Conv2D)             (None, 14, 14, 342)  87894       lambda_31[0][2]                  
__________________________________________________________________________________________________
concatenate_31 (Concatenate)    (None, 14, 14, 1024) 0           conv2d_144[0][0]                 
                                                                 conv2d_145[0][0]                 
                                                                 conv2d_146[0][0]                 
__________________________________________________________________________________________________
add_25 (Add)                    (None, 14, 14, 1024) 0           concatenate_31[0][0]             
                                                                 activation_24[0][0]              
__________________________________________________________________________________________________
activation_25 (Activation)      (None, 14, 14, 1024) 0           add_25[0][0]                     
__________________________________________________________________________________________________
lambda_32 (Lambda)              [(None, 14, 14, 1024 0           activation_25[0][0]              
__________________________________________________________________________________________________
conv2d_147 (Conv2D)             (None, 14, 14, 85)   87125       lambda_32[0][0]                  
__________________________________________________________________________________________________
conv2d_148 (Conv2D)             (None, 14, 14, 85)   87125       lambda_32[0][1]                  
__________________________________________________________________________________________________
conv2d_149 (Conv2D)             (None, 14, 14, 86)   88150       lambda_32[0][2]                  
__________________________________________________________________________________________________
concatenate_32 (Concatenate)    (None, 14, 14, 256)  0           conv2d_147[0][0]                 
                                                                 conv2d_148[0][0]                 
                                                                 conv2d_149[0][0]                 
__________________________________________________________________________________________________
lambda_33 (Lambda)              [(None, 14, 14, 256) 0           concatenate_32[0][0]             
__________________________________________________________________________________________________
conv2d_150 (Conv2D)             (None, 14, 14, 85)   195925      lambda_33[0][0]                  
__________________________________________________________________________________________________
conv2d_151 (Conv2D)             (None, 14, 14, 85)   195925      lambda_33[0][1]                  
__________________________________________________________________________________________________
conv2d_152 (Conv2D)             (None, 14, 14, 86)   198230      lambda_33[0][2]                  
__________________________________________________________________________________________________
concatenate_33 (Concatenate)    (None, 14, 14, 256)  0           conv2d_150[0][0]                 
                                                                 conv2d_151[0][0]                 
                                                                 conv2d_152[0][0]                 
__________________________________________________________________________________________________
lambda_34 (Lambda)              [(None, 14, 14, 256) 0           concatenate_33[0][0]             
__________________________________________________________________________________________________
conv2d_153 (Conv2D)             (None, 14, 14, 341)  87637       lambda_34[0][0]                  
__________________________________________________________________________________________________
conv2d_154 (Conv2D)             (None, 14, 14, 341)  87637       lambda_34[0][1]                  
__________________________________________________________________________________________________
conv2d_155 (Conv2D)             (None, 14, 14, 342)  87894       lambda_34[0][2]                  
__________________________________________________________________________________________________
concatenate_34 (Concatenate)    (None, 14, 14, 1024) 0           conv2d_153[0][0]                 
                                                                 conv2d_154[0][0]                 
                                                                 conv2d_155[0][0]                 
__________________________________________________________________________________________________
add_26 (Add)                    (None, 14, 14, 1024) 0           concatenate_34[0][0]             
                                                                 activation_25[0][0]              
__________________________________________________________________________________________________
activation_26 (Activation)      (None, 14, 14, 1024) 0           add_26[0][0]                     
__________________________________________________________________________________________________
lambda_35 (Lambda)              [(None, 14, 14, 1024 0           activation_26[0][0]              
__________________________________________________________________________________________________
conv2d_156 (Conv2D)             (None, 14, 14, 85)   87125       lambda_35[0][0]                  
__________________________________________________________________________________________________
conv2d_157 (Conv2D)             (None, 14, 14, 85)   87125       lambda_35[0][1]                  
__________________________________________________________________________________________________
conv2d_158 (Conv2D)             (None, 14, 14, 86)   88150       lambda_35[0][2]                  
__________________________________________________________________________________________________
concatenate_35 (Concatenate)    (None, 14, 14, 256)  0           conv2d_156[0][0]                 
                                                                 conv2d_157[0][0]                 
                                                                 conv2d_158[0][0]                 
__________________________________________________________________________________________________
lambda_36 (Lambda)              [(None, 14, 14, 256) 0           concatenate_35[0][0]             
__________________________________________________________________________________________________
conv2d_159 (Conv2D)             (None, 14, 14, 85)   195925      lambda_36[0][0]                  
__________________________________________________________________________________________________
conv2d_160 (Conv2D)             (None, 14, 14, 85)   195925      lambda_36[0][1]                  
__________________________________________________________________________________________________
conv2d_161 (Conv2D)             (None, 14, 14, 86)   198230      lambda_36[0][2]                  
__________________________________________________________________________________________________
concatenate_36 (Concatenate)    (None, 14, 14, 256)  0           conv2d_159[0][0]                 
                                                                 conv2d_160[0][0]                 
                                                                 conv2d_161[0][0]                 
__________________________________________________________________________________________________
lambda_37 (Lambda)              [(None, 14, 14, 256) 0           concatenate_36[0][0]             
__________________________________________________________________________________________________
conv2d_162 (Conv2D)             (None, 14, 14, 341)  87637       lambda_37[0][0]                  
__________________________________________________________________________________________________
conv2d_163 (Conv2D)             (None, 14, 14, 341)  87637       lambda_37[0][1]                  
__________________________________________________________________________________________________
conv2d_164 (Conv2D)             (None, 14, 14, 342)  87894       lambda_37[0][2]                  
__________________________________________________________________________________________________
concatenate_37 (Concatenate)    (None, 14, 14, 1024) 0           conv2d_162[0][0]                 
                                                                 conv2d_163[0][0]                 
                                                                 conv2d_164[0][0]                 
__________________________________________________________________________________________________
add_27 (Add)                    (None, 14, 14, 1024) 0           concatenate_37[0][0]             
                                                                 activation_26[0][0]              
__________________________________________________________________________________________________
activation_27 (Activation)      (None, 14, 14, 1024) 0           add_27[0][0]                     
__________________________________________________________________________________________________
lambda_38 (Lambda)              [(None, 14, 14, 1024 0           activation_27[0][0]              
__________________________________________________________________________________________________
conv2d_165 (Conv2D)             (None, 14, 14, 85)   87125       lambda_38[0][0]                  
__________________________________________________________________________________________________
conv2d_166 (Conv2D)             (None, 14, 14, 85)   87125       lambda_38[0][1]                  
__________________________________________________________________________________________________
conv2d_167 (Conv2D)             (None, 14, 14, 86)   88150       lambda_38[0][2]                  
__________________________________________________________________________________________________
concatenate_38 (Concatenate)    (None, 14, 14, 256)  0           conv2d_165[0][0]                 
                                                                 conv2d_166[0][0]                 
                                                                 conv2d_167[0][0]                 
__________________________________________________________________________________________________
lambda_39 (Lambda)              [(None, 14, 14, 256) 0           concatenate_38[0][0]             
__________________________________________________________________________________________________
conv2d_168 (Conv2D)             (None, 14, 14, 85)   195925      lambda_39[0][0]                  
__________________________________________________________________________________________________
conv2d_169 (Conv2D)             (None, 14, 14, 85)   195925      lambda_39[0][1]                  
__________________________________________________________________________________________________
conv2d_170 (Conv2D)             (None, 14, 14, 86)   198230      lambda_39[0][2]                  
__________________________________________________________________________________________________
concatenate_39 (Concatenate)    (None, 14, 14, 256)  0           conv2d_168[0][0]                 
                                                                 conv2d_169[0][0]                 
                                                                 conv2d_170[0][0]                 
__________________________________________________________________________________________________
lambda_40 (Lambda)              [(None, 14, 14, 256) 0           concatenate_39[0][0]             
__________________________________________________________________________________________________
conv2d_171 (Conv2D)             (None, 14, 14, 341)  87637       lambda_40[0][0]                  
__________________________________________________________________________________________________
conv2d_172 (Conv2D)             (None, 14, 14, 341)  87637       lambda_40[0][1]                  
__________________________________________________________________________________________________
conv2d_173 (Conv2D)             (None, 14, 14, 342)  87894       lambda_40[0][2]                  
__________________________________________________________________________________________________
concatenate_40 (Concatenate)    (None, 14, 14, 1024) 0           conv2d_171[0][0]                 
                                                                 conv2d_172[0][0]                 
                                                                 conv2d_173[0][0]                 
__________________________________________________________________________________________________
add_28 (Add)                    (None, 14, 14, 1024) 0           concatenate_40[0][0]             
                                                                 activation_27[0][0]              
__________________________________________________________________________________________________
activation_28 (Activation)      (None, 14, 14, 1024) 0           add_28[0][0]                     
__________________________________________________________________________________________________
lambda_41 (Lambda)              [(None, 14, 14, 1024 0           activation_28[0][0]              
__________________________________________________________________________________________________
conv2d_174 (Conv2D)             (None, 14, 14, 85)   87125       lambda_41[0][0]                  
__________________________________________________________________________________________________
conv2d_175 (Conv2D)             (None, 14, 14, 85)   87125       lambda_41[0][1]                  
__________________________________________________________________________________________________
conv2d_176 (Conv2D)             (None, 14, 14, 86)   88150       lambda_41[0][2]                  
__________________________________________________________________________________________________
concatenate_41 (Concatenate)    (None, 14, 14, 256)  0           conv2d_174[0][0]                 
                                                                 conv2d_175[0][0]                 
                                                                 conv2d_176[0][0]                 
__________________________________________________________________________________________________
lambda_42 (Lambda)              [(None, 14, 14, 256) 0           concatenate_41[0][0]             
__________________________________________________________________________________________________
conv2d_177 (Conv2D)             (None, 14, 14, 85)   195925      lambda_42[0][0]                  
__________________________________________________________________________________________________
conv2d_178 (Conv2D)             (None, 14, 14, 85)   195925      lambda_42[0][1]                  
__________________________________________________________________________________________________
conv2d_179 (Conv2D)             (None, 14, 14, 86)   198230      lambda_42[0][2]                  
__________________________________________________________________________________________________
concatenate_42 (Concatenate)    (None, 14, 14, 256)  0           conv2d_177[0][0]                 
                                                                 conv2d_178[0][0]                 
                                                                 conv2d_179[0][0]                 
__________________________________________________________________________________________________
lambda_43 (Lambda)              [(None, 14, 14, 256) 0           concatenate_42[0][0]             
__________________________________________________________________________________________________
conv2d_180 (Conv2D)             (None, 14, 14, 341)  87637       lambda_43[0][0]                  
__________________________________________________________________________________________________
conv2d_181 (Conv2D)             (None, 14, 14, 341)  87637       lambda_43[0][1]                  
__________________________________________________________________________________________________
conv2d_182 (Conv2D)             (None, 14, 14, 342)  87894       lambda_43[0][2]                  
__________________________________________________________________________________________________
concatenate_43 (Concatenate)    (None, 14, 14, 1024) 0           conv2d_180[0][0]                 
                                                                 conv2d_181[0][0]                 
                                                                 conv2d_182[0][0]                 
__________________________________________________________________________________________________
add_29 (Add)                    (None, 14, 14, 1024) 0           concatenate_43[0][0]             
                                                                 activation_28[0][0]              
__________________________________________________________________________________________________
activation_29 (Activation)      (None, 14, 14, 1024) 0           add_29[0][0]                     
__________________________________________________________________________________________________
lambda_44 (Lambda)              [(None, 14, 14, 1024 0           activation_29[0][0]              
__________________________________________________________________________________________________
conv2d_183 (Conv2D)             (None, 7, 7, 170)    174250      lambda_44[0][0]                  
__________________________________________________________________________________________________
conv2d_184 (Conv2D)             (None, 7, 7, 170)    174250      lambda_44[0][1]                  
__________________________________________________________________________________________________
conv2d_185 (Conv2D)             (None, 7, 7, 172)    176300      lambda_44[0][2]                  
__________________________________________________________________________________________________
concatenate_44 (Concatenate)    (None, 7, 7, 512)    0           conv2d_183[0][0]                 
                                                                 conv2d_184[0][0]                 
                                                                 conv2d_185[0][0]                 
__________________________________________________________________________________________________
lambda_45 (Lambda)              [(None, 7, 7, 512),  0           concatenate_44[0][0]             
__________________________________________________________________________________________________
conv2d_186 (Conv2D)             (None, 7, 7, 170)    783530      lambda_45[0][0]                  
__________________________________________________________________________________________________
conv2d_187 (Conv2D)             (None, 7, 7, 170)    783530      lambda_45[0][1]                  
__________________________________________________________________________________________________
conv2d_188 (Conv2D)             (None, 7, 7, 172)    792748      lambda_45[0][2]                  
__________________________________________________________________________________________________
concatenate_45 (Concatenate)    (None, 7, 7, 512)    0           conv2d_186[0][0]                 
                                                                 conv2d_187[0][0]                 
                                                                 conv2d_188[0][0]                 
__________________________________________________________________________________________________
lambda_46 (Lambda)              [(None, 7, 7, 512),  0           concatenate_45[0][0]             
__________________________________________________________________________________________________
lambda_47 (Lambda)              [(None, 14, 14, 1024 0           activation_29[0][0]              
__________________________________________________________________________________________________
conv2d_189 (Conv2D)             (None, 7, 7, 682)    349866      lambda_46[0][0]                  
__________________________________________________________________________________________________
conv2d_190 (Conv2D)             (None, 7, 7, 682)    349866      lambda_46[0][1]                  
__________________________________________________________________________________________________
conv2d_191 (Conv2D)             (None, 7, 7, 684)    350892      lambda_46[0][2]                  
__________________________________________________________________________________________________
conv2d_192 (Conv2D)             (None, 7, 7, 682)    699050      lambda_47[0][0]                  
__________________________________________________________________________________________________
conv2d_193 (Conv2D)             (None, 7, 7, 682)    699050      lambda_47[0][1]                  
__________________________________________________________________________________________________
conv2d_194 (Conv2D)             (None, 7, 7, 684)    701100      lambda_47[0][2]                  
__________________________________________________________________________________________________
concatenate_46 (Concatenate)    (None, 7, 7, 2048)   0           conv2d_189[0][0]                 
                                                                 conv2d_190[0][0]                 
                                                                 conv2d_191[0][0]                 
__________________________________________________________________________________________________
concatenate_47 (Concatenate)    (None, 7, 7, 2048)   0           conv2d_192[0][0]                 
                                                                 conv2d_193[0][0]                 
                                                                 conv2d_194[0][0]                 
__________________________________________________________________________________________________
add_30 (Add)                    (None, 7, 7, 2048)   0           concatenate_46[0][0]             
                                                                 concatenate_47[0][0]             
__________________________________________________________________________________________________
activation_30 (Activation)      (None, 7, 7, 2048)   0           add_30[0][0]                     
__________________________________________________________________________________________________
lambda_48 (Lambda)              [(None, 7, 7, 2048), 0           activation_30[0][0]              
__________________________________________________________________________________________________
conv2d_195 (Conv2D)             (None, 7, 7, 170)    348330      lambda_48[0][0]                  
__________________________________________________________________________________________________
conv2d_196 (Conv2D)             (None, 7, 7, 170)    348330      lambda_48[0][1]                  
__________________________________________________________________________________________________
conv2d_197 (Conv2D)             (None, 7, 7, 172)    352428      lambda_48[0][2]                  
__________________________________________________________________________________________________
concatenate_48 (Concatenate)    (None, 7, 7, 512)    0           conv2d_195[0][0]                 
                                                                 conv2d_196[0][0]                 
                                                                 conv2d_197[0][0]                 
__________________________________________________________________________________________________
lambda_49 (Lambda)              [(None, 7, 7, 512),  0           concatenate_48[0][0]             
__________________________________________________________________________________________________
conv2d_198 (Conv2D)             (None, 7, 7, 170)    783530      lambda_49[0][0]                  
__________________________________________________________________________________________________
conv2d_199 (Conv2D)             (None, 7, 7, 170)    783530      lambda_49[0][1]                  
__________________________________________________________________________________________________
conv2d_200 (Conv2D)             (None, 7, 7, 172)    792748      lambda_49[0][2]                  
__________________________________________________________________________________________________
concatenate_49 (Concatenate)    (None, 7, 7, 512)    0           conv2d_198[0][0]                 
                                                                 conv2d_199[0][0]                 
                                                                 conv2d_200[0][0]                 
__________________________________________________________________________________________________
lambda_50 (Lambda)              [(None, 7, 7, 512),  0           concatenate_49[0][0]             
__________________________________________________________________________________________________
conv2d_201 (Conv2D)             (None, 7, 7, 682)    349866      lambda_50[0][0]                  
__________________________________________________________________________________________________
conv2d_202 (Conv2D)             (None, 7, 7, 682)    349866      lambda_50[0][1]                  
__________________________________________________________________________________________________
conv2d_203 (Conv2D)             (None, 7, 7, 684)    350892      lambda_50[0][2]                  
__________________________________________________________________________________________________
concatenate_50 (Concatenate)    (None, 7, 7, 2048)   0           conv2d_201[0][0]                 
                                                                 conv2d_202[0][0]                 
                                                                 conv2d_203[0][0]                 
__________________________________________________________________________________________________
add_31 (Add)                    (None, 7, 7, 2048)   0           concatenate_50[0][0]             
                                                                 activation_30[0][0]              
__________________________________________________________________________________________________
activation_31 (Activation)      (None, 7, 7, 2048)   0           add_31[0][0]                     
__________________________________________________________________________________________________
lambda_51 (Lambda)              [(None, 7, 7, 2048), 0           activation_31[0][0]              
__________________________________________________________________________________________________
conv2d_204 (Conv2D)             (None, 7, 7, 170)    348330      lambda_51[0][0]                  
__________________________________________________________________________________________________
conv2d_205 (Conv2D)             (None, 7, 7, 170)    348330      lambda_51[0][1]                  
__________________________________________________________________________________________________
conv2d_206 (Conv2D)             (None, 7, 7, 172)    352428      lambda_51[0][2]                  
__________________________________________________________________________________________________
concatenate_51 (Concatenate)    (None, 7, 7, 512)    0           conv2d_204[0][0]                 
                                                                 conv2d_205[0][0]                 
                                                                 conv2d_206[0][0]                 
__________________________________________________________________________________________________
lambda_52 (Lambda)              [(None, 7, 7, 512),  0           concatenate_51[0][0]             
__________________________________________________________________________________________________
conv2d_207 (Conv2D)             (None, 7, 7, 170)    783530      lambda_52[0][0]                  
__________________________________________________________________________________________________
conv2d_208 (Conv2D)             (None, 7, 7, 170)    783530      lambda_52[0][1]                  
__________________________________________________________________________________________________
conv2d_209 (Conv2D)             (None, 7, 7, 172)    792748      lambda_52[0][2]                  
__________________________________________________________________________________________________
concatenate_52 (Concatenate)    (None, 7, 7, 512)    0           conv2d_207[0][0]                 
                                                                 conv2d_208[0][0]                 
                                                                 conv2d_209[0][0]                 
__________________________________________________________________________________________________
lambda_53 (Lambda)              [(None, 7, 7, 512),  0           concatenate_52[0][0]             
__________________________________________________________________________________________________
conv2d_210 (Conv2D)             (None, 7, 7, 682)    349866      lambda_53[0][0]                  
__________________________________________________________________________________________________
conv2d_211 (Conv2D)             (None, 7, 7, 682)    349866      lambda_53[0][1]                  
__________________________________________________________________________________________________
conv2d_212 (Conv2D)             (None, 7, 7, 684)    350892      lambda_53[0][2]                  
__________________________________________________________________________________________________
concatenate_53 (Concatenate)    (None, 7, 7, 2048)   0           conv2d_210[0][0]                 
                                                                 conv2d_211[0][0]                 
                                                                 conv2d_212[0][0]                 
__________________________________________________________________________________________________
add_32 (Add)                    (None, 7, 7, 2048)   0           concatenate_53[0][0]             
                                                                 activation_31[0][0]              
__________________________________________________________________________________________________
activation_32 (Activation)      (None, 7, 7, 2048)   0           add_32[0][0]                     
__________________________________________________________________________________________________
average_pooling2d_2 (AveragePoo (None, 1, 1, 2048)   0           activation_32[0][0]              
__________________________________________________________________________________________________
flatten_2 (Flatten)             (None, 2048)         0           average_pooling2d_2[0][0]        
__________________________________________________________________________________________________
dense_2 (Dense)                 (None, 1000)         2049000     flatten_2[0][0]                  
==================================================================================================
Total params: 25,530,472
Trainable params: 25,530,472
Non-trainable params: 0
__________________________________________________________________________________________________
None
