__________________________________________________________________________________________________
Layer (type)                    Output Shape         Param #     Connected to                     
==================================================================================================
input_10 (InputLayer)           (None, 224, 224, 3)  0                                            
__________________________________________________________________________________________________
zero_padding2d_20 (ZeroPadding2 (None, 230, 230, 3)  0           input_10[0][0]                   
__________________________________________________________________________________________________
lambda_55 (Lambda)              [(None, 230, 230, 1) 0           zero_padding2d_20[0][0]          
__________________________________________________________________________________________________
conv2d_198 (Conv2D)             (None, 112, 112, 64) 3136        lambda_55[0][0]                  
__________________________________________________________________________________________________
conv2d_199 (Conv2D)             (None, 112, 112, 64) 3136        lambda_55[0][1]                  
__________________________________________________________________________________________________
conv2d_200 (Conv2D)             (None, 112, 112, 64) 3200        lambda_55[0][2]                  
__________________________________________________________________________________________________
add_35 (Add)                    (None, 112, 112, 64) 0           conv2d_198[0][0]                 
                                                                 conv2d_199[0][0]                 
                                                                 conv2d_200[0][0]                 
__________________________________________________________________________________________________
activation_35 (Activation)      (None, 112, 112, 64) 0           add_35[0][0]                     
__________________________________________________________________________________________________
max_pooling2d_30 (MaxPooling2D) (None, 55, 55, 64)   0           activation_35[0][0]              
__________________________________________________________________________________________________
lambda_56 (Lambda)              [(None, 55, 55, 21), 0           max_pooling2d_30[0][0]           
__________________________________________________________________________________________________
conv2d_201 (Conv2D)             (None, 55, 55, 64)   1344        lambda_56[0][0]                  
__________________________________________________________________________________________________
conv2d_202 (Conv2D)             (None, 55, 55, 64)   1344        lambda_56[0][1]                  
__________________________________________________________________________________________________
conv2d_203 (Conv2D)             (None, 55, 55, 64)   1472        lambda_56[0][2]                  
__________________________________________________________________________________________________
add_36 (Add)                    (None, 55, 55, 64)   0           conv2d_201[0][0]                 
                                                                 conv2d_202[0][0]                 
                                                                 conv2d_203[0][0]                 
__________________________________________________________________________________________________
activation_36 (Activation)      (None, 55, 55, 64)   0           add_36[0][0]                     
__________________________________________________________________________________________________
lambda_57 (Lambda)              [(None, 55, 55, 21), 0           activation_36[0][0]              
__________________________________________________________________________________________________
conv2d_204 (Conv2D)             (None, 55, 55, 64)   12096       lambda_57[0][0]                  
__________________________________________________________________________________________________
conv2d_205 (Conv2D)             (None, 55, 55, 64)   12096       lambda_57[0][1]                  
__________________________________________________________________________________________________
conv2d_206 (Conv2D)             (None, 55, 55, 64)   12736       lambda_57[0][2]                  
__________________________________________________________________________________________________
add_37 (Add)                    (None, 55, 55, 64)   0           conv2d_204[0][0]                 
                                                                 conv2d_205[0][0]                 
                                                                 conv2d_206[0][0]                 
__________________________________________________________________________________________________
activation_37 (Activation)      (None, 55, 55, 64)   0           add_37[0][0]                     
__________________________________________________________________________________________________
lambda_58 (Lambda)              [(None, 55, 55, 21), 0           activation_37[0][0]              
__________________________________________________________________________________________________
lambda_59 (Lambda)              [(None, 55, 55, 21), 0           max_pooling2d_30[0][0]           
__________________________________________________________________________________________________
conv2d_207 (Conv2D)             (None, 55, 55, 256)  5376        lambda_58[0][0]                  
__________________________________________________________________________________________________
conv2d_208 (Conv2D)             (None, 55, 55, 256)  5376        lambda_58[0][1]                  
__________________________________________________________________________________________________
conv2d_209 (Conv2D)             (None, 55, 55, 256)  5888        lambda_58[0][2]                  
__________________________________________________________________________________________________
conv2d_210 (Conv2D)             (None, 55, 55, 256)  5376        lambda_59[0][0]                  
__________________________________________________________________________________________________
conv2d_211 (Conv2D)             (None, 55, 55, 256)  5376        lambda_59[0][1]                  
__________________________________________________________________________________________________
conv2d_212 (Conv2D)             (None, 55, 55, 256)  5888        lambda_59[0][2]                  
__________________________________________________________________________________________________
add_38 (Add)                    (None, 55, 55, 256)  0           conv2d_207[0][0]                 
                                                                 conv2d_208[0][0]                 
                                                                 conv2d_209[0][0]                 
__________________________________________________________________________________________________
add_39 (Add)                    (None, 55, 55, 256)  0           conv2d_210[0][0]                 
                                                                 conv2d_211[0][0]                 
                                                                 conv2d_212[0][0]                 
__________________________________________________________________________________________________
add_40 (Add)                    (None, 55, 55, 256)  0           add_38[0][0]                     
                                                                 add_39[0][0]                     
__________________________________________________________________________________________________
activation_38 (Activation)      (None, 55, 55, 256)  0           add_40[0][0]                     
__________________________________________________________________________________________________
lambda_60 (Lambda)              [(None, 55, 55, 85), 0           activation_38[0][0]              
__________________________________________________________________________________________________
conv2d_213 (Conv2D)             (None, 55, 55, 64)   5440        lambda_60[0][0]                  
__________________________________________________________________________________________________
conv2d_214 (Conv2D)             (None, 55, 55, 64)   5440        lambda_60[0][1]                  
__________________________________________________________________________________________________
conv2d_215 (Conv2D)             (None, 55, 55, 64)   5568        lambda_60[0][2]                  
__________________________________________________________________________________________________
add_41 (Add)                    (None, 55, 55, 64)   0           conv2d_213[0][0]                 
                                                                 conv2d_214[0][0]                 
                                                                 conv2d_215[0][0]                 
__________________________________________________________________________________________________
activation_39 (Activation)      (None, 55, 55, 64)   0           add_41[0][0]                     
__________________________________________________________________________________________________
lambda_61 (Lambda)              [(None, 55, 55, 21), 0           activation_39[0][0]              
__________________________________________________________________________________________________
conv2d_216 (Conv2D)             (None, 55, 55, 64)   12096       lambda_61[0][0]                  
__________________________________________________________________________________________________
conv2d_217 (Conv2D)             (None, 55, 55, 64)   12096       lambda_61[0][1]                  
__________________________________________________________________________________________________
conv2d_218 (Conv2D)             (None, 55, 55, 64)   12736       lambda_61[0][2]                  
__________________________________________________________________________________________________
add_42 (Add)                    (None, 55, 55, 64)   0           conv2d_216[0][0]                 
                                                                 conv2d_217[0][0]                 
                                                                 conv2d_218[0][0]                 
__________________________________________________________________________________________________
lambda_62 (Lambda)              [(None, 55, 55, 21), 0           add_42[0][0]                     
__________________________________________________________________________________________________
conv2d_219 (Conv2D)             (None, 55, 55, 256)  5376        lambda_62[0][0]                  
__________________________________________________________________________________________________
conv2d_220 (Conv2D)             (None, 55, 55, 256)  5376        lambda_62[0][1]                  
__________________________________________________________________________________________________
conv2d_221 (Conv2D)             (None, 55, 55, 256)  5888        lambda_62[0][2]                  
__________________________________________________________________________________________________
add_43 (Add)                    (None, 55, 55, 256)  0           conv2d_219[0][0]                 
                                                                 conv2d_220[0][0]                 
                                                                 conv2d_221[0][0]                 
__________________________________________________________________________________________________
add_44 (Add)                    (None, 55, 55, 256)  0           add_43[0][0]                     
                                                                 activation_38[0][0]              
__________________________________________________________________________________________________
activation_40 (Activation)      (None, 55, 55, 256)  0           add_44[0][0]                     
__________________________________________________________________________________________________
lambda_63 (Lambda)              [(None, 55, 55, 85), 0           activation_40[0][0]              
__________________________________________________________________________________________________
conv2d_222 (Conv2D)             (None, 55, 55, 64)   5440        lambda_63[0][0]                  
__________________________________________________________________________________________________
conv2d_223 (Conv2D)             (None, 55, 55, 64)   5440        lambda_63[0][1]                  
__________________________________________________________________________________________________
conv2d_224 (Conv2D)             (None, 55, 55, 64)   5568        lambda_63[0][2]                  
__________________________________________________________________________________________________
add_45 (Add)                    (None, 55, 55, 64)   0           conv2d_222[0][0]                 
                                                                 conv2d_223[0][0]                 
                                                                 conv2d_224[0][0]                 
__________________________________________________________________________________________________
activation_41 (Activation)      (None, 55, 55, 64)   0           add_45[0][0]                     
__________________________________________________________________________________________________
lambda_64 (Lambda)              [(None, 55, 55, 21), 0           activation_41[0][0]              
__________________________________________________________________________________________________
conv2d_225 (Conv2D)             (None, 55, 55, 64)   12096       lambda_64[0][0]                  
__________________________________________________________________________________________________
conv2d_226 (Conv2D)             (None, 55, 55, 64)   12096       lambda_64[0][1]                  
__________________________________________________________________________________________________
conv2d_227 (Conv2D)             (None, 55, 55, 64)   12736       lambda_64[0][2]                  
__________________________________________________________________________________________________
add_46 (Add)                    (None, 55, 55, 64)   0           conv2d_225[0][0]                 
                                                                 conv2d_226[0][0]                 
                                                                 conv2d_227[0][0]                 
__________________________________________________________________________________________________
lambda_65 (Lambda)              [(None, 55, 55, 21), 0           add_46[0][0]                     
__________________________________________________________________________________________________
conv2d_228 (Conv2D)             (None, 55, 55, 256)  5376        lambda_65[0][0]                  
__________________________________________________________________________________________________
conv2d_229 (Conv2D)             (None, 55, 55, 256)  5376        lambda_65[0][1]                  
__________________________________________________________________________________________________
conv2d_230 (Conv2D)             (None, 55, 55, 256)  5888        lambda_65[0][2]                  
__________________________________________________________________________________________________
add_47 (Add)                    (None, 55, 55, 256)  0           conv2d_228[0][0]                 
                                                                 conv2d_229[0][0]                 
                                                                 conv2d_230[0][0]                 
__________________________________________________________________________________________________
add_48 (Add)                    (None, 55, 55, 256)  0           add_47[0][0]                     
                                                                 activation_40[0][0]              
__________________________________________________________________________________________________
activation_42 (Activation)      (None, 55, 55, 256)  0           add_48[0][0]                     
__________________________________________________________________________________________________
lambda_66 (Lambda)              [(None, 55, 55, 85), 0           activation_42[0][0]              
__________________________________________________________________________________________________
conv2d_231 (Conv2D)             (None, 28, 28, 128)  10880       lambda_66[0][0]                  
__________________________________________________________________________________________________
conv2d_232 (Conv2D)             (None, 28, 28, 128)  10880       lambda_66[0][1]                  
__________________________________________________________________________________________________
conv2d_233 (Conv2D)             (None, 28, 28, 128)  11136       lambda_66[0][2]                  
__________________________________________________________________________________________________
add_49 (Add)                    (None, 28, 28, 128)  0           conv2d_231[0][0]                 
                                                                 conv2d_232[0][0]                 
                                                                 conv2d_233[0][0]                 
__________________________________________________________________________________________________
activation_43 (Activation)      (None, 28, 28, 128)  0           add_49[0][0]                     
__________________________________________________________________________________________________
lambda_67 (Lambda)              [(None, 28, 28, 42), 0           activation_43[0][0]              
__________________________________________________________________________________________________
conv2d_234 (Conv2D)             (None, 28, 28, 128)  48384       lambda_67[0][0]                  
__________________________________________________________________________________________________
conv2d_235 (Conv2D)             (None, 28, 28, 128)  48384       lambda_67[0][1]                  
__________________________________________________________________________________________________
conv2d_236 (Conv2D)             (None, 28, 28, 128)  50816       lambda_67[0][2]                  
__________________________________________________________________________________________________
add_50 (Add)                    (None, 28, 28, 128)  0           conv2d_234[0][0]                 
                                                                 conv2d_235[0][0]                 
                                                                 conv2d_236[0][0]                 
__________________________________________________________________________________________________
activation_44 (Activation)      (None, 28, 28, 128)  0           add_50[0][0]                     
__________________________________________________________________________________________________
lambda_68 (Lambda)              [(None, 28, 28, 42), 0           activation_44[0][0]              
__________________________________________________________________________________________________
lambda_69 (Lambda)              [(None, 55, 55, 85), 0           activation_42[0][0]              
__________________________________________________________________________________________________
conv2d_237 (Conv2D)             (None, 28, 28, 512)  21504       lambda_68[0][0]                  
__________________________________________________________________________________________________
conv2d_238 (Conv2D)             (None, 28, 28, 512)  21504       lambda_68[0][1]                  
__________________________________________________________________________________________________
conv2d_239 (Conv2D)             (None, 28, 28, 512)  23040       lambda_68[0][2]                  
__________________________________________________________________________________________________
conv2d_240 (Conv2D)             (None, 28, 28, 512)  43520       lambda_69[0][0]                  
__________________________________________________________________________________________________
conv2d_241 (Conv2D)             (None, 28, 28, 512)  43520       lambda_69[0][1]                  
__________________________________________________________________________________________________
conv2d_242 (Conv2D)             (None, 28, 28, 512)  44544       lambda_69[0][2]                  
__________________________________________________________________________________________________
add_51 (Add)                    (None, 28, 28, 512)  0           conv2d_237[0][0]                 
                                                                 conv2d_238[0][0]                 
                                                                 conv2d_239[0][0]                 
__________________________________________________________________________________________________
add_52 (Add)                    (None, 28, 28, 512)  0           conv2d_240[0][0]                 
                                                                 conv2d_241[0][0]                 
                                                                 conv2d_242[0][0]                 
__________________________________________________________________________________________________
add_53 (Add)                    (None, 28, 28, 512)  0           add_51[0][0]                     
                                                                 add_52[0][0]                     
__________________________________________________________________________________________________
activation_45 (Activation)      (None, 28, 28, 512)  0           add_53[0][0]                     
__________________________________________________________________________________________________
lambda_70 (Lambda)              [(None, 28, 28, 170) 0           activation_45[0][0]              
__________________________________________________________________________________________________
conv2d_243 (Conv2D)             (None, 28, 28, 128)  21760       lambda_70[0][0]                  
__________________________________________________________________________________________________
conv2d_244 (Conv2D)             (None, 28, 28, 128)  21760       lambda_70[0][1]                  
__________________________________________________________________________________________________
conv2d_245 (Conv2D)             (None, 28, 28, 128)  22144       lambda_70[0][2]                  
__________________________________________________________________________________________________
add_54 (Add)                    (None, 28, 28, 128)  0           conv2d_243[0][0]                 
                                                                 conv2d_244[0][0]                 
                                                                 conv2d_245[0][0]                 
__________________________________________________________________________________________________
activation_46 (Activation)      (None, 28, 28, 128)  0           add_54[0][0]                     
__________________________________________________________________________________________________
lambda_71 (Lambda)              [(None, 28, 28, 42), 0           activation_46[0][0]              
__________________________________________________________________________________________________
conv2d_246 (Conv2D)             (None, 28, 28, 128)  48384       lambda_71[0][0]                  
__________________________________________________________________________________________________
conv2d_247 (Conv2D)             (None, 28, 28, 128)  48384       lambda_71[0][1]                  
__________________________________________________________________________________________________
conv2d_248 (Conv2D)             (None, 28, 28, 128)  50816       lambda_71[0][2]                  
__________________________________________________________________________________________________
add_55 (Add)                    (None, 28, 28, 128)  0           conv2d_246[0][0]                 
                                                                 conv2d_247[0][0]                 
                                                                 conv2d_248[0][0]                 
__________________________________________________________________________________________________
lambda_72 (Lambda)              [(None, 28, 28, 42), 0           add_55[0][0]                     
__________________________________________________________________________________________________
conv2d_249 (Conv2D)             (None, 28, 28, 512)  21504       lambda_72[0][0]                  
__________________________________________________________________________________________________
conv2d_250 (Conv2D)             (None, 28, 28, 512)  21504       lambda_72[0][1]                  
__________________________________________________________________________________________________
conv2d_251 (Conv2D)             (None, 28, 28, 512)  23040       lambda_72[0][2]                  
__________________________________________________________________________________________________
add_56 (Add)                    (None, 28, 28, 512)  0           conv2d_249[0][0]                 
                                                                 conv2d_250[0][0]                 
                                                                 conv2d_251[0][0]                 
__________________________________________________________________________________________________
add_57 (Add)                    (None, 28, 28, 512)  0           add_56[0][0]                     
                                                                 activation_45[0][0]              
__________________________________________________________________________________________________
activation_47 (Activation)      (None, 28, 28, 512)  0           add_57[0][0]                     
__________________________________________________________________________________________________
lambda_73 (Lambda)              [(None, 28, 28, 170) 0           activation_47[0][0]              
__________________________________________________________________________________________________
conv2d_252 (Conv2D)             (None, 28, 28, 128)  21760       lambda_73[0][0]                  
__________________________________________________________________________________________________
conv2d_253 (Conv2D)             (None, 28, 28, 128)  21760       lambda_73[0][1]                  
__________________________________________________________________________________________________
conv2d_254 (Conv2D)             (None, 28, 28, 128)  22144       lambda_73[0][2]                  
__________________________________________________________________________________________________
add_58 (Add)                    (None, 28, 28, 128)  0           conv2d_252[0][0]                 
                                                                 conv2d_253[0][0]                 
                                                                 conv2d_254[0][0]                 
__________________________________________________________________________________________________
activation_48 (Activation)      (None, 28, 28, 128)  0           add_58[0][0]                     
__________________________________________________________________________________________________
lambda_74 (Lambda)              [(None, 28, 28, 42), 0           activation_48[0][0]              
__________________________________________________________________________________________________
conv2d_255 (Conv2D)             (None, 28, 28, 128)  48384       lambda_74[0][0]                  
__________________________________________________________________________________________________
conv2d_256 (Conv2D)             (None, 28, 28, 128)  48384       lambda_74[0][1]                  
__________________________________________________________________________________________________
conv2d_257 (Conv2D)             (None, 28, 28, 128)  50816       lambda_74[0][2]                  
__________________________________________________________________________________________________
add_59 (Add)                    (None, 28, 28, 128)  0           conv2d_255[0][0]                 
                                                                 conv2d_256[0][0]                 
                                                                 conv2d_257[0][0]                 
__________________________________________________________________________________________________
lambda_75 (Lambda)              [(None, 28, 28, 42), 0           add_59[0][0]                     
__________________________________________________________________________________________________
conv2d_258 (Conv2D)             (None, 28, 28, 512)  21504       lambda_75[0][0]                  
__________________________________________________________________________________________________
conv2d_259 (Conv2D)             (None, 28, 28, 512)  21504       lambda_75[0][1]                  
__________________________________________________________________________________________________
conv2d_260 (Conv2D)             (None, 28, 28, 512)  23040       lambda_75[0][2]                  
__________________________________________________________________________________________________
add_60 (Add)                    (None, 28, 28, 512)  0           conv2d_258[0][0]                 
                                                                 conv2d_259[0][0]                 
                                                                 conv2d_260[0][0]                 
__________________________________________________________________________________________________
add_61 (Add)                    (None, 28, 28, 512)  0           add_60[0][0]                     
                                                                 activation_47[0][0]              
__________________________________________________________________________________________________
activation_49 (Activation)      (None, 28, 28, 512)  0           add_61[0][0]                     
__________________________________________________________________________________________________
lambda_76 (Lambda)              [(None, 28, 28, 170) 0           activation_49[0][0]              
__________________________________________________________________________________________________
conv2d_261 (Conv2D)             (None, 28, 28, 128)  21760       lambda_76[0][0]                  
__________________________________________________________________________________________________
conv2d_262 (Conv2D)             (None, 28, 28, 128)  21760       lambda_76[0][1]                  
__________________________________________________________________________________________________
conv2d_263 (Conv2D)             (None, 28, 28, 128)  22144       lambda_76[0][2]                  
__________________________________________________________________________________________________
add_62 (Add)                    (None, 28, 28, 128)  0           conv2d_261[0][0]                 
                                                                 conv2d_262[0][0]                 
                                                                 conv2d_263[0][0]                 
__________________________________________________________________________________________________
activation_50 (Activation)      (None, 28, 28, 128)  0           add_62[0][0]                     
__________________________________________________________________________________________________
lambda_77 (Lambda)              [(None, 28, 28, 42), 0           activation_50[0][0]              
__________________________________________________________________________________________________
conv2d_264 (Conv2D)             (None, 28, 28, 128)  48384       lambda_77[0][0]                  
__________________________________________________________________________________________________
conv2d_265 (Conv2D)             (None, 28, 28, 128)  48384       lambda_77[0][1]                  
__________________________________________________________________________________________________
conv2d_266 (Conv2D)             (None, 28, 28, 128)  50816       lambda_77[0][2]                  
__________________________________________________________________________________________________
add_63 (Add)                    (None, 28, 28, 128)  0           conv2d_264[0][0]                 
                                                                 conv2d_265[0][0]                 
                                                                 conv2d_266[0][0]                 
__________________________________________________________________________________________________
lambda_78 (Lambda)              [(None, 28, 28, 42), 0           add_63[0][0]                     
__________________________________________________________________________________________________
conv2d_267 (Conv2D)             (None, 28, 28, 512)  21504       lambda_78[0][0]                  
__________________________________________________________________________________________________
conv2d_268 (Conv2D)             (None, 28, 28, 512)  21504       lambda_78[0][1]                  
__________________________________________________________________________________________________
conv2d_269 (Conv2D)             (None, 28, 28, 512)  23040       lambda_78[0][2]                  
__________________________________________________________________________________________________
add_64 (Add)                    (None, 28, 28, 512)  0           conv2d_267[0][0]                 
                                                                 conv2d_268[0][0]                 
                                                                 conv2d_269[0][0]                 
__________________________________________________________________________________________________
add_65 (Add)                    (None, 28, 28, 512)  0           add_64[0][0]                     
                                                                 activation_49[0][0]              
__________________________________________________________________________________________________
activation_51 (Activation)      (None, 28, 28, 512)  0           add_65[0][0]                     
__________________________________________________________________________________________________
lambda_79 (Lambda)              [(None, 28, 28, 170) 0           activation_51[0][0]              
__________________________________________________________________________________________________
conv2d_270 (Conv2D)             (None, 14, 14, 256)  43520       lambda_79[0][0]                  
__________________________________________________________________________________________________
conv2d_271 (Conv2D)             (None, 14, 14, 256)  43520       lambda_79[0][1]                  
__________________________________________________________________________________________________
conv2d_272 (Conv2D)             (None, 14, 14, 256)  44288       lambda_79[0][2]                  
__________________________________________________________________________________________________
add_66 (Add)                    (None, 14, 14, 256)  0           conv2d_270[0][0]                 
                                                                 conv2d_271[0][0]                 
                                                                 conv2d_272[0][0]                 
__________________________________________________________________________________________________
activation_52 (Activation)      (None, 14, 14, 256)  0           add_66[0][0]                     
__________________________________________________________________________________________________
lambda_80 (Lambda)              [(None, 14, 14, 85), 0           activation_52[0][0]              
__________________________________________________________________________________________________
conv2d_273 (Conv2D)             (None, 14, 14, 256)  195840      lambda_80[0][0]                  
__________________________________________________________________________________________________
conv2d_274 (Conv2D)             (None, 14, 14, 256)  195840      lambda_80[0][1]                  
__________________________________________________________________________________________________
conv2d_275 (Conv2D)             (None, 14, 14, 256)  198400      lambda_80[0][2]                  
__________________________________________________________________________________________________
add_67 (Add)                    (None, 14, 14, 256)  0           conv2d_273[0][0]                 
                                                                 conv2d_274[0][0]                 
                                                                 conv2d_275[0][0]                 
__________________________________________________________________________________________________
activation_53 (Activation)      (None, 14, 14, 256)  0           add_67[0][0]                     
__________________________________________________________________________________________________
lambda_81 (Lambda)              [(None, 14, 14, 85), 0           activation_53[0][0]              
__________________________________________________________________________________________________
lambda_82 (Lambda)              [(None, 28, 28, 170) 0           activation_51[0][0]              
__________________________________________________________________________________________________
conv2d_276 (Conv2D)             (None, 14, 14, 1024) 87040       lambda_81[0][0]                  
__________________________________________________________________________________________________
conv2d_277 (Conv2D)             (None, 14, 14, 1024) 87040       lambda_81[0][1]                  
__________________________________________________________________________________________________
conv2d_278 (Conv2D)             (None, 14, 14, 1024) 89088       lambda_81[0][2]                  
__________________________________________________________________________________________________
conv2d_279 (Conv2D)             (None, 14, 14, 1024) 174080      lambda_82[0][0]                  
__________________________________________________________________________________________________
conv2d_280 (Conv2D)             (None, 14, 14, 1024) 174080      lambda_82[0][1]                  
__________________________________________________________________________________________________
conv2d_281 (Conv2D)             (None, 14, 14, 1024) 177152      lambda_82[0][2]                  
__________________________________________________________________________________________________
add_68 (Add)                    (None, 14, 14, 1024) 0           conv2d_276[0][0]                 
                                                                 conv2d_277[0][0]                 
                                                                 conv2d_278[0][0]                 
__________________________________________________________________________________________________
add_69 (Add)                    (None, 14, 14, 1024) 0           conv2d_279[0][0]                 
                                                                 conv2d_280[0][0]                 
                                                                 conv2d_281[0][0]                 
__________________________________________________________________________________________________
add_70 (Add)                    (None, 14, 14, 1024) 0           add_68[0][0]                     
                                                                 add_69[0][0]                     
__________________________________________________________________________________________________
activation_54 (Activation)      (None, 14, 14, 1024) 0           add_70[0][0]                     
__________________________________________________________________________________________________
lambda_83 (Lambda)              [(None, 14, 14, 341) 0           activation_54[0][0]              
__________________________________________________________________________________________________
conv2d_282 (Conv2D)             (None, 14, 14, 256)  87296       lambda_83[0][0]                  
__________________________________________________________________________________________________
conv2d_283 (Conv2D)             (None, 14, 14, 256)  87296       lambda_83[0][1]                  
__________________________________________________________________________________________________
conv2d_284 (Conv2D)             (None, 14, 14, 256)  87808       lambda_83[0][2]                  
__________________________________________________________________________________________________
add_71 (Add)                    (None, 14, 14, 256)  0           conv2d_282[0][0]                 
                                                                 conv2d_283[0][0]                 
                                                                 conv2d_284[0][0]                 
__________________________________________________________________________________________________
activation_55 (Activation)      (None, 14, 14, 256)  0           add_71[0][0]                     
__________________________________________________________________________________________________
lambda_84 (Lambda)              [(None, 14, 14, 85), 0           activation_55[0][0]              
__________________________________________________________________________________________________
conv2d_285 (Conv2D)             (None, 14, 14, 256)  195840      lambda_84[0][0]                  
__________________________________________________________________________________________________
conv2d_286 (Conv2D)             (None, 14, 14, 256)  195840      lambda_84[0][1]                  
__________________________________________________________________________________________________
conv2d_287 (Conv2D)             (None, 14, 14, 256)  198400      lambda_84[0][2]                  
__________________________________________________________________________________________________
add_72 (Add)                    (None, 14, 14, 256)  0           conv2d_285[0][0]                 
                                                                 conv2d_286[0][0]                 
                                                                 conv2d_287[0][0]                 
__________________________________________________________________________________________________
lambda_85 (Lambda)              [(None, 14, 14, 85), 0           add_72[0][0]                     
__________________________________________________________________________________________________
conv2d_288 (Conv2D)             (None, 14, 14, 1024) 87040       lambda_85[0][0]                  
__________________________________________________________________________________________________
conv2d_289 (Conv2D)             (None, 14, 14, 1024) 87040       lambda_85[0][1]                  
__________________________________________________________________________________________________
conv2d_290 (Conv2D)             (None, 14, 14, 1024) 89088       lambda_85[0][2]                  
__________________________________________________________________________________________________
add_73 (Add)                    (None, 14, 14, 1024) 0           conv2d_288[0][0]                 
                                                                 conv2d_289[0][0]                 
                                                                 conv2d_290[0][0]                 
__________________________________________________________________________________________________
add_74 (Add)                    (None, 14, 14, 1024) 0           add_73[0][0]                     
                                                                 activation_54[0][0]              
__________________________________________________________________________________________________
activation_56 (Activation)      (None, 14, 14, 1024) 0           add_74[0][0]                     
__________________________________________________________________________________________________
lambda_86 (Lambda)              [(None, 14, 14, 341) 0           activation_56[0][0]              
__________________________________________________________________________________________________
conv2d_291 (Conv2D)             (None, 14, 14, 256)  87296       lambda_86[0][0]                  
__________________________________________________________________________________________________
conv2d_292 (Conv2D)             (None, 14, 14, 256)  87296       lambda_86[0][1]                  
__________________________________________________________________________________________________
conv2d_293 (Conv2D)             (None, 14, 14, 256)  87808       lambda_86[0][2]                  
__________________________________________________________________________________________________
add_75 (Add)                    (None, 14, 14, 256)  0           conv2d_291[0][0]                 
                                                                 conv2d_292[0][0]                 
                                                                 conv2d_293[0][0]                 
__________________________________________________________________________________________________
activation_57 (Activation)      (None, 14, 14, 256)  0           add_75[0][0]                     
__________________________________________________________________________________________________
lambda_87 (Lambda)              [(None, 14, 14, 85), 0           activation_57[0][0]              
__________________________________________________________________________________________________
conv2d_294 (Conv2D)             (None, 14, 14, 256)  195840      lambda_87[0][0]                  
__________________________________________________________________________________________________
conv2d_295 (Conv2D)             (None, 14, 14, 256)  195840      lambda_87[0][1]                  
__________________________________________________________________________________________________
conv2d_296 (Conv2D)             (None, 14, 14, 256)  198400      lambda_87[0][2]                  
__________________________________________________________________________________________________
add_76 (Add)                    (None, 14, 14, 256)  0           conv2d_294[0][0]                 
                                                                 conv2d_295[0][0]                 
                                                                 conv2d_296[0][0]                 
__________________________________________________________________________________________________
lambda_88 (Lambda)              [(None, 14, 14, 85), 0           add_76[0][0]                     
__________________________________________________________________________________________________
conv2d_297 (Conv2D)             (None, 14, 14, 1024) 87040       lambda_88[0][0]                  
__________________________________________________________________________________________________
conv2d_298 (Conv2D)             (None, 14, 14, 1024) 87040       lambda_88[0][1]                  
__________________________________________________________________________________________________
conv2d_299 (Conv2D)             (None, 14, 14, 1024) 89088       lambda_88[0][2]                  
__________________________________________________________________________________________________
add_77 (Add)                    (None, 14, 14, 1024) 0           conv2d_297[0][0]                 
                                                                 conv2d_298[0][0]                 
                                                                 conv2d_299[0][0]                 
__________________________________________________________________________________________________
add_78 (Add)                    (None, 14, 14, 1024) 0           add_77[0][0]                     
                                                                 activation_56[0][0]              
__________________________________________________________________________________________________
activation_58 (Activation)      (None, 14, 14, 1024) 0           add_78[0][0]                     
__________________________________________________________________________________________________
lambda_89 (Lambda)              [(None, 14, 14, 341) 0           activation_58[0][0]              
__________________________________________________________________________________________________
conv2d_300 (Conv2D)             (None, 14, 14, 256)  87296       lambda_89[0][0]                  
__________________________________________________________________________________________________
conv2d_301 (Conv2D)             (None, 14, 14, 256)  87296       lambda_89[0][1]                  
__________________________________________________________________________________________________
conv2d_302 (Conv2D)             (None, 14, 14, 256)  87808       lambda_89[0][2]                  
__________________________________________________________________________________________________
add_79 (Add)                    (None, 14, 14, 256)  0           conv2d_300[0][0]                 
                                                                 conv2d_301[0][0]                 
                                                                 conv2d_302[0][0]                 
__________________________________________________________________________________________________
activation_59 (Activation)      (None, 14, 14, 256)  0           add_79[0][0]                     
__________________________________________________________________________________________________
lambda_90 (Lambda)              [(None, 14, 14, 85), 0           activation_59[0][0]              
__________________________________________________________________________________________________
conv2d_303 (Conv2D)             (None, 14, 14, 256)  195840      lambda_90[0][0]                  
__________________________________________________________________________________________________
conv2d_304 (Conv2D)             (None, 14, 14, 256)  195840      lambda_90[0][1]                  
__________________________________________________________________________________________________
conv2d_305 (Conv2D)             (None, 14, 14, 256)  198400      lambda_90[0][2]                  
__________________________________________________________________________________________________
add_80 (Add)                    (None, 14, 14, 256)  0           conv2d_303[0][0]                 
                                                                 conv2d_304[0][0]                 
                                                                 conv2d_305[0][0]                 
__________________________________________________________________________________________________
lambda_91 (Lambda)              [(None, 14, 14, 85), 0           add_80[0][0]                     
__________________________________________________________________________________________________
conv2d_306 (Conv2D)             (None, 14, 14, 1024) 87040       lambda_91[0][0]                  
__________________________________________________________________________________________________
conv2d_307 (Conv2D)             (None, 14, 14, 1024) 87040       lambda_91[0][1]                  
__________________________________________________________________________________________________
conv2d_308 (Conv2D)             (None, 14, 14, 1024) 89088       lambda_91[0][2]                  
__________________________________________________________________________________________________
add_81 (Add)                    (None, 14, 14, 1024) 0           conv2d_306[0][0]                 
                                                                 conv2d_307[0][0]                 
                                                                 conv2d_308[0][0]                 
__________________________________________________________________________________________________
add_82 (Add)                    (None, 14, 14, 1024) 0           add_81[0][0]                     
                                                                 activation_58[0][0]              
__________________________________________________________________________________________________
activation_60 (Activation)      (None, 14, 14, 1024) 0           add_82[0][0]                     
__________________________________________________________________________________________________
lambda_92 (Lambda)              [(None, 14, 14, 341) 0           activation_60[0][0]              
__________________________________________________________________________________________________
conv2d_309 (Conv2D)             (None, 14, 14, 256)  87296       lambda_92[0][0]                  
__________________________________________________________________________________________________
conv2d_310 (Conv2D)             (None, 14, 14, 256)  87296       lambda_92[0][1]                  
__________________________________________________________________________________________________
conv2d_311 (Conv2D)             (None, 14, 14, 256)  87808       lambda_92[0][2]                  
__________________________________________________________________________________________________
add_83 (Add)                    (None, 14, 14, 256)  0           conv2d_309[0][0]                 
                                                                 conv2d_310[0][0]                 
                                                                 conv2d_311[0][0]                 
__________________________________________________________________________________________________
activation_61 (Activation)      (None, 14, 14, 256)  0           add_83[0][0]                     
__________________________________________________________________________________________________
lambda_93 (Lambda)              [(None, 14, 14, 85), 0           activation_61[0][0]              
__________________________________________________________________________________________________
conv2d_312 (Conv2D)             (None, 14, 14, 256)  195840      lambda_93[0][0]                  
__________________________________________________________________________________________________
conv2d_313 (Conv2D)             (None, 14, 14, 256)  195840      lambda_93[0][1]                  
__________________________________________________________________________________________________
conv2d_314 (Conv2D)             (None, 14, 14, 256)  198400      lambda_93[0][2]                  
__________________________________________________________________________________________________
add_84 (Add)                    (None, 14, 14, 256)  0           conv2d_312[0][0]                 
                                                                 conv2d_313[0][0]                 
                                                                 conv2d_314[0][0]                 
__________________________________________________________________________________________________
lambda_94 (Lambda)              [(None, 14, 14, 85), 0           add_84[0][0]                     
__________________________________________________________________________________________________
conv2d_315 (Conv2D)             (None, 14, 14, 1024) 87040       lambda_94[0][0]                  
__________________________________________________________________________________________________
conv2d_316 (Conv2D)             (None, 14, 14, 1024) 87040       lambda_94[0][1]                  
__________________________________________________________________________________________________
conv2d_317 (Conv2D)             (None, 14, 14, 1024) 89088       lambda_94[0][2]                  
__________________________________________________________________________________________________
add_85 (Add)                    (None, 14, 14, 1024) 0           conv2d_315[0][0]                 
                                                                 conv2d_316[0][0]                 
                                                                 conv2d_317[0][0]                 
__________________________________________________________________________________________________
add_86 (Add)                    (None, 14, 14, 1024) 0           add_85[0][0]                     
                                                                 activation_60[0][0]              
__________________________________________________________________________________________________
activation_62 (Activation)      (None, 14, 14, 1024) 0           add_86[0][0]                     
__________________________________________________________________________________________________
lambda_95 (Lambda)              [(None, 14, 14, 341) 0           activation_62[0][0]              
__________________________________________________________________________________________________
conv2d_318 (Conv2D)             (None, 14, 14, 256)  87296       lambda_95[0][0]                  
__________________________________________________________________________________________________
conv2d_319 (Conv2D)             (None, 14, 14, 256)  87296       lambda_95[0][1]                  
__________________________________________________________________________________________________
conv2d_320 (Conv2D)             (None, 14, 14, 256)  87808       lambda_95[0][2]                  
__________________________________________________________________________________________________
add_87 (Add)                    (None, 14, 14, 256)  0           conv2d_318[0][0]                 
                                                                 conv2d_319[0][0]                 
                                                                 conv2d_320[0][0]                 
__________________________________________________________________________________________________
activation_63 (Activation)      (None, 14, 14, 256)  0           add_87[0][0]                     
__________________________________________________________________________________________________
lambda_96 (Lambda)              [(None, 14, 14, 85), 0           activation_63[0][0]              
__________________________________________________________________________________________________
conv2d_321 (Conv2D)             (None, 14, 14, 256)  195840      lambda_96[0][0]                  
__________________________________________________________________________________________________
conv2d_322 (Conv2D)             (None, 14, 14, 256)  195840      lambda_96[0][1]                  
__________________________________________________________________________________________________
conv2d_323 (Conv2D)             (None, 14, 14, 256)  198400      lambda_96[0][2]                  
__________________________________________________________________________________________________
add_88 (Add)                    (None, 14, 14, 256)  0           conv2d_321[0][0]                 
                                                                 conv2d_322[0][0]                 
                                                                 conv2d_323[0][0]                 
__________________________________________________________________________________________________
lambda_97 (Lambda)              [(None, 14, 14, 85), 0           add_88[0][0]                     
__________________________________________________________________________________________________
conv2d_324 (Conv2D)             (None, 14, 14, 1024) 87040       lambda_97[0][0]                  
__________________________________________________________________________________________________
conv2d_325 (Conv2D)             (None, 14, 14, 1024) 87040       lambda_97[0][1]                  
__________________________________________________________________________________________________
conv2d_326 (Conv2D)             (None, 14, 14, 1024) 89088       lambda_97[0][2]                  
__________________________________________________________________________________________________
add_89 (Add)                    (None, 14, 14, 1024) 0           conv2d_324[0][0]                 
                                                                 conv2d_325[0][0]                 
                                                                 conv2d_326[0][0]                 
__________________________________________________________________________________________________
add_90 (Add)                    (None, 14, 14, 1024) 0           add_89[0][0]                     
                                                                 activation_62[0][0]              
__________________________________________________________________________________________________
activation_64 (Activation)      (None, 14, 14, 1024) 0           add_90[0][0]                     
__________________________________________________________________________________________________
lambda_98 (Lambda)              [(None, 14, 14, 341) 0           activation_64[0][0]              
__________________________________________________________________________________________________
conv2d_327 (Conv2D)             (None, 7, 7, 512)    174592      lambda_98[0][0]                  
__________________________________________________________________________________________________
conv2d_328 (Conv2D)             (None, 7, 7, 512)    174592      lambda_98[0][1]                  
__________________________________________________________________________________________________
conv2d_329 (Conv2D)             (None, 7, 7, 512)    175616      lambda_98[0][2]                  
__________________________________________________________________________________________________
add_91 (Add)                    (None, 7, 7, 512)    0           conv2d_327[0][0]                 
                                                                 conv2d_328[0][0]                 
                                                                 conv2d_329[0][0]                 
__________________________________________________________________________________________________
activation_65 (Activation)      (None, 7, 7, 512)    0           add_91[0][0]                     
__________________________________________________________________________________________________
lambda_99 (Lambda)              [(None, 7, 7, 170),  0           activation_65[0][0]              
__________________________________________________________________________________________________
conv2d_330 (Conv2D)             (None, 7, 7, 512)    783360      lambda_99[0][0]                  
__________________________________________________________________________________________________
conv2d_331 (Conv2D)             (None, 7, 7, 512)    783360      lambda_99[0][1]                  
__________________________________________________________________________________________________
conv2d_332 (Conv2D)             (None, 7, 7, 512)    793088      lambda_99[0][2]                  
__________________________________________________________________________________________________
add_92 (Add)                    (None, 7, 7, 512)    0           conv2d_330[0][0]                 
                                                                 conv2d_331[0][0]                 
                                                                 conv2d_332[0][0]                 
__________________________________________________________________________________________________
activation_66 (Activation)      (None, 7, 7, 512)    0           add_92[0][0]                     
__________________________________________________________________________________________________
lambda_100 (Lambda)             [(None, 7, 7, 170),  0           activation_66[0][0]              
__________________________________________________________________________________________________
lambda_101 (Lambda)             [(None, 14, 14, 341) 0           activation_64[0][0]              
__________________________________________________________________________________________________
conv2d_333 (Conv2D)             (None, 7, 7, 2048)   348160      lambda_100[0][0]                 
__________________________________________________________________________________________________
conv2d_334 (Conv2D)             (None, 7, 7, 2048)   348160      lambda_100[0][1]                 
__________________________________________________________________________________________________
conv2d_335 (Conv2D)             (None, 7, 7, 2048)   354304      lambda_100[0][2]                 
__________________________________________________________________________________________________
conv2d_336 (Conv2D)             (None, 7, 7, 2048)   698368      lambda_101[0][0]                 
__________________________________________________________________________________________________
conv2d_337 (Conv2D)             (None, 7, 7, 2048)   698368      lambda_101[0][1]                 
__________________________________________________________________________________________________
conv2d_338 (Conv2D)             (None, 7, 7, 2048)   702464      lambda_101[0][2]                 
__________________________________________________________________________________________________
add_93 (Add)                    (None, 7, 7, 2048)   0           conv2d_333[0][0]                 
                                                                 conv2d_334[0][0]                 
                                                                 conv2d_335[0][0]                 
__________________________________________________________________________________________________
add_94 (Add)                    (None, 7, 7, 2048)   0           conv2d_336[0][0]                 
                                                                 conv2d_337[0][0]                 
                                                                 conv2d_338[0][0]                 
__________________________________________________________________________________________________
add_95 (Add)                    (None, 7, 7, 2048)   0           add_93[0][0]                     
                                                                 add_94[0][0]                     
__________________________________________________________________________________________________
activation_67 (Activation)      (None, 7, 7, 2048)   0           add_95[0][0]                     
__________________________________________________________________________________________________
lambda_102 (Lambda)             [(None, 7, 7, 682),  0           activation_67[0][0]              
__________________________________________________________________________________________________
conv2d_339 (Conv2D)             (None, 7, 7, 512)    349184      lambda_102[0][0]                 
__________________________________________________________________________________________________
conv2d_340 (Conv2D)             (None, 7, 7, 512)    349184      lambda_102[0][1]                 
__________________________________________________________________________________________________
conv2d_341 (Conv2D)             (None, 7, 7, 512)    350720      lambda_102[0][2]                 
__________________________________________________________________________________________________
add_96 (Add)                    (None, 7, 7, 512)    0           conv2d_339[0][0]                 
                                                                 conv2d_340[0][0]                 
                                                                 conv2d_341[0][0]                 
__________________________________________________________________________________________________
activation_68 (Activation)      (None, 7, 7, 512)    0           add_96[0][0]                     
__________________________________________________________________________________________________
lambda_103 (Lambda)             [(None, 7, 7, 170),  0           activation_68[0][0]              
__________________________________________________________________________________________________
conv2d_342 (Conv2D)             (None, 7, 7, 512)    783360      lambda_103[0][0]                 
__________________________________________________________________________________________________
conv2d_343 (Conv2D)             (None, 7, 7, 512)    783360      lambda_103[0][1]                 
__________________________________________________________________________________________________
conv2d_344 (Conv2D)             (None, 7, 7, 512)    793088      lambda_103[0][2]                 
__________________________________________________________________________________________________
add_97 (Add)                    (None, 7, 7, 512)    0           conv2d_342[0][0]                 
                                                                 conv2d_343[0][0]                 
                                                                 conv2d_344[0][0]                 
__________________________________________________________________________________________________
lambda_104 (Lambda)             [(None, 7, 7, 170),  0           add_97[0][0]                     
__________________________________________________________________________________________________
conv2d_345 (Conv2D)             (None, 7, 7, 2048)   348160      lambda_104[0][0]                 
__________________________________________________________________________________________________
conv2d_346 (Conv2D)             (None, 7, 7, 2048)   348160      lambda_104[0][1]                 
__________________________________________________________________________________________________
conv2d_347 (Conv2D)             (None, 7, 7, 2048)   354304      lambda_104[0][2]                 
__________________________________________________________________________________________________
add_98 (Add)                    (None, 7, 7, 2048)   0           conv2d_345[0][0]                 
                                                                 conv2d_346[0][0]                 
                                                                 conv2d_347[0][0]                 
__________________________________________________________________________________________________
add_99 (Add)                    (None, 7, 7, 2048)   0           add_98[0][0]                     
                                                                 activation_67[0][0]              
__________________________________________________________________________________________________
activation_69 (Activation)      (None, 7, 7, 2048)   0           add_99[0][0]                     
__________________________________________________________________________________________________
lambda_105 (Lambda)             [(None, 7, 7, 682),  0           activation_69[0][0]              
__________________________________________________________________________________________________
conv2d_348 (Conv2D)             (None, 7, 7, 512)    349184      lambda_105[0][0]                 
__________________________________________________________________________________________________
conv2d_349 (Conv2D)             (None, 7, 7, 512)    349184      lambda_105[0][1]                 
__________________________________________________________________________________________________
conv2d_350 (Conv2D)             (None, 7, 7, 512)    350720      lambda_105[0][2]                 
__________________________________________________________________________________________________
add_100 (Add)                   (None, 7, 7, 512)    0           conv2d_348[0][0]                 
                                                                 conv2d_349[0][0]                 
                                                                 conv2d_350[0][0]                 
__________________________________________________________________________________________________
activation_70 (Activation)      (None, 7, 7, 512)    0           add_100[0][0]                    
__________________________________________________________________________________________________
lambda_106 (Lambda)             [(None, 7, 7, 170),  0           activation_70[0][0]              
__________________________________________________________________________________________________
conv2d_351 (Conv2D)             (None, 7, 7, 512)    783360      lambda_106[0][0]                 
__________________________________________________________________________________________________
conv2d_352 (Conv2D)             (None, 7, 7, 512)    783360      lambda_106[0][1]                 
__________________________________________________________________________________________________
conv2d_353 (Conv2D)             (None, 7, 7, 512)    793088      lambda_106[0][2]                 
__________________________________________________________________________________________________
add_101 (Add)                   (None, 7, 7, 512)    0           conv2d_351[0][0]                 
                                                                 conv2d_352[0][0]                 
                                                                 conv2d_353[0][0]                 
__________________________________________________________________________________________________
lambda_107 (Lambda)             [(None, 7, 7, 170),  0           add_101[0][0]                    
__________________________________________________________________________________________________
conv2d_354 (Conv2D)             (None, 7, 7, 2048)   348160      lambda_107[0][0]                 
__________________________________________________________________________________________________
conv2d_355 (Conv2D)             (None, 7, 7, 2048)   348160      lambda_107[0][1]                 
__________________________________________________________________________________________________
conv2d_356 (Conv2D)             (None, 7, 7, 2048)   354304      lambda_107[0][2]                 
__________________________________________________________________________________________________
add_102 (Add)                   (None, 7, 7, 2048)   0           conv2d_354[0][0]                 
                                                                 conv2d_355[0][0]                 
                                                                 conv2d_356[0][0]                 
__________________________________________________________________________________________________
add_103 (Add)                   (None, 7, 7, 2048)   0           add_102[0][0]                    
                                                                 activation_69[0][0]              
__________________________________________________________________________________________________
activation_71 (Activation)      (None, 7, 7, 2048)   0           add_103[0][0]                    
__________________________________________________________________________________________________
average_pooling2d_2 (AveragePoo (None, 1, 1, 2048)   0           activation_71[0][0]              
__________________________________________________________________________________________________
flatten_6 (Flatten)             (None, 2048)         0           average_pooling2d_2[0][0]        
__________________________________________________________________________________________________
dense_26 (Dense)                (None, 1000)         2049000     flatten_6[0][0]                  
==================================================================================================
Total params: 25,530,472
Trainable params: 25,530,472
Non-trainable params: 0
__________________________________________________________________________________________________
None
