__________________________________________________________________________________________________
Layer (type)                    Output Shape         Param #     Connected to                     
==================================================================================================
input_3 (InputLayer)            (None, 224, 224, 3)  0                                            
__________________________________________________________________________________________________
zero_padding2d_3 (ZeroPadding2D (None, 230, 230, 3)  0           input_3[0][0]                    
__________________________________________________________________________________________________
lambda_54 (Lambda)              [(None, 230, 230, 3) 0           zero_padding2d_3[0][0]           
__________________________________________________________________________________________________
conv2d_213 (Conv2D)             (None, 112, 112, 21) 3108        lambda_54[0][0]                  
__________________________________________________________________________________________________
conv2d_214 (Conv2D)             (None, 112, 112, 21) 3108        lambda_54[0][1]                  
__________________________________________________________________________________________________
conv2d_215 (Conv2D)             (None, 112, 112, 22) 3256        lambda_54[0][2]                  
__________________________________________________________________________________________________
concatenate_1 (Concatenate)     (None, 112, 112, 64) 0           conv2d_213[0][0]                 
                                                                 conv2d_214[0][0]                 
                                                                 conv2d_215[0][0]                 
__________________________________________________________________________________________________
max_pooling2d_3 (MaxPooling2D)  (None, 55, 55, 64)   0           concatenate_1[0][0]              
__________________________________________________________________________________________________
lambda_55 (Lambda)              [(None, 55, 55, 64), 0           max_pooling2d_3[0][0]            
__________________________________________________________________________________________________
conv2d_216 (Conv2D)             (None, 55, 55, 21)   1365        lambda_55[0][0]                  
__________________________________________________________________________________________________
conv2d_217 (Conv2D)             (None, 55, 55, 21)   1365        lambda_55[0][1]                  
__________________________________________________________________________________________________
conv2d_218 (Conv2D)             (None, 55, 55, 22)   1430        lambda_55[0][2]                  
__________________________________________________________________________________________________
concatenate_2 (Concatenate)     (None, 55, 55, 64)   0           conv2d_216[0][0]                 
                                                                 conv2d_217[0][0]                 
                                                                 conv2d_218[0][0]                 
__________________________________________________________________________________________________
lambda_56 (Lambda)              [(None, 55, 55, 64), 0           concatenate_2[0][0]              
__________________________________________________________________________________________________
conv2d_219 (Conv2D)             (None, 55, 55, 21)   12117       lambda_56[0][0]                  
__________________________________________________________________________________________________
conv2d_220 (Conv2D)             (None, 55, 55, 21)   12117       lambda_56[0][1]                  
__________________________________________________________________________________________________
conv2d_221 (Conv2D)             (None, 55, 55, 22)   12694       lambda_56[0][2]                  
__________________________________________________________________________________________________
concatenate_3 (Concatenate)     (None, 55, 55, 64)   0           conv2d_219[0][0]                 
                                                                 conv2d_220[0][0]                 
                                                                 conv2d_221[0][0]                 
__________________________________________________________________________________________________
lambda_57 (Lambda)              [(None, 55, 55, 64), 0           concatenate_3[0][0]              
__________________________________________________________________________________________________
lambda_58 (Lambda)              [(None, 55, 55, 64), 0           max_pooling2d_3[0][0]            
__________________________________________________________________________________________________
conv2d_222 (Conv2D)             (None, 55, 55, 85)   5525        lambda_57[0][0]                  
__________________________________________________________________________________________________
conv2d_223 (Conv2D)             (None, 55, 55, 85)   5525        lambda_57[0][1]                  
__________________________________________________________________________________________________
conv2d_224 (Conv2D)             (None, 55, 55, 86)   5590        lambda_57[0][2]                  
__________________________________________________________________________________________________
conv2d_225 (Conv2D)             (None, 55, 55, 85)   5525        lambda_58[0][0]                  
__________________________________________________________________________________________________
conv2d_226 (Conv2D)             (None, 55, 55, 85)   5525        lambda_58[0][1]                  
__________________________________________________________________________________________________
conv2d_227 (Conv2D)             (None, 55, 55, 86)   5590        lambda_58[0][2]                  
__________________________________________________________________________________________________
concatenate_4 (Concatenate)     (None, 55, 55, 256)  0           conv2d_222[0][0]                 
                                                                 conv2d_223[0][0]                 
                                                                 conv2d_224[0][0]                 
__________________________________________________________________________________________________
concatenate_5 (Concatenate)     (None, 55, 55, 256)  0           conv2d_225[0][0]                 
                                                                 conv2d_226[0][0]                 
                                                                 conv2d_227[0][0]                 
__________________________________________________________________________________________________
add_86 (Add)                    (None, 55, 55, 256)  0           concatenate_4[0][0]              
                                                                 concatenate_5[0][0]              
__________________________________________________________________________________________________
activation_33 (Activation)      (None, 55, 55, 256)  0           add_86[0][0]                     
__________________________________________________________________________________________________
lambda_59 (Lambda)              [(None, 55, 55, 256) 0           activation_33[0][0]              
__________________________________________________________________________________________________
conv2d_228 (Conv2D)             (None, 55, 55, 21)   5397        lambda_59[0][0]                  
__________________________________________________________________________________________________
conv2d_229 (Conv2D)             (None, 55, 55, 21)   5397        lambda_59[0][1]                  
__________________________________________________________________________________________________
conv2d_230 (Conv2D)             (None, 55, 55, 22)   5654        lambda_59[0][2]                  
__________________________________________________________________________________________________
concatenate_6 (Concatenate)     (None, 55, 55, 64)   0           conv2d_228[0][0]                 
                                                                 conv2d_229[0][0]                 
                                                                 conv2d_230[0][0]                 
__________________________________________________________________________________________________
lambda_60 (Lambda)              [(None, 55, 55, 64), 0           concatenate_6[0][0]              
__________________________________________________________________________________________________
conv2d_231 (Conv2D)             (None, 55, 55, 21)   12117       lambda_60[0][0]                  
__________________________________________________________________________________________________
conv2d_232 (Conv2D)             (None, 55, 55, 21)   12117       lambda_60[0][1]                  
__________________________________________________________________________________________________
conv2d_233 (Conv2D)             (None, 55, 55, 22)   12694       lambda_60[0][2]                  
__________________________________________________________________________________________________
concatenate_7 (Concatenate)     (None, 55, 55, 64)   0           conv2d_231[0][0]                 
                                                                 conv2d_232[0][0]                 
                                                                 conv2d_233[0][0]                 
__________________________________________________________________________________________________
lambda_61 (Lambda)              [(None, 55, 55, 64), 0           concatenate_7[0][0]              
__________________________________________________________________________________________________
conv2d_234 (Conv2D)             (None, 55, 55, 85)   5525        lambda_61[0][0]                  
__________________________________________________________________________________________________
conv2d_235 (Conv2D)             (None, 55, 55, 85)   5525        lambda_61[0][1]                  
__________________________________________________________________________________________________
conv2d_236 (Conv2D)             (None, 55, 55, 86)   5590        lambda_61[0][2]                  
__________________________________________________________________________________________________
concatenate_8 (Concatenate)     (None, 55, 55, 256)  0           conv2d_234[0][0]                 
                                                                 conv2d_235[0][0]                 
                                                                 conv2d_236[0][0]                 
__________________________________________________________________________________________________
add_87 (Add)                    (None, 55, 55, 256)  0           concatenate_8[0][0]              
                                                                 activation_33[0][0]              
__________________________________________________________________________________________________
activation_34 (Activation)      (None, 55, 55, 256)  0           add_87[0][0]                     
__________________________________________________________________________________________________
lambda_62 (Lambda)              [(None, 55, 55, 256) 0           activation_34[0][0]              
__________________________________________________________________________________________________
conv2d_237 (Conv2D)             (None, 55, 55, 21)   5397        lambda_62[0][0]                  
__________________________________________________________________________________________________
conv2d_238 (Conv2D)             (None, 55, 55, 21)   5397        lambda_62[0][1]                  
__________________________________________________________________________________________________
conv2d_239 (Conv2D)             (None, 55, 55, 22)   5654        lambda_62[0][2]                  
__________________________________________________________________________________________________
concatenate_9 (Concatenate)     (None, 55, 55, 64)   0           conv2d_237[0][0]                 
                                                                 conv2d_238[0][0]                 
                                                                 conv2d_239[0][0]                 
__________________________________________________________________________________________________
lambda_63 (Lambda)              [(None, 55, 55, 64), 0           concatenate_9[0][0]              
__________________________________________________________________________________________________
conv2d_240 (Conv2D)             (None, 55, 55, 21)   12117       lambda_63[0][0]                  
__________________________________________________________________________________________________
conv2d_241 (Conv2D)             (None, 55, 55, 21)   12117       lambda_63[0][1]                  
__________________________________________________________________________________________________
conv2d_242 (Conv2D)             (None, 55, 55, 22)   12694       lambda_63[0][2]                  
__________________________________________________________________________________________________
concatenate_10 (Concatenate)    (None, 55, 55, 64)   0           conv2d_240[0][0]                 
                                                                 conv2d_241[0][0]                 
                                                                 conv2d_242[0][0]                 
__________________________________________________________________________________________________
lambda_64 (Lambda)              [(None, 55, 55, 64), 0           concatenate_10[0][0]             
__________________________________________________________________________________________________
conv2d_243 (Conv2D)             (None, 55, 55, 85)   5525        lambda_64[0][0]                  
__________________________________________________________________________________________________
conv2d_244 (Conv2D)             (None, 55, 55, 85)   5525        lambda_64[0][1]                  
__________________________________________________________________________________________________
conv2d_245 (Conv2D)             (None, 55, 55, 86)   5590        lambda_64[0][2]                  
__________________________________________________________________________________________________
concatenate_11 (Concatenate)    (None, 55, 55, 256)  0           conv2d_243[0][0]                 
                                                                 conv2d_244[0][0]                 
                                                                 conv2d_245[0][0]                 
__________________________________________________________________________________________________
add_88 (Add)                    (None, 55, 55, 256)  0           concatenate_11[0][0]             
                                                                 activation_34[0][0]              
__________________________________________________________________________________________________
activation_35 (Activation)      (None, 55, 55, 256)  0           add_88[0][0]                     
__________________________________________________________________________________________________
lambda_65 (Lambda)              [(None, 55, 55, 256) 0           activation_35[0][0]              
__________________________________________________________________________________________________
conv2d_246 (Conv2D)             (None, 28, 28, 42)   10794       lambda_65[0][0]                  
__________________________________________________________________________________________________
conv2d_247 (Conv2D)             (None, 28, 28, 42)   10794       lambda_65[0][1]                  
__________________________________________________________________________________________________
conv2d_248 (Conv2D)             (None, 28, 28, 44)   11308       lambda_65[0][2]                  
__________________________________________________________________________________________________
concatenate_12 (Concatenate)    (None, 28, 28, 128)  0           conv2d_246[0][0]                 
                                                                 conv2d_247[0][0]                 
                                                                 conv2d_248[0][0]                 
__________________________________________________________________________________________________
lambda_66 (Lambda)              [(None, 28, 28, 128) 0           concatenate_12[0][0]             
__________________________________________________________________________________________________
conv2d_249 (Conv2D)             (None, 28, 28, 42)   48426       lambda_66[0][0]                  
__________________________________________________________________________________________________
conv2d_250 (Conv2D)             (None, 28, 28, 42)   48426       lambda_66[0][1]                  
__________________________________________________________________________________________________
conv2d_251 (Conv2D)             (None, 28, 28, 44)   50732       lambda_66[0][2]                  
__________________________________________________________________________________________________
concatenate_13 (Concatenate)    (None, 28, 28, 128)  0           conv2d_249[0][0]                 
                                                                 conv2d_250[0][0]                 
                                                                 conv2d_251[0][0]                 
__________________________________________________________________________________________________
lambda_67 (Lambda)              [(None, 28, 28, 128) 0           concatenate_13[0][0]             
__________________________________________________________________________________________________
lambda_68 (Lambda)              [(None, 55, 55, 256) 0           activation_35[0][0]              
__________________________________________________________________________________________________
conv2d_252 (Conv2D)             (None, 28, 28, 170)  21930       lambda_67[0][0]                  
__________________________________________________________________________________________________
conv2d_253 (Conv2D)             (None, 28, 28, 170)  21930       lambda_67[0][1]                  
__________________________________________________________________________________________________
conv2d_254 (Conv2D)             (None, 28, 28, 172)  22188       lambda_67[0][2]                  
__________________________________________________________________________________________________
conv2d_255 (Conv2D)             (None, 28, 28, 170)  43690       lambda_68[0][0]                  
__________________________________________________________________________________________________
conv2d_256 (Conv2D)             (None, 28, 28, 170)  43690       lambda_68[0][1]                  
__________________________________________________________________________________________________
conv2d_257 (Conv2D)             (None, 28, 28, 172)  44204       lambda_68[0][2]                  
__________________________________________________________________________________________________
concatenate_14 (Concatenate)    (None, 28, 28, 512)  0           conv2d_252[0][0]                 
                                                                 conv2d_253[0][0]                 
                                                                 conv2d_254[0][0]                 
__________________________________________________________________________________________________
concatenate_15 (Concatenate)    (None, 28, 28, 512)  0           conv2d_255[0][0]                 
                                                                 conv2d_256[0][0]                 
                                                                 conv2d_257[0][0]                 
__________________________________________________________________________________________________
add_89 (Add)                    (None, 28, 28, 512)  0           concatenate_14[0][0]             
                                                                 concatenate_15[0][0]             
__________________________________________________________________________________________________
activation_36 (Activation)      (None, 28, 28, 512)  0           add_89[0][0]                     
__________________________________________________________________________________________________
lambda_69 (Lambda)              [(None, 28, 28, 512) 0           activation_36[0][0]              
__________________________________________________________________________________________________
conv2d_258 (Conv2D)             (None, 28, 28, 42)   21546       lambda_69[0][0]                  
__________________________________________________________________________________________________
conv2d_259 (Conv2D)             (None, 28, 28, 42)   21546       lambda_69[0][1]                  
__________________________________________________________________________________________________
conv2d_260 (Conv2D)             (None, 28, 28, 44)   22572       lambda_69[0][2]                  
__________________________________________________________________________________________________
concatenate_16 (Concatenate)    (None, 28, 28, 128)  0           conv2d_258[0][0]                 
                                                                 conv2d_259[0][0]                 
                                                                 conv2d_260[0][0]                 
__________________________________________________________________________________________________
lambda_70 (Lambda)              [(None, 28, 28, 128) 0           concatenate_16[0][0]             
__________________________________________________________________________________________________
conv2d_261 (Conv2D)             (None, 28, 28, 42)   48426       lambda_70[0][0]                  
__________________________________________________________________________________________________
conv2d_262 (Conv2D)             (None, 28, 28, 42)   48426       lambda_70[0][1]                  
__________________________________________________________________________________________________
conv2d_263 (Conv2D)             (None, 28, 28, 44)   50732       lambda_70[0][2]                  
__________________________________________________________________________________________________
concatenate_17 (Concatenate)    (None, 28, 28, 128)  0           conv2d_261[0][0]                 
                                                                 conv2d_262[0][0]                 
                                                                 conv2d_263[0][0]                 
__________________________________________________________________________________________________
lambda_71 (Lambda)              [(None, 28, 28, 128) 0           concatenate_17[0][0]             
__________________________________________________________________________________________________
conv2d_264 (Conv2D)             (None, 28, 28, 170)  21930       lambda_71[0][0]                  
__________________________________________________________________________________________________
conv2d_265 (Conv2D)             (None, 28, 28, 170)  21930       lambda_71[0][1]                  
__________________________________________________________________________________________________
conv2d_266 (Conv2D)             (None, 28, 28, 172)  22188       lambda_71[0][2]                  
__________________________________________________________________________________________________
concatenate_18 (Concatenate)    (None, 28, 28, 512)  0           conv2d_264[0][0]                 
                                                                 conv2d_265[0][0]                 
                                                                 conv2d_266[0][0]                 
__________________________________________________________________________________________________
add_90 (Add)                    (None, 28, 28, 512)  0           concatenate_18[0][0]             
                                                                 activation_36[0][0]              
__________________________________________________________________________________________________
activation_37 (Activation)      (None, 28, 28, 512)  0           add_90[0][0]                     
__________________________________________________________________________________________________
lambda_72 (Lambda)              [(None, 28, 28, 512) 0           activation_37[0][0]              
__________________________________________________________________________________________________
conv2d_267 (Conv2D)             (None, 28, 28, 42)   21546       lambda_72[0][0]                  
__________________________________________________________________________________________________
conv2d_268 (Conv2D)             (None, 28, 28, 42)   21546       lambda_72[0][1]                  
__________________________________________________________________________________________________
conv2d_269 (Conv2D)             (None, 28, 28, 44)   22572       lambda_72[0][2]                  
__________________________________________________________________________________________________
concatenate_19 (Concatenate)    (None, 28, 28, 128)  0           conv2d_267[0][0]                 
                                                                 conv2d_268[0][0]                 
                                                                 conv2d_269[0][0]                 
__________________________________________________________________________________________________
lambda_73 (Lambda)              [(None, 28, 28, 128) 0           concatenate_19[0][0]             
__________________________________________________________________________________________________
conv2d_270 (Conv2D)             (None, 28, 28, 42)   48426       lambda_73[0][0]                  
__________________________________________________________________________________________________
conv2d_271 (Conv2D)             (None, 28, 28, 42)   48426       lambda_73[0][1]                  
__________________________________________________________________________________________________
conv2d_272 (Conv2D)             (None, 28, 28, 44)   50732       lambda_73[0][2]                  
__________________________________________________________________________________________________
concatenate_20 (Concatenate)    (None, 28, 28, 128)  0           conv2d_270[0][0]                 
                                                                 conv2d_271[0][0]                 
                                                                 conv2d_272[0][0]                 
__________________________________________________________________________________________________
lambda_74 (Lambda)              [(None, 28, 28, 128) 0           concatenate_20[0][0]             
__________________________________________________________________________________________________
conv2d_273 (Conv2D)             (None, 28, 28, 170)  21930       lambda_74[0][0]                  
__________________________________________________________________________________________________
conv2d_274 (Conv2D)             (None, 28, 28, 170)  21930       lambda_74[0][1]                  
__________________________________________________________________________________________________
conv2d_275 (Conv2D)             (None, 28, 28, 172)  22188       lambda_74[0][2]                  
__________________________________________________________________________________________________
concatenate_21 (Concatenate)    (None, 28, 28, 512)  0           conv2d_273[0][0]                 
                                                                 conv2d_274[0][0]                 
                                                                 conv2d_275[0][0]                 
__________________________________________________________________________________________________
add_91 (Add)                    (None, 28, 28, 512)  0           concatenate_21[0][0]             
                                                                 activation_37[0][0]              
__________________________________________________________________________________________________
activation_38 (Activation)      (None, 28, 28, 512)  0           add_91[0][0]                     
__________________________________________________________________________________________________
lambda_75 (Lambda)              [(None, 28, 28, 512) 0           activation_38[0][0]              
__________________________________________________________________________________________________
conv2d_276 (Conv2D)             (None, 28, 28, 42)   21546       lambda_75[0][0]                  
__________________________________________________________________________________________________
conv2d_277 (Conv2D)             (None, 28, 28, 42)   21546       lambda_75[0][1]                  
__________________________________________________________________________________________________
conv2d_278 (Conv2D)             (None, 28, 28, 44)   22572       lambda_75[0][2]                  
__________________________________________________________________________________________________
concatenate_22 (Concatenate)    (None, 28, 28, 128)  0           conv2d_276[0][0]                 
                                                                 conv2d_277[0][0]                 
                                                                 conv2d_278[0][0]                 
__________________________________________________________________________________________________
lambda_76 (Lambda)              [(None, 28, 28, 128) 0           concatenate_22[0][0]             
__________________________________________________________________________________________________
conv2d_279 (Conv2D)             (None, 28, 28, 42)   48426       lambda_76[0][0]                  
__________________________________________________________________________________________________
conv2d_280 (Conv2D)             (None, 28, 28, 42)   48426       lambda_76[0][1]                  
__________________________________________________________________________________________________
conv2d_281 (Conv2D)             (None, 28, 28, 44)   50732       lambda_76[0][2]                  
__________________________________________________________________________________________________
concatenate_23 (Concatenate)    (None, 28, 28, 128)  0           conv2d_279[0][0]                 
                                                                 conv2d_280[0][0]                 
                                                                 conv2d_281[0][0]                 
__________________________________________________________________________________________________
lambda_77 (Lambda)              [(None, 28, 28, 128) 0           concatenate_23[0][0]             
__________________________________________________________________________________________________
conv2d_282 (Conv2D)             (None, 28, 28, 170)  21930       lambda_77[0][0]                  
__________________________________________________________________________________________________
conv2d_283 (Conv2D)             (None, 28, 28, 170)  21930       lambda_77[0][1]                  
__________________________________________________________________________________________________
conv2d_284 (Conv2D)             (None, 28, 28, 172)  22188       lambda_77[0][2]                  
__________________________________________________________________________________________________
concatenate_24 (Concatenate)    (None, 28, 28, 512)  0           conv2d_282[0][0]                 
                                                                 conv2d_283[0][0]                 
                                                                 conv2d_284[0][0]                 
__________________________________________________________________________________________________
add_92 (Add)                    (None, 28, 28, 512)  0           concatenate_24[0][0]             
                                                                 activation_38[0][0]              
__________________________________________________________________________________________________
activation_39 (Activation)      (None, 28, 28, 512)  0           add_92[0][0]                     
__________________________________________________________________________________________________
lambda_78 (Lambda)              [(None, 28, 28, 512) 0           activation_39[0][0]              
__________________________________________________________________________________________________
conv2d_285 (Conv2D)             (None, 14, 14, 85)   43605       lambda_78[0][0]                  
__________________________________________________________________________________________________
conv2d_286 (Conv2D)             (None, 14, 14, 85)   43605       lambda_78[0][1]                  
__________________________________________________________________________________________________
conv2d_287 (Conv2D)             (None, 14, 14, 86)   44118       lambda_78[0][2]                  
__________________________________________________________________________________________________
concatenate_25 (Concatenate)    (None, 14, 14, 256)  0           conv2d_285[0][0]                 
                                                                 conv2d_286[0][0]                 
                                                                 conv2d_287[0][0]                 
__________________________________________________________________________________________________
lambda_79 (Lambda)              [(None, 14, 14, 256) 0           concatenate_25[0][0]             
__________________________________________________________________________________________________
conv2d_288 (Conv2D)             (None, 14, 14, 85)   195925      lambda_79[0][0]                  
__________________________________________________________________________________________________
conv2d_289 (Conv2D)             (None, 14, 14, 85)   195925      lambda_79[0][1]                  
__________________________________________________________________________________________________
conv2d_290 (Conv2D)             (None, 14, 14, 86)   198230      lambda_79[0][2]                  
__________________________________________________________________________________________________
concatenate_26 (Concatenate)    (None, 14, 14, 256)  0           conv2d_288[0][0]                 
                                                                 conv2d_289[0][0]                 
                                                                 conv2d_290[0][0]                 
__________________________________________________________________________________________________
lambda_80 (Lambda)              [(None, 14, 14, 256) 0           concatenate_26[0][0]             
__________________________________________________________________________________________________
lambda_81 (Lambda)              [(None, 28, 28, 512) 0           activation_39[0][0]              
__________________________________________________________________________________________________
conv2d_291 (Conv2D)             (None, 14, 14, 341)  87637       lambda_80[0][0]                  
__________________________________________________________________________________________________
conv2d_292 (Conv2D)             (None, 14, 14, 341)  87637       lambda_80[0][1]                  
__________________________________________________________________________________________________
conv2d_293 (Conv2D)             (None, 14, 14, 342)  87894       lambda_80[0][2]                  
__________________________________________________________________________________________________
conv2d_294 (Conv2D)             (None, 14, 14, 341)  174933      lambda_81[0][0]                  
__________________________________________________________________________________________________
conv2d_295 (Conv2D)             (None, 14, 14, 341)  174933      lambda_81[0][1]                  
__________________________________________________________________________________________________
conv2d_296 (Conv2D)             (None, 14, 14, 342)  175446      lambda_81[0][2]                  
__________________________________________________________________________________________________
concatenate_27 (Concatenate)    (None, 14, 14, 1024) 0           conv2d_291[0][0]                 
                                                                 conv2d_292[0][0]                 
                                                                 conv2d_293[0][0]                 
__________________________________________________________________________________________________
concatenate_28 (Concatenate)    (None, 14, 14, 1024) 0           conv2d_294[0][0]                 
                                                                 conv2d_295[0][0]                 
                                                                 conv2d_296[0][0]                 
__________________________________________________________________________________________________
add_93 (Add)                    (None, 14, 14, 1024) 0           concatenate_27[0][0]             
                                                                 concatenate_28[0][0]             
__________________________________________________________________________________________________
activation_40 (Activation)      (None, 14, 14, 1024) 0           add_93[0][0]                     
__________________________________________________________________________________________________
lambda_82 (Lambda)              [(None, 14, 14, 1024 0           activation_40[0][0]              
__________________________________________________________________________________________________
conv2d_297 (Conv2D)             (None, 14, 14, 85)   87125       lambda_82[0][0]                  
__________________________________________________________________________________________________
conv2d_298 (Conv2D)             (None, 14, 14, 85)   87125       lambda_82[0][1]                  
__________________________________________________________________________________________________
conv2d_299 (Conv2D)             (None, 14, 14, 86)   88150       lambda_82[0][2]                  
__________________________________________________________________________________________________
concatenate_29 (Concatenate)    (None, 14, 14, 256)  0           conv2d_297[0][0]                 
                                                                 conv2d_298[0][0]                 
                                                                 conv2d_299[0][0]                 
__________________________________________________________________________________________________
lambda_83 (Lambda)              [(None, 14, 14, 256) 0           concatenate_29[0][0]             
__________________________________________________________________________________________________
conv2d_300 (Conv2D)             (None, 14, 14, 85)   195925      lambda_83[0][0]                  
__________________________________________________________________________________________________
conv2d_301 (Conv2D)             (None, 14, 14, 85)   195925      lambda_83[0][1]                  
__________________________________________________________________________________________________
conv2d_302 (Conv2D)             (None, 14, 14, 86)   198230      lambda_83[0][2]                  
__________________________________________________________________________________________________
concatenate_30 (Concatenate)    (None, 14, 14, 256)  0           conv2d_300[0][0]                 
                                                                 conv2d_301[0][0]                 
                                                                 conv2d_302[0][0]                 
__________________________________________________________________________________________________
lambda_84 (Lambda)              [(None, 14, 14, 256) 0           concatenate_30[0][0]             
__________________________________________________________________________________________________
conv2d_303 (Conv2D)             (None, 14, 14, 341)  87637       lambda_84[0][0]                  
__________________________________________________________________________________________________
conv2d_304 (Conv2D)             (None, 14, 14, 341)  87637       lambda_84[0][1]                  
__________________________________________________________________________________________________
conv2d_305 (Conv2D)             (None, 14, 14, 342)  87894       lambda_84[0][2]                  
__________________________________________________________________________________________________
concatenate_31 (Concatenate)    (None, 14, 14, 1024) 0           conv2d_303[0][0]                 
                                                                 conv2d_304[0][0]                 
                                                                 conv2d_305[0][0]                 
__________________________________________________________________________________________________
add_94 (Add)                    (None, 14, 14, 1024) 0           concatenate_31[0][0]             
                                                                 activation_40[0][0]              
__________________________________________________________________________________________________
activation_41 (Activation)      (None, 14, 14, 1024) 0           add_94[0][0]                     
__________________________________________________________________________________________________
lambda_85 (Lambda)              [(None, 14, 14, 1024 0           activation_41[0][0]              
__________________________________________________________________________________________________
conv2d_306 (Conv2D)             (None, 14, 14, 85)   87125       lambda_85[0][0]                  
__________________________________________________________________________________________________
conv2d_307 (Conv2D)             (None, 14, 14, 85)   87125       lambda_85[0][1]                  
__________________________________________________________________________________________________
conv2d_308 (Conv2D)             (None, 14, 14, 86)   88150       lambda_85[0][2]                  
__________________________________________________________________________________________________
concatenate_32 (Concatenate)    (None, 14, 14, 256)  0           conv2d_306[0][0]                 
                                                                 conv2d_307[0][0]                 
                                                                 conv2d_308[0][0]                 
__________________________________________________________________________________________________
lambda_86 (Lambda)              [(None, 14, 14, 256) 0           concatenate_32[0][0]             
__________________________________________________________________________________________________
conv2d_309 (Conv2D)             (None, 14, 14, 85)   195925      lambda_86[0][0]                  
__________________________________________________________________________________________________
conv2d_310 (Conv2D)             (None, 14, 14, 85)   195925      lambda_86[0][1]                  
__________________________________________________________________________________________________
conv2d_311 (Conv2D)             (None, 14, 14, 86)   198230      lambda_86[0][2]                  
__________________________________________________________________________________________________
concatenate_33 (Concatenate)    (None, 14, 14, 256)  0           conv2d_309[0][0]                 
                                                                 conv2d_310[0][0]                 
                                                                 conv2d_311[0][0]                 
__________________________________________________________________________________________________
lambda_87 (Lambda)              [(None, 14, 14, 256) 0           concatenate_33[0][0]             
__________________________________________________________________________________________________
conv2d_312 (Conv2D)             (None, 14, 14, 341)  87637       lambda_87[0][0]                  
__________________________________________________________________________________________________
conv2d_313 (Conv2D)             (None, 14, 14, 341)  87637       lambda_87[0][1]                  
__________________________________________________________________________________________________
conv2d_314 (Conv2D)             (None, 14, 14, 342)  87894       lambda_87[0][2]                  
__________________________________________________________________________________________________
concatenate_34 (Concatenate)    (None, 14, 14, 1024) 0           conv2d_312[0][0]                 
                                                                 conv2d_313[0][0]                 
                                                                 conv2d_314[0][0]                 
__________________________________________________________________________________________________
add_95 (Add)                    (None, 14, 14, 1024) 0           concatenate_34[0][0]             
                                                                 activation_41[0][0]              
__________________________________________________________________________________________________
activation_42 (Activation)      (None, 14, 14, 1024) 0           add_95[0][0]                     
__________________________________________________________________________________________________
lambda_88 (Lambda)              [(None, 14, 14, 1024 0           activation_42[0][0]              
__________________________________________________________________________________________________
conv2d_315 (Conv2D)             (None, 14, 14, 85)   87125       lambda_88[0][0]                  
__________________________________________________________________________________________________
conv2d_316 (Conv2D)             (None, 14, 14, 85)   87125       lambda_88[0][1]                  
__________________________________________________________________________________________________
conv2d_317 (Conv2D)             (None, 14, 14, 86)   88150       lambda_88[0][2]                  
__________________________________________________________________________________________________
concatenate_35 (Concatenate)    (None, 14, 14, 256)  0           conv2d_315[0][0]                 
                                                                 conv2d_316[0][0]                 
                                                                 conv2d_317[0][0]                 
__________________________________________________________________________________________________
lambda_89 (Lambda)              [(None, 14, 14, 256) 0           concatenate_35[0][0]             
__________________________________________________________________________________________________
conv2d_318 (Conv2D)             (None, 14, 14, 85)   195925      lambda_89[0][0]                  
__________________________________________________________________________________________________
conv2d_319 (Conv2D)             (None, 14, 14, 85)   195925      lambda_89[0][1]                  
__________________________________________________________________________________________________
conv2d_320 (Conv2D)             (None, 14, 14, 86)   198230      lambda_89[0][2]                  
__________________________________________________________________________________________________
concatenate_36 (Concatenate)    (None, 14, 14, 256)  0           conv2d_318[0][0]                 
                                                                 conv2d_319[0][0]                 
                                                                 conv2d_320[0][0]                 
__________________________________________________________________________________________________
lambda_90 (Lambda)              [(None, 14, 14, 256) 0           concatenate_36[0][0]             
__________________________________________________________________________________________________
conv2d_321 (Conv2D)             (None, 14, 14, 341)  87637       lambda_90[0][0]                  
__________________________________________________________________________________________________
conv2d_322 (Conv2D)             (None, 14, 14, 341)  87637       lambda_90[0][1]                  
__________________________________________________________________________________________________
conv2d_323 (Conv2D)             (None, 14, 14, 342)  87894       lambda_90[0][2]                  
__________________________________________________________________________________________________
concatenate_37 (Concatenate)    (None, 14, 14, 1024) 0           conv2d_321[0][0]                 
                                                                 conv2d_322[0][0]                 
                                                                 conv2d_323[0][0]                 
__________________________________________________________________________________________________
add_96 (Add)                    (None, 14, 14, 1024) 0           concatenate_37[0][0]             
                                                                 activation_42[0][0]              
__________________________________________________________________________________________________
activation_43 (Activation)      (None, 14, 14, 1024) 0           add_96[0][0]                     
__________________________________________________________________________________________________
lambda_91 (Lambda)              [(None, 14, 14, 1024 0           activation_43[0][0]              
__________________________________________________________________________________________________
conv2d_324 (Conv2D)             (None, 14, 14, 85)   87125       lambda_91[0][0]                  
__________________________________________________________________________________________________
conv2d_325 (Conv2D)             (None, 14, 14, 85)   87125       lambda_91[0][1]                  
__________________________________________________________________________________________________
conv2d_326 (Conv2D)             (None, 14, 14, 86)   88150       lambda_91[0][2]                  
__________________________________________________________________________________________________
concatenate_38 (Concatenate)    (None, 14, 14, 256)  0           conv2d_324[0][0]                 
                                                                 conv2d_325[0][0]                 
                                                                 conv2d_326[0][0]                 
__________________________________________________________________________________________________
lambda_92 (Lambda)              [(None, 14, 14, 256) 0           concatenate_38[0][0]             
__________________________________________________________________________________________________
conv2d_327 (Conv2D)             (None, 14, 14, 85)   195925      lambda_92[0][0]                  
__________________________________________________________________________________________________
conv2d_328 (Conv2D)             (None, 14, 14, 85)   195925      lambda_92[0][1]                  
__________________________________________________________________________________________________
conv2d_329 (Conv2D)             (None, 14, 14, 86)   198230      lambda_92[0][2]                  
__________________________________________________________________________________________________
concatenate_39 (Concatenate)    (None, 14, 14, 256)  0           conv2d_327[0][0]                 
                                                                 conv2d_328[0][0]                 
                                                                 conv2d_329[0][0]                 
__________________________________________________________________________________________________
lambda_93 (Lambda)              [(None, 14, 14, 256) 0           concatenate_39[0][0]             
__________________________________________________________________________________________________
conv2d_330 (Conv2D)             (None, 14, 14, 341)  87637       lambda_93[0][0]                  
__________________________________________________________________________________________________
conv2d_331 (Conv2D)             (None, 14, 14, 341)  87637       lambda_93[0][1]                  
__________________________________________________________________________________________________
conv2d_332 (Conv2D)             (None, 14, 14, 342)  87894       lambda_93[0][2]                  
__________________________________________________________________________________________________
concatenate_40 (Concatenate)    (None, 14, 14, 1024) 0           conv2d_330[0][0]                 
                                                                 conv2d_331[0][0]                 
                                                                 conv2d_332[0][0]                 
__________________________________________________________________________________________________
add_97 (Add)                    (None, 14, 14, 1024) 0           concatenate_40[0][0]             
                                                                 activation_43[0][0]              
__________________________________________________________________________________________________
activation_44 (Activation)      (None, 14, 14, 1024) 0           add_97[0][0]                     
__________________________________________________________________________________________________
lambda_94 (Lambda)              [(None, 14, 14, 1024 0           activation_44[0][0]              
__________________________________________________________________________________________________
conv2d_333 (Conv2D)             (None, 14, 14, 85)   87125       lambda_94[0][0]                  
__________________________________________________________________________________________________
conv2d_334 (Conv2D)             (None, 14, 14, 85)   87125       lambda_94[0][1]                  
__________________________________________________________________________________________________
conv2d_335 (Conv2D)             (None, 14, 14, 86)   88150       lambda_94[0][2]                  
__________________________________________________________________________________________________
concatenate_41 (Concatenate)    (None, 14, 14, 256)  0           conv2d_333[0][0]                 
                                                                 conv2d_334[0][0]                 
                                                                 conv2d_335[0][0]                 
__________________________________________________________________________________________________
lambda_95 (Lambda)              [(None, 14, 14, 256) 0           concatenate_41[0][0]             
__________________________________________________________________________________________________
conv2d_336 (Conv2D)             (None, 14, 14, 85)   195925      lambda_95[0][0]                  
__________________________________________________________________________________________________
conv2d_337 (Conv2D)             (None, 14, 14, 85)   195925      lambda_95[0][1]                  
__________________________________________________________________________________________________
conv2d_338 (Conv2D)             (None, 14, 14, 86)   198230      lambda_95[0][2]                  
__________________________________________________________________________________________________
concatenate_42 (Concatenate)    (None, 14, 14, 256)  0           conv2d_336[0][0]                 
                                                                 conv2d_337[0][0]                 
                                                                 conv2d_338[0][0]                 
__________________________________________________________________________________________________
lambda_96 (Lambda)              [(None, 14, 14, 256) 0           concatenate_42[0][0]             
__________________________________________________________________________________________________
conv2d_339 (Conv2D)             (None, 14, 14, 341)  87637       lambda_96[0][0]                  
__________________________________________________________________________________________________
conv2d_340 (Conv2D)             (None, 14, 14, 341)  87637       lambda_96[0][1]                  
__________________________________________________________________________________________________
conv2d_341 (Conv2D)             (None, 14, 14, 342)  87894       lambda_96[0][2]                  
__________________________________________________________________________________________________
concatenate_43 (Concatenate)    (None, 14, 14, 1024) 0           conv2d_339[0][0]                 
                                                                 conv2d_340[0][0]                 
                                                                 conv2d_341[0][0]                 
__________________________________________________________________________________________________
add_98 (Add)                    (None, 14, 14, 1024) 0           concatenate_43[0][0]             
                                                                 activation_44[0][0]              
__________________________________________________________________________________________________
activation_45 (Activation)      (None, 14, 14, 1024) 0           add_98[0][0]                     
__________________________________________________________________________________________________
lambda_97 (Lambda)              [(None, 14, 14, 1024 0           activation_45[0][0]              
__________________________________________________________________________________________________
conv2d_342 (Conv2D)             (None, 7, 7, 170)    174250      lambda_97[0][0]                  
__________________________________________________________________________________________________
conv2d_343 (Conv2D)             (None, 7, 7, 170)    174250      lambda_97[0][1]                  
__________________________________________________________________________________________________
conv2d_344 (Conv2D)             (None, 7, 7, 172)    176300      lambda_97[0][2]                  
__________________________________________________________________________________________________
concatenate_44 (Concatenate)    (None, 7, 7, 512)    0           conv2d_342[0][0]                 
                                                                 conv2d_343[0][0]                 
                                                                 conv2d_344[0][0]                 
__________________________________________________________________________________________________
lambda_98 (Lambda)              [(None, 7, 7, 512),  0           concatenate_44[0][0]             
__________________________________________________________________________________________________
conv2d_345 (Conv2D)             (None, 7, 7, 170)    783530      lambda_98[0][0]                  
__________________________________________________________________________________________________
conv2d_346 (Conv2D)             (None, 7, 7, 170)    783530      lambda_98[0][1]                  
__________________________________________________________________________________________________
conv2d_347 (Conv2D)             (None, 7, 7, 172)    792748      lambda_98[0][2]                  
__________________________________________________________________________________________________
concatenate_45 (Concatenate)    (None, 7, 7, 512)    0           conv2d_345[0][0]                 
                                                                 conv2d_346[0][0]                 
                                                                 conv2d_347[0][0]                 
__________________________________________________________________________________________________
lambda_99 (Lambda)              [(None, 7, 7, 512),  0           concatenate_45[0][0]             
__________________________________________________________________________________________________
lambda_100 (Lambda)             [(None, 14, 14, 1024 0           activation_45[0][0]              
__________________________________________________________________________________________________
conv2d_348 (Conv2D)             (None, 7, 7, 682)    349866      lambda_99[0][0]                  
__________________________________________________________________________________________________
conv2d_349 (Conv2D)             (None, 7, 7, 682)    349866      lambda_99[0][1]                  
__________________________________________________________________________________________________
conv2d_350 (Conv2D)             (None, 7, 7, 684)    350892      lambda_99[0][2]                  
__________________________________________________________________________________________________
conv2d_351 (Conv2D)             (None, 7, 7, 682)    699050      lambda_100[0][0]                 
__________________________________________________________________________________________________
conv2d_352 (Conv2D)             (None, 7, 7, 682)    699050      lambda_100[0][1]                 
__________________________________________________________________________________________________
conv2d_353 (Conv2D)             (None, 7, 7, 684)    701100      lambda_100[0][2]                 
__________________________________________________________________________________________________
concatenate_46 (Concatenate)    (None, 7, 7, 2048)   0           conv2d_348[0][0]                 
                                                                 conv2d_349[0][0]                 
                                                                 conv2d_350[0][0]                 
__________________________________________________________________________________________________
concatenate_47 (Concatenate)    (None, 7, 7, 2048)   0           conv2d_351[0][0]                 
                                                                 conv2d_352[0][0]                 
                                                                 conv2d_353[0][0]                 
__________________________________________________________________________________________________
add_99 (Add)                    (None, 7, 7, 2048)   0           concatenate_46[0][0]             
                                                                 concatenate_47[0][0]             
__________________________________________________________________________________________________
activation_46 (Activation)      (None, 7, 7, 2048)   0           add_99[0][0]                     
__________________________________________________________________________________________________
lambda_101 (Lambda)             [(None, 7, 7, 2048), 0           activation_46[0][0]              
__________________________________________________________________________________________________
conv2d_354 (Conv2D)             (None, 7, 7, 170)    348330      lambda_101[0][0]                 
__________________________________________________________________________________________________
conv2d_355 (Conv2D)             (None, 7, 7, 170)    348330      lambda_101[0][1]                 
__________________________________________________________________________________________________
conv2d_356 (Conv2D)             (None, 7, 7, 172)    352428      lambda_101[0][2]                 
__________________________________________________________________________________________________
concatenate_48 (Concatenate)    (None, 7, 7, 512)    0           conv2d_354[0][0]                 
                                                                 conv2d_355[0][0]                 
                                                                 conv2d_356[0][0]                 
__________________________________________________________________________________________________
lambda_102 (Lambda)             [(None, 7, 7, 512),  0           concatenate_48[0][0]             
__________________________________________________________________________________________________
conv2d_357 (Conv2D)             (None, 7, 7, 170)    783530      lambda_102[0][0]                 
__________________________________________________________________________________________________
conv2d_358 (Conv2D)             (None, 7, 7, 170)    783530      lambda_102[0][1]                 
__________________________________________________________________________________________________
conv2d_359 (Conv2D)             (None, 7, 7, 172)    792748      lambda_102[0][2]                 
__________________________________________________________________________________________________
concatenate_49 (Concatenate)    (None, 7, 7, 512)    0           conv2d_357[0][0]                 
                                                                 conv2d_358[0][0]                 
                                                                 conv2d_359[0][0]                 
__________________________________________________________________________________________________
lambda_103 (Lambda)             [(None, 7, 7, 512),  0           concatenate_49[0][0]             
__________________________________________________________________________________________________
conv2d_360 (Conv2D)             (None, 7, 7, 682)    349866      lambda_103[0][0]                 
__________________________________________________________________________________________________
conv2d_361 (Conv2D)             (None, 7, 7, 682)    349866      lambda_103[0][1]                 
__________________________________________________________________________________________________
conv2d_362 (Conv2D)             (None, 7, 7, 684)    350892      lambda_103[0][2]                 
__________________________________________________________________________________________________
concatenate_50 (Concatenate)    (None, 7, 7, 2048)   0           conv2d_360[0][0]                 
                                                                 conv2d_361[0][0]                 
                                                                 conv2d_362[0][0]                 
__________________________________________________________________________________________________
add_100 (Add)                   (None, 7, 7, 2048)   0           concatenate_50[0][0]             
                                                                 activation_46[0][0]              
__________________________________________________________________________________________________
activation_47 (Activation)      (None, 7, 7, 2048)   0           add_100[0][0]                    
__________________________________________________________________________________________________
lambda_104 (Lambda)             [(None, 7, 7, 2048), 0           activation_47[0][0]              
__________________________________________________________________________________________________
conv2d_363 (Conv2D)             (None, 7, 7, 170)    348330      lambda_104[0][0]                 
__________________________________________________________________________________________________
conv2d_364 (Conv2D)             (None, 7, 7, 170)    348330      lambda_104[0][1]                 
__________________________________________________________________________________________________
conv2d_365 (Conv2D)             (None, 7, 7, 172)    352428      lambda_104[0][2]                 
__________________________________________________________________________________________________
concatenate_51 (Concatenate)    (None, 7, 7, 512)    0           conv2d_363[0][0]                 
                                                                 conv2d_364[0][0]                 
                                                                 conv2d_365[0][0]                 
__________________________________________________________________________________________________
lambda_105 (Lambda)             [(None, 7, 7, 512),  0           concatenate_51[0][0]             
__________________________________________________________________________________________________
conv2d_366 (Conv2D)             (None, 7, 7, 170)    783530      lambda_105[0][0]                 
__________________________________________________________________________________________________
conv2d_367 (Conv2D)             (None, 7, 7, 170)    783530      lambda_105[0][1]                 
__________________________________________________________________________________________________
conv2d_368 (Conv2D)             (None, 7, 7, 172)    792748      lambda_105[0][2]                 
__________________________________________________________________________________________________
concatenate_52 (Concatenate)    (None, 7, 7, 512)    0           conv2d_366[0][0]                 
                                                                 conv2d_367[0][0]                 
                                                                 conv2d_368[0][0]                 
__________________________________________________________________________________________________
lambda_106 (Lambda)             [(None, 7, 7, 512),  0           concatenate_52[0][0]             
__________________________________________________________________________________________________
conv2d_369 (Conv2D)             (None, 7, 7, 682)    349866      lambda_106[0][0]                 
__________________________________________________________________________________________________
conv2d_370 (Conv2D)             (None, 7, 7, 682)    349866      lambda_106[0][1]                 
__________________________________________________________________________________________________
conv2d_371 (Conv2D)             (None, 7, 7, 684)    350892      lambda_106[0][2]                 
__________________________________________________________________________________________________
concatenate_53 (Concatenate)    (None, 7, 7, 2048)   0           conv2d_369[0][0]                 
                                                                 conv2d_370[0][0]                 
                                                                 conv2d_371[0][0]                 
__________________________________________________________________________________________________
add_101 (Add)                   (None, 7, 7, 2048)   0           concatenate_53[0][0]             
                                                                 activation_47[0][0]              
__________________________________________________________________________________________________
activation_48 (Activation)      (None, 7, 7, 2048)   0           add_101[0][0]                    
__________________________________________________________________________________________________
average_pooling2d_3 (AveragePoo (None, 1, 1, 2048)   0           activation_48[0][0]              
__________________________________________________________________________________________________
flatten_3 (Flatten)             (None, 2048)         0           average_pooling2d_3[0][0]        
__________________________________________________________________________________________________
dense_3 (Dense)                 (None, 1000)         2049000     flatten_3[0][0]                  
==================================================================================================
Total params: 25,530,472
Trainable params: 25,530,472
Non-trainable params: 0
__________________________________________________________________________________________________
None
