{"vgg16_channel_13_conv_0": {"class_name": "Conv2D", "config": {"padding": "same", "kernel_initializer": {"class_name": "VarianceScaling", "config": {"distribution": "uniform", "scale": 1.0, "seed": null, "mode": "fan_avg"}}, "name": "vgg16_channel_13_conv_0", "bias_regularizer": null, "filters": 170, "bias_constraint": null, "activation": "relu", "trainable": true, "data_format": "channels_last", "kernel_constraint": null, "strides": [1, 1], "dilation_rate": [1, 1], "kernel_regularizer": null, "bias_initializer": {"class_name": "Zeros", "config": {}}, "use_bias": true, "activity_regularizer": null, "kernel_size": [3, 3]}, "input_shape": [13, 13, 512]}, "vgg16_channel_12_conv_0": {"class_name": "Conv2D", "config": {"padding": "same", "kernel_initializer": {"class_name": "VarianceScaling", "config": {"distribution": "uniform", "scale": 1.0, "seed": null, "mode": "fan_avg"}}, "name": "vgg16_channel_12_conv_0", "bias_regularizer": null, "filters": 170, "bias_constraint": null, "activation": "relu", "trainable": true, "data_format": "channels_last", "kernel_constraint": null, "strides": [1, 1], "dilation_rate": [1, 1], "kernel_regularizer": null, "bias_initializer": {"class_name": "Zeros", "config": {}}, "use_bias": true, "activity_regularizer": null, "kernel_size": [3, 3]}, "input_shape": [13, 13, 512]}, "vgg16_channel_12_conv_1": {"class_name": "Conv2D", "config": {"padding": "same", "kernel_initializer": {"class_name": "VarianceScaling", "config": {"distribution": "uniform", "scale": 1.0, "seed": null, "mode": "fan_avg"}}, "name": "vgg16_channel_12_conv_1", "bias_regularizer": null, "filters": 170, "bias_constraint": null, "activation": "relu", "trainable": true, "data_format": "channels_last", "kernel_constraint": null, "strides": [1, 1], "dilation_rate": [1, 1], "kernel_regularizer": null, "bias_initializer": {"class_name": "Zeros", "config": {}}, "use_bias": true, "activity_regularizer": null, "kernel_size": [3, 3]}, "input_shape": [13, 13, 512]}, "vgg16_channel_12_conv_2": {"class_name": "Conv2D", "config": {"padding": "same", "kernel_initializer": {"class_name": "VarianceScaling", "config": {"distribution": "uniform", "scale": 1.0, "seed": null, "mode": "fan_avg"}}, "name": "vgg16_channel_12_conv_2", "bias_regularizer": null, "filters": 172, "bias_constraint": null, "activation": "relu", "trainable": true, "data_format": "channels_last", "kernel_constraint": null, "strides": [1, 1], "dilation_rate": [1, 1], "kernel_regularizer": null, "bias_initializer": {"class_name": "Zeros", "config": {}}, "use_bias": true, "activity_regularizer": null, "kernel_size": [3, 3]}, "input_shape": [13, 13, 512]}, "lambda_37": {"class_name": "Lambda", "config": {"function": ["YwEAAAACAAAAAwAAABMAAABzHQAAAGcAAHQAAIgAAIMBAERdDAB9AQB8AABeAgBxDQBTKAEAAABO\nKAEAAAB0BQAAAHJhbmdlKAIAAAB0AQAAAHh0AQAAAF8oAQAAAHQDAAAAbnVtKAAAAABzEAAAAHV0\naWxzL2NoYW5uZWwucHl0CAAAADxsYW1iZGE+DgAAAHQAAAAA\n", null, [3]], "name": "lambda_37", "trainable": true, "function_type": "lambda", "arguments": {}, "output_shape": null, "output_shape_type": "raw"}, "input_shape": [13, 13, 512]}, "vgg16_channel_11_conv_0": {"class_name": "Conv2D", "config": {"padding": "same", "kernel_initializer": {"class_name": "VarianceScaling", "config": {"distribution": "uniform", "scale": 1.0, "seed": null, "mode": "fan_avg"}}, "name": "vgg16_channel_11_conv_0", "bias_regularizer": null, "filters": 170, "bias_constraint": null, "activation": "relu", "trainable": true, "data_format": "channels_last", "kernel_constraint": null, "strides": [1, 1], "dilation_rate": [1, 1], "kernel_regularizer": null, "bias_initializer": {"class_name": "Zeros", "config": {}}, "use_bias": true, "activity_regularizer": null, "kernel_size": [3, 3]}, "input_shape": [13, 13, 512]}, "lambda_36": {"class_name": "Lambda", "config": {"function": ["YwEAAAACAAAAAwAAABMAAABzHQAAAGcAAHQAAIgAAIMBAERdDAB9AQB8AABeAgBxDQBTKAEAAABO\nKAEAAAB0BQAAAHJhbmdlKAIAAAB0AQAAAHh0AQAAAF8oAQAAAHQDAAAAbnVtKAAAAABzEAAAAHV0\naWxzL2NoYW5uZWwucHl0CAAAADxsYW1iZGE+DgAAAHQAAAAA\n", null, [3]], "name": "lambda_36", "trainable": true, "function_type": "lambda", "arguments": {}, "output_shape": null, "output_shape_type": "raw"}, "input_shape": [27, 27, 512]}, "vgg16_channel_11_conv_2": {"class_name": "Conv2D", "config": {"padding": "same", "kernel_initializer": {"class_name": "VarianceScaling", "config": {"distribution": "uniform", "scale": 1.0, "seed": null, "mode": "fan_avg"}}, "name": "vgg16_channel_11_conv_2", "bias_regularizer": null, "filters": 172, "bias_constraint": null, "activation": "relu", "trainable": true, "data_format": "channels_last", "kernel_constraint": null, "strides": [1, 1], "dilation_rate": [1, 1], "kernel_regularizer": null, "bias_initializer": {"class_name": "Zeros", "config": {}}, "use_bias": true, "activity_regularizer": null, "kernel_size": [3, 3]}, "input_shape": [13, 13, 512]}, "vgg16_channel_1_conv_1": {"class_name": "Conv2D", "config": {"padding": "same", "kernel_initializer": {"class_name": "VarianceScaling", "config": {"distribution": "uniform", "scale": 1.0, "seed": null, "mode": "fan_avg"}}, "name": "vgg16_channel_1_conv_1", "bias_regularizer": null, "filters": 21, "bias_constraint": null, "activation": "relu", "trainable": true, "data_format": "channels_last", "kernel_constraint": null, "strides": [1, 1], "dilation_rate": [1, 1], "kernel_regularizer": null, "bias_initializer": {"class_name": "Zeros", "config": {}}, "use_bias": true, "activity_regularizer": null, "kernel_size": [3, 3]}, "input_shape": [220, 220, 3]}, "vgg16_channel_1_conv_0": {"class_name": "Conv2D", "config": {"padding": "same", "kernel_initializer": {"class_name": "VarianceScaling", "config": {"distribution": "uniform", "scale": 1.0, "seed": null, "mode": "fan_avg"}}, "name": "vgg16_channel_1_conv_0", "bias_regularizer": null, "filters": 21, "bias_constraint": null, "activation": "relu", "trainable": true, "data_format": "channels_last", "kernel_constraint": null, "strides": [1, 1], "dilation_rate": [1, 1], "kernel_regularizer": null, "bias_initializer": {"class_name": "Zeros", "config": {}}, "use_bias": true, "activity_regularizer": null, "kernel_size": [3, 3]}, "input_shape": [220, 220, 3]}, "vgg16_channel_1_conv_2": {"class_name": "Conv2D", "config": {"padding": "same", "kernel_initializer": {"class_name": "VarianceScaling", "config": {"distribution": "uniform", "scale": 1.0, "seed": null, "mode": "fan_avg"}}, "name": "vgg16_channel_1_conv_2", "bias_regularizer": null, "filters": 22, "bias_constraint": null, "activation": "relu", "trainable": true, "data_format": "channels_last", "kernel_constraint": null, "strides": [1, 1], "dilation_rate": [1, 1], "kernel_regularizer": null, "bias_initializer": {"class_name": "Zeros", "config": {}}, "use_bias": true, "activity_regularizer": null, "kernel_size": [3, 3]}, "input_shape": [220, 220, 3]}, "max_pooling2d_19": {"class_name": "MaxPooling2D", "config": {"name": "max_pooling2d_19", "trainable": true, "data_format": "channels_last", "pool_size": [2, 2], "padding": "valid", "strides": [2, 2]}, "input_shape": [27, 27, 512]}, "max_pooling2d_18": {"class_name": "MaxPooling2D", "config": {"name": "max_pooling2d_18", "trainable": true, "data_format": "channels_last", "pool_size": [2, 2], "padding": "valid", "strides": [2, 2]}, "input_shape": [55, 55, 256]}, "vgg16_channel_10_conv_2": {"class_name": "Conv2D", "config": {"padding": "same", "kernel_initializer": {"class_name": "VarianceScaling", "config": {"distribution": "uniform", "scale": 1.0, "seed": null, "mode": "fan_avg"}}, "name": "vgg16_channel_10_conv_2", "bias_regularizer": null, "filters": 172, "bias_constraint": null, "activation": "relu", "trainable": true, "data_format": "channels_last", "kernel_constraint": null, "strides": [1, 1], "dilation_rate": [1, 1], "kernel_regularizer": null, "bias_initializer": {"class_name": "Zeros", "config": {}}, "use_bias": true, "activity_regularizer": null, "kernel_size": [3, 3]}, "input_shape": [27, 27, 512]}, "vgg16_channel_10_conv_0": {"class_name": "Conv2D", "config": {"padding": "same", "kernel_initializer": {"class_name": "VarianceScaling", "config": {"distribution": "uniform", "scale": 1.0, "seed": null, "mode": "fan_avg"}}, "name": "vgg16_channel_10_conv_0", "bias_regularizer": null, "filters": 170, "bias_constraint": null, "activation": "relu", "trainable": true, "data_format": "channels_last", "kernel_constraint": null, "strides": [1, 1], "dilation_rate": [1, 1], "kernel_regularizer": null, "bias_initializer": {"class_name": "Zeros", "config": {}}, "use_bias": true, "activity_regularizer": null, "kernel_size": [3, 3]}, "input_shape": [27, 27, 512]}, "lambda_35": {"class_name": "Lambda", "config": {"function": ["YwEAAAACAAAAAwAAABMAAABzHQAAAGcAAHQAAIgAAIMBAERdDAB9AQB8AABeAgBxDQBTKAEAAABO\nKAEAAAB0BQAAAHJhbmdlKAIAAAB0AQAAAHh0AQAAAF8oAQAAAHQDAAAAbnVtKAAAAABzEAAAAHV0\naWxzL2NoYW5uZWwucHl0CAAAADxsYW1iZGE+DgAAAHQAAAAA\n", null, [3]], "name": "lambda_35", "trainable": true, "function_type": "lambda", "arguments": {}, "output_shape": null, "output_shape_type": "raw"}, "input_shape": [27, 27, 512]}, "vgg16_channel_6_conv_0": {"class_name": "Conv2D", "config": {"padding": "same", "kernel_initializer": {"class_name": "VarianceScaling", "config": {"distribution": "uniform", "scale": 1.0, "seed": null, "mode": "fan_avg"}}, "name": "vgg16_channel_6_conv_0", "bias_regularizer": null, "filters": 85, "bias_constraint": null, "activation": "relu", "trainable": true, "data_format": "channels_last", "kernel_constraint": null, "strides": [1, 1], "dilation_rate": [1, 1], "kernel_regularizer": null, "bias_initializer": {"class_name": "Zeros", "config": {}}, "use_bias": true, "activity_regularizer": null, "kernel_size": [3, 3]}, "input_shape": [55, 55, 256]}, "vgg16_channel_6_conv_1": {"class_name": "Conv2D", "config": {"padding": "same", "kernel_initializer": {"class_name": "VarianceScaling", "config": {"distribution": "uniform", "scale": 1.0, "seed": null, "mode": "fan_avg"}}, "name": "vgg16_channel_6_conv_1", "bias_regularizer": null, "filters": 85, "bias_constraint": null, "activation": "relu", "trainable": true, "data_format": "channels_last", "kernel_constraint": null, "strides": [1, 1], "dilation_rate": [1, 1], "kernel_regularizer": null, "bias_initializer": {"class_name": "Zeros", "config": {}}, "use_bias": true, "activity_regularizer": null, "kernel_size": [3, 3]}, "input_shape": [55, 55, 256]}, "vgg16_channel_6_conv_2": {"class_name": "Conv2D", "config": {"padding": "same", "kernel_initializer": {"class_name": "VarianceScaling", "config": {"distribution": "uniform", "scale": 1.0, "seed": null, "mode": "fan_avg"}}, "name": "vgg16_channel_6_conv_2", "bias_regularizer": null, "filters": 86, "bias_constraint": null, "activation": "relu", "trainable": true, "data_format": "channels_last", "kernel_constraint": null, "strides": [1, 1], "dilation_rate": [1, 1], "kernel_regularizer": null, "bias_initializer": {"class_name": "Zeros", "config": {}}, "use_bias": true, "activity_regularizer": null, "kernel_size": [3, 3]}, "input_shape": [55, 55, 256]}, "vgg16_channel_11_conv_1": {"class_name": "Conv2D", "config": {"padding": "same", "kernel_initializer": {"class_name": "VarianceScaling", "config": {"distribution": "uniform", "scale": 1.0, "seed": null, "mode": "fan_avg"}}, "name": "vgg16_channel_11_conv_1", "bias_regularizer": null, "filters": 170, "bias_constraint": null, "activation": "relu", "trainable": true, "data_format": "channels_last", "kernel_constraint": null, "strides": [1, 1], "dilation_rate": [1, 1], "kernel_regularizer": null, "bias_initializer": {"class_name": "Zeros", "config": {}}, "use_bias": true, "activity_regularizer": null, "kernel_size": [3, 3]}, "input_shape": [13, 13, 512]}, "vgg16_channel_7_conv_1": {"class_name": "Conv2D", "config": {"padding": "same", "kernel_initializer": {"class_name": "VarianceScaling", "config": {"distribution": "uniform", "scale": 1.0, "seed": null, "mode": "fan_avg"}}, "name": "vgg16_channel_7_conv_1", "bias_regularizer": null, "filters": 85, "bias_constraint": null, "activation": "relu", "trainable": true, "data_format": "channels_last", "kernel_constraint": null, "strides": [1, 1], "dilation_rate": [1, 1], "kernel_regularizer": null, "bias_initializer": {"class_name": "Zeros", "config": {}}, "use_bias": true, "activity_regularizer": null, "kernel_size": [3, 3]}, "input_shape": [55, 55, 256]}, "max_pooling2d_17": {"class_name": "MaxPooling2D", "config": {"name": "max_pooling2d_17", "trainable": true, "data_format": "channels_last", "pool_size": [2, 2], "padding": "valid", "strides": [2, 2]}, "input_shape": [110, 110, 128]}, "max_pooling2d_16": {"class_name": "MaxPooling2D", "config": {"name": "max_pooling2d_16", "trainable": true, "data_format": "channels_last", "pool_size": [2, 2], "padding": "valid", "strides": [2, 2]}, "input_shape": [220, 220, 64]}, "lambda_34": {"class_name": "Lambda", "config": {"function": ["YwEAAAACAAAAAwAAABMAAABzHQAAAGcAAHQAAIgAAIMBAERdDAB9AQB8AABeAgBxDQBTKAEAAABO\nKAEAAAB0BQAAAHJhbmdlKAIAAAB0AQAAAHh0AQAAAF8oAQAAAHQDAAAAbnVtKAAAAABzEAAAAHV0\naWxzL2NoYW5uZWwucHl0CAAAADxsYW1iZGE+DgAAAHQAAAAA\n", null, [3]], "name": "lambda_34", "trainable": true, "function_type": "lambda", "arguments": {}, "output_shape": null, "output_shape_type": "raw"}, "input_shape": [27, 27, 256]}, "vgg16_channel_7_conv_2": {"class_name": "Conv2D", "config": {"padding": "same", "kernel_initializer": {"class_name": "VarianceScaling", "config": {"distribution": "uniform", "scale": 1.0, "seed": null, "mode": "fan_avg"}}, "name": "vgg16_channel_7_conv_2", "bias_regularizer": null, "filters": 86, "bias_constraint": null, "activation": "relu", "trainable": true, "data_format": "channels_last", "kernel_constraint": null, "strides": [1, 1], "dilation_rate": [1, 1], "kernel_regularizer": null, "bias_initializer": {"class_name": "Zeros", "config": {}}, "use_bias": true, "activity_regularizer": null, "kernel_size": [3, 3]}, "input_shape": [55, 55, 256]}, "input_4": {"class_name": "InputLayer", "config": {"dtype": "float32", "batch_input_shape": [null, 220, 220, 3], "name": "input_4", "sparse": false}, "input_shape": [220, 220, 3]}, "vgg16_channel_7_conv_0": {"class_name": "Conv2D", "config": {"padding": "same", "kernel_initializer": {"class_name": "VarianceScaling", "config": {"distribution": "uniform", "scale": 1.0, "seed": null, "mode": "fan_avg"}}, "name": "vgg16_channel_7_conv_0", "bias_regularizer": null, "filters": 85, "bias_constraint": null, "activation": "relu", "trainable": true, "data_format": "channels_last", "kernel_constraint": null, "strides": [1, 1], "dilation_rate": [1, 1], "kernel_regularizer": null, "bias_initializer": {"class_name": "Zeros", "config": {}}, "use_bias": true, "activity_regularizer": null, "kernel_size": [3, 3]}, "input_shape": [55, 55, 256]}, "vgg16_channel_4_conv_2": {"class_name": "Conv2D", "config": {"padding": "same", "kernel_initializer": {"class_name": "VarianceScaling", "config": {"distribution": "uniform", "scale": 1.0, "seed": null, "mode": "fan_avg"}}, "name": "vgg16_channel_4_conv_2", "bias_regularizer": null, "filters": 44, "bias_constraint": null, "activation": "relu", "trainable": true, "data_format": "channels_last", "kernel_constraint": null, "strides": [1, 1], "dilation_rate": [1, 1], "kernel_regularizer": null, "bias_initializer": {"class_name": "Zeros", "config": {}}, "use_bias": true, "activity_regularizer": null, "kernel_size": [3, 3]}, "input_shape": [110, 110, 128]}, "lambda_31": {"class_name": "Lambda", "config": {"function": ["YwEAAAACAAAAAwAAABMAAABzHQAAAGcAAHQAAIgAAIMBAERdDAB9AQB8AABeAgBxDQBTKAEAAABO\nKAEAAAB0BQAAAHJhbmdlKAIAAAB0AQAAAHh0AQAAAF8oAQAAAHQDAAAAbnVtKAAAAABzEAAAAHV0\naWxzL2NoYW5uZWwucHl0CAAAADxsYW1iZGE+DgAAAHQAAAAA\n", null, [3]], "name": "lambda_31", "trainable": true, "function_type": "lambda", "arguments": {}, "output_shape": null, "output_shape_type": "raw"}, "input_shape": [55, 55, 128]}, "vgg16_channel_4_conv_0": {"class_name": "Conv2D", "config": {"padding": "same", "kernel_initializer": {"class_name": "VarianceScaling", "config": {"distribution": "uniform", "scale": 1.0, "seed": null, "mode": "fan_avg"}}, "name": "vgg16_channel_4_conv_0", "bias_regularizer": null, "filters": 42, "bias_constraint": null, "activation": "relu", "trainable": true, "data_format": "channels_last", "kernel_constraint": null, "strides": [1, 1], "dilation_rate": [1, 1], "kernel_regularizer": null, "bias_initializer": {"class_name": "Zeros", "config": {}}, "use_bias": true, "activity_regularizer": null, "kernel_size": [3, 3]}, "input_shape": [110, 110, 128]}, "vgg16_channel_4_conv_1": {"class_name": "Conv2D", "config": {"padding": "same", "kernel_initializer": {"class_name": "VarianceScaling", "config": {"distribution": "uniform", "scale": 1.0, "seed": null, "mode": "fan_avg"}}, "name": "vgg16_channel_4_conv_1", "bias_regularizer": null, "filters": 42, "bias_constraint": null, "activation": "relu", "trainable": true, "data_format": "channels_last", "kernel_constraint": null, "strides": [1, 1], "dilation_rate": [1, 1], "kernel_regularizer": null, "bias_initializer": {"class_name": "Zeros", "config": {}}, "use_bias": true, "activity_regularizer": null, "kernel_size": [3, 3]}, "input_shape": [110, 110, 128]}, "vgg16_channel_8_conv_2": {"class_name": "Conv2D", "config": {"padding": "same", "kernel_initializer": {"class_name": "VarianceScaling", "config": {"distribution": "uniform", "scale": 1.0, "seed": null, "mode": "fan_avg"}}, "name": "vgg16_channel_8_conv_2", "bias_regularizer": null, "filters": 172, "bias_constraint": null, "activation": "relu", "trainable": true, "data_format": "channels_last", "kernel_constraint": null, "strides": [1, 1], "dilation_rate": [1, 1], "kernel_regularizer": null, "bias_initializer": {"class_name": "Zeros", "config": {}}, "use_bias": true, "activity_regularizer": null, "kernel_size": [3, 3]}, "input_shape": [27, 27, 256]}, "lambda_30": {"class_name": "Lambda", "config": {"function": ["YwEAAAACAAAAAwAAABMAAABzHQAAAGcAAHQAAIgAAIMBAERdDAB9AQB8AABeAgBxDQBTKAEAAABO\nKAEAAAB0BQAAAHJhbmdlKAIAAAB0AQAAAHh0AQAAAF8oAQAAAHQDAAAAbnVtKAAAAABzEAAAAHV0\naWxzL2NoYW5uZWwucHl0CAAAADxsYW1iZGE+DgAAAHQAAAAA\n", null, [3]], "name": "lambda_30", "trainable": true, "function_type": "lambda", "arguments": {}, "output_shape": null, "output_shape_type": "raw"}, "input_shape": [110, 110, 128]}, "vgg16_channel_8_conv_0": {"class_name": "Conv2D", "config": {"padding": "same", "kernel_initializer": {"class_name": "VarianceScaling", "config": {"distribution": "uniform", "scale": 1.0, "seed": null, "mode": "fan_avg"}}, "name": "vgg16_channel_8_conv_0", "bias_regularizer": null, "filters": 170, "bias_constraint": null, "activation": "relu", "trainable": true, "data_format": "channels_last", "kernel_constraint": null, "strides": [1, 1], "dilation_rate": [1, 1], "kernel_regularizer": null, "bias_initializer": {"class_name": "Zeros", "config": {}}, "use_bias": true, "activity_regularizer": null, "kernel_size": [3, 3]}, "input_shape": [27, 27, 256]}, "vgg16_channel_8_conv_1": {"class_name": "Conv2D", "config": {"padding": "same", "kernel_initializer": {"class_name": "VarianceScaling", "config": {"distribution": "uniform", "scale": 1.0, "seed": null, "mode": "fan_avg"}}, "name": "vgg16_channel_8_conv_1", "bias_regularizer": null, "filters": 170, "bias_constraint": null, "activation": "relu", "trainable": true, "data_format": "channels_last", "kernel_constraint": null, "strides": [1, 1], "dilation_rate": [1, 1], "kernel_regularizer": null, "bias_initializer": {"class_name": "Zeros", "config": {}}, "use_bias": true, "activity_regularizer": null, "kernel_size": [3, 3]}, "input_shape": [27, 27, 256]}, "lambda_38": {"class_name": "Lambda", "config": {"function": ["YwEAAAACAAAAAwAAABMAAABzHQAAAGcAAHQAAIgAAIMBAERdDAB9AQB8AABeAgBxDQBTKAEAAABO\nKAEAAAB0BQAAAHJhbmdlKAIAAAB0AQAAAHh0AQAAAF8oAQAAAHQDAAAAbnVtKAAAAABzEAAAAHV0\naWxzL2NoYW5uZWwucHl0CAAAADxsYW1iZGE+DgAAAHQAAAAA\n", null, [3]], "name": "lambda_38", "trainable": true, "function_type": "lambda", "arguments": {}, "output_shape": null, "output_shape_type": "raw"}, "input_shape": [13, 13, 512]}, "vgg16_channel_3_conv_2": {"class_name": "Conv2D", "config": {"padding": "same", "kernel_initializer": {"class_name": "VarianceScaling", "config": {"distribution": "uniform", "scale": 1.0, "seed": null, "mode": "fan_avg"}}, "name": "vgg16_channel_3_conv_2", "bias_regularizer": null, "filters": 44, "bias_constraint": null, "activation": "relu", "trainable": true, "data_format": "channels_last", "kernel_constraint": null, "strides": [1, 1], "dilation_rate": [1, 1], "kernel_regularizer": null, "bias_initializer": {"class_name": "Zeros", "config": {}}, "use_bias": true, "activity_regularizer": null, "kernel_size": [3, 3]}, "input_shape": [110, 110, 64]}, "vgg16_channel_3_conv_1": {"class_name": "Conv2D", "config": {"padding": "same", "kernel_initializer": {"class_name": "VarianceScaling", "config": {"distribution": "uniform", "scale": 1.0, "seed": null, "mode": "fan_avg"}}, "name": "vgg16_channel_3_conv_1", "bias_regularizer": null, "filters": 42, "bias_constraint": null, "activation": "relu", "trainable": true, "data_format": "channels_last", "kernel_constraint": null, "strides": [1, 1], "dilation_rate": [1, 1], "kernel_regularizer": null, "bias_initializer": {"class_name": "Zeros", "config": {}}, "use_bias": true, "activity_regularizer": null, "kernel_size": [3, 3]}, "input_shape": [110, 110, 64]}, "vgg16_channel_3_conv_0": {"class_name": "Conv2D", "config": {"padding": "same", "kernel_initializer": {"class_name": "VarianceScaling", "config": {"distribution": "uniform", "scale": 1.0, "seed": null, "mode": "fan_avg"}}, "name": "vgg16_channel_3_conv_0", "bias_regularizer": null, "filters": 42, "bias_constraint": null, "activation": "relu", "trainable": true, "data_format": "channels_last", "kernel_constraint": null, "strides": [1, 1], "dilation_rate": [1, 1], "kernel_regularizer": null, "bias_initializer": {"class_name": "Zeros", "config": {}}, "use_bias": true, "activity_regularizer": null, "kernel_size": [3, 3]}, "input_shape": [110, 110, 64]}, "vgg16_channel_5_conv_1": {"class_name": "Conv2D", "config": {"padding": "same", "kernel_initializer": {"class_name": "VarianceScaling", "config": {"distribution": "uniform", "scale": 1.0, "seed": null, "mode": "fan_avg"}}, "name": "vgg16_channel_5_conv_1", "bias_regularizer": null, "filters": 85, "bias_constraint": null, "activation": "relu", "trainable": true, "data_format": "channels_last", "kernel_constraint": null, "strides": [1, 1], "dilation_rate": [1, 1], "kernel_regularizer": null, "bias_initializer": {"class_name": "Zeros", "config": {}}, "use_bias": true, "activity_regularizer": null, "kernel_size": [3, 3]}, "input_shape": [55, 55, 128]}, "vgg16_channel_5_conv_0": {"class_name": "Conv2D", "config": {"padding": "same", "kernel_initializer": {"class_name": "VarianceScaling", "config": {"distribution": "uniform", "scale": 1.0, "seed": null, "mode": "fan_avg"}}, "name": "vgg16_channel_5_conv_0", "bias_regularizer": null, "filters": 85, "bias_constraint": null, "activation": "relu", "trainable": true, "data_format": "channels_last", "kernel_constraint": null, "strides": [1, 1], "dilation_rate": [1, 1], "kernel_regularizer": null, "bias_initializer": {"class_name": "Zeros", "config": {}}, "use_bias": true, "activity_regularizer": null, "kernel_size": [3, 3]}, "input_shape": [55, 55, 128]}, "vgg16_channel_5_conv_2": {"class_name": "Conv2D", "config": {"padding": "same", "kernel_initializer": {"class_name": "VarianceScaling", "config": {"distribution": "uniform", "scale": 1.0, "seed": null, "mode": "fan_avg"}}, "name": "vgg16_channel_5_conv_2", "bias_regularizer": null, "filters": 86, "bias_constraint": null, "activation": "relu", "trainable": true, "data_format": "channels_last", "kernel_constraint": null, "strides": [1, 1], "dilation_rate": [1, 1], "kernel_regularizer": null, "bias_initializer": {"class_name": "Zeros", "config": {}}, "use_bias": true, "activity_regularizer": null, "kernel_size": [3, 3]}, "input_shape": [55, 55, 128]}, "lambda_32": {"class_name": "Lambda", "config": {"function": ["YwEAAAACAAAAAwAAABMAAABzHQAAAGcAAHQAAIgAAIMBAERdDAB9AQB8AABeAgBxDQBTKAEAAABO\nKAEAAAB0BQAAAHJhbmdlKAIAAAB0AQAAAHh0AQAAAF8oAQAAAHQDAAAAbnVtKAAAAABzEAAAAHV0\naWxzL2NoYW5uZWwucHl0CAAAADxsYW1iZGE+DgAAAHQAAAAA\n", null, [3]], "name": "lambda_32", "trainable": true, "function_type": "lambda", "arguments": {}, "output_shape": null, "output_shape_type": "raw"}, "input_shape": [55, 55, 256]}, "lambda_33": {"class_name": "Lambda", "config": {"function": ["YwEAAAACAAAAAwAAABMAAABzHQAAAGcAAHQAAIgAAIMBAERdDAB9AQB8AABeAgBxDQBTKAEAAABO\nKAEAAAB0BQAAAHJhbmdlKAIAAAB0AQAAAHh0AQAAAF8oAQAAAHQDAAAAbnVtKAAAAABzEAAAAHV0\naWxzL2NoYW5uZWwucHl0CAAAADxsYW1iZGE+DgAAAHQAAAAA\n", null, [3]], "name": "lambda_33", "trainable": true, "function_type": "lambda", "arguments": {}, "output_shape": null, "output_shape_type": "raw"}, "input_shape": [55, 55, 256]}, "vgg16_channel_9_conv_1": {"class_name": "Conv2D", "config": {"padding": "same", "kernel_initializer": {"class_name": "VarianceScaling", "config": {"distribution": "uniform", "scale": 1.0, "seed": null, "mode": "fan_avg"}}, "name": "vgg16_channel_9_conv_1", "bias_regularizer": null, "filters": 170, "bias_constraint": null, "activation": "relu", "trainable": true, "data_format": "channels_last", "kernel_constraint": null, "strides": [1, 1], "dilation_rate": [1, 1], "kernel_regularizer": null, "bias_initializer": {"class_name": "Zeros", "config": {}}, "use_bias": true, "activity_regularizer": null, "kernel_size": [3, 3]}, "input_shape": [27, 27, 512]}, "vgg16_channel_9_conv_0": {"class_name": "Conv2D", "config": {"padding": "same", "kernel_initializer": {"class_name": "VarianceScaling", "config": {"distribution": "uniform", "scale": 1.0, "seed": null, "mode": "fan_avg"}}, "name": "vgg16_channel_9_conv_0", "bias_regularizer": null, "filters": 170, "bias_constraint": null, "activation": "relu", "trainable": true, "data_format": "channels_last", "kernel_constraint": null, "strides": [1, 1], "dilation_rate": [1, 1], "kernel_regularizer": null, "bias_initializer": {"class_name": "Zeros", "config": {}}, "use_bias": true, "activity_regularizer": null, "kernel_size": [3, 3]}, "input_shape": [27, 27, 512]}, "vgg16_channel_9_conv_2": {"class_name": "Conv2D", "config": {"padding": "same", "kernel_initializer": {"class_name": "VarianceScaling", "config": {"distribution": "uniform", "scale": 1.0, "seed": null, "mode": "fan_avg"}}, "name": "vgg16_channel_9_conv_2", "bias_regularizer": null, "filters": 172, "bias_constraint": null, "activation": "relu", "trainable": true, "data_format": "channels_last", "kernel_constraint": null, "strides": [1, 1], "dilation_rate": [1, 1], "kernel_regularizer": null, "bias_initializer": {"class_name": "Zeros", "config": {}}, "use_bias": true, "activity_regularizer": null, "kernel_size": [3, 3]}, "input_shape": [27, 27, 512]}, "max_pooling2d_20": {"class_name": "MaxPooling2D", "config": {"name": "max_pooling2d_20", "trainable": true, "data_format": "channels_last", "pool_size": [2, 2], "padding": "valid", "strides": [2, 2]}, "input_shape": [13, 13, 512]}, "vgg16_channel_2_conv_0": {"class_name": "Conv2D", "config": {"padding": "same", "kernel_initializer": {"class_name": "VarianceScaling", "config": {"distribution": "uniform", "scale": 1.0, "seed": null, "mode": "fan_avg"}}, "name": "vgg16_channel_2_conv_0", "bias_regularizer": null, "filters": 21, "bias_constraint": null, "activation": "relu", "trainable": true, "data_format": "channels_last", "kernel_constraint": null, "strides": [1, 1], "dilation_rate": [1, 1], "kernel_regularizer": null, "bias_initializer": {"class_name": "Zeros", "config": {}}, "use_bias": true, "activity_regularizer": null, "kernel_size": [3, 3]}, "input_shape": [220, 220, 64]}, "vgg16_channel_2_conv_1": {"class_name": "Conv2D", "config": {"padding": "same", "kernel_initializer": {"class_name": "VarianceScaling", "config": {"distribution": "uniform", "scale": 1.0, "seed": null, "mode": "fan_avg"}}, "name": "vgg16_channel_2_conv_1", "bias_regularizer": null, "filters": 21, "bias_constraint": null, "activation": "relu", "trainable": true, "data_format": "channels_last", "kernel_constraint": null, "strides": [1, 1], "dilation_rate": [1, 1], "kernel_regularizer": null, "bias_initializer": {"class_name": "Zeros", "config": {}}, "use_bias": true, "activity_regularizer": null, "kernel_size": [3, 3]}, "input_shape": [220, 220, 64]}, "vgg16_channel_2_conv_2": {"class_name": "Conv2D", "config": {"padding": "same", "kernel_initializer": {"class_name": "VarianceScaling", "config": {"distribution": "uniform", "scale": 1.0, "seed": null, "mode": "fan_avg"}}, "name": "vgg16_channel_2_conv_2", "bias_regularizer": null, "filters": 22, "bias_constraint": null, "activation": "relu", "trainable": true, "data_format": "channels_last", "kernel_constraint": null, "strides": [1, 1], "dilation_rate": [1, 1], "kernel_regularizer": null, "bias_initializer": {"class_name": "Zeros", "config": {}}, "use_bias": true, "activity_regularizer": null, "kernel_size": [3, 3]}, "input_shape": [220, 220, 64]}, "vgg16_channel_13_conv_2": {"class_name": "Conv2D", "config": {"padding": "same", "kernel_initializer": {"class_name": "VarianceScaling", "config": {"distribution": "uniform", "scale": 1.0, "seed": null, "mode": "fan_avg"}}, "name": "vgg16_channel_13_conv_2", "bias_regularizer": null, "filters": 172, "bias_constraint": null, "activation": "relu", "trainable": true, "data_format": "channels_last", "kernel_constraint": null, "strides": [1, 1], "dilation_rate": [1, 1], "kernel_regularizer": null, "bias_initializer": {"class_name": "Zeros", "config": {}}, "use_bias": true, "activity_regularizer": null, "kernel_size": [3, 3]}, "input_shape": [13, 13, 512]}, "vgg16_channel_13_conv_1": {"class_name": "Conv2D", "config": {"padding": "same", "kernel_initializer": {"class_name": "VarianceScaling", "config": {"distribution": "uniform", "scale": 1.0, "seed": null, "mode": "fan_avg"}}, "name": "vgg16_channel_13_conv_1", "bias_regularizer": null, "filters": 170, "bias_constraint": null, "activation": "relu", "trainable": true, "data_format": "channels_last", "kernel_constraint": null, "strides": [1, 1], "dilation_rate": [1, 1], "kernel_regularizer": null, "bias_initializer": {"class_name": "Zeros", "config": {}}, "use_bias": true, "activity_regularizer": null, "kernel_size": [3, 3]}, "input_shape": [13, 13, 512]}, "vgg16_channel_10_conv_1": {"class_name": "Conv2D", "config": {"padding": "same", "kernel_initializer": {"class_name": "VarianceScaling", "config": {"distribution": "uniform", "scale": 1.0, "seed": null, "mode": "fan_avg"}}, "name": "vgg16_channel_10_conv_1", "bias_regularizer": null, "filters": 170, "bias_constraint": null, "activation": "relu", "trainable": true, "data_format": "channels_last", "kernel_constraint": null, "strides": [1, 1], "dilation_rate": [1, 1], "kernel_regularizer": null, "bias_initializer": {"class_name": "Zeros", "config": {}}, "use_bias": true, "activity_regularizer": null, "kernel_size": [3, 3]}, "input_shape": [27, 27, 512]}, "lambda_39": {"class_name": "Lambda", "config": {"function": ["YwEAAAACAAAAAwAAABMAAABzHQAAAGcAAHQAAIgAAIMBAERdDAB9AQB8AABeAgBxDQBTKAEAAABO\nKAEAAAB0BQAAAHJhbmdlKAIAAAB0AQAAAHh0AQAAAF8oAQAAAHQDAAAAbnVtKAAAAABzEAAAAHV0\naWxzL2NoYW5uZWwucHl0CAAAADxsYW1iZGE+DgAAAHQAAAAA\n", null, [3]], "name": "lambda_39", "trainable": true, "function_type": "lambda", "arguments": {}, "output_shape": null, "output_shape_type": "raw"}, "input_shape": [13, 13, 512]}, "lambda_27": {"class_name": "Lambda", "config": {"function": ["YwEAAAACAAAAAwAAABMAAABzHQAAAGcAAHQAAIgAAIMBAERdDAB9AQB8AABeAgBxDQBTKAEAAABO\nKAEAAAB0BQAAAHJhbmdlKAIAAAB0AQAAAHh0AQAAAF8oAQAAAHQDAAAAbnVtKAAAAABzEAAAAHV0\naWxzL2NoYW5uZWwucHl0CAAAADxsYW1iZGE+DgAAAHQAAAAA\n", null, [3]], "name": "lambda_27", "trainable": true, "function_type": "lambda", "arguments": {}, "output_shape": null, "output_shape_type": "raw"}, "input_shape": [220, 220, 3]}, "lambda_29": {"class_name": "Lambda", "config": {"function": ["YwEAAAACAAAAAwAAABMAAABzHQAAAGcAAHQAAIgAAIMBAERdDAB9AQB8AABeAgBxDQBTKAEAAABO\nKAEAAAB0BQAAAHJhbmdlKAIAAAB0AQAAAHh0AQAAAF8oAQAAAHQDAAAAbnVtKAAAAABzEAAAAHV0\naWxzL2NoYW5uZWwucHl0CAAAADxsYW1iZGE+DgAAAHQAAAAA\n", null, [3]], "name": "lambda_29", "trainable": true, "function_type": "lambda", "arguments": {}, "output_shape": null, "output_shape_type": "raw"}, "input_shape": [110, 110, 64]}, "lambda_28": {"class_name": "Lambda", "config": {"function": ["YwEAAAACAAAAAwAAABMAAABzHQAAAGcAAHQAAIgAAIMBAERdDAB9AQB8AABeAgBxDQBTKAEAAABO\nKAEAAAB0BQAAAHJhbmdlKAIAAAB0AQAAAHh0AQAAAF8oAQAAAHQDAAAAbnVtKAAAAABzEAAAAHV0\naWxzL2NoYW5uZWwucHl0CAAAADxsYW1iZGE+DgAAAHQAAAAA\n", null, [3]], "name": "lambda_28", "trainable": true, "function_type": "lambda", "arguments": {}, "output_shape": null, "output_shape_type": "raw"}, "input_shape": [220, 220, 64]}}