{"vgg16_spatial_2_conv": {"class_name": "Conv2D", "config": {"padding": "valid", "kernel_initializer": {"class_name": "VarianceScaling", "config": {"distribution": "uniform", "scale": 1.0, "seed": null, "mode": "fan_avg"}}, "name": "vgg16_spatial_2_conv", "bias_regularizer": null, "filters": 64, "bias_constraint": null, "activation": "relu", "trainable": true, "data_format": "channels_last", "kernel_constraint": null, "strides": [1, 1], "dilation_rate": [1, 1], "kernel_regularizer": null, "bias_initializer": {"class_name": "Zeros", "config": {}}, "use_bias": true, "activity_regularizer": null, "kernel_size": [3, 3]}, "input_shape": [75, 75, 64]}, "vgg16_spatial_5_conv": {"class_name": "Conv2D", "config": {"padding": "valid", "kernel_initializer": {"class_name": "VarianceScaling", "config": {"distribution": "uniform", "scale": 1.0, "seed": null, "mode": "fan_avg"}}, "name": "vgg16_spatial_5_conv", "bias_regularizer": null, "filters": 256, "bias_constraint": null, "activation": "relu", "trainable": true, "data_format": "channels_last", "kernel_constraint": null, "strides": [1, 1], "dilation_rate": [1, 1], "kernel_regularizer": null, "bias_initializer": {"class_name": "Zeros", "config": {}}, "use_bias": true, "activity_regularizer": null, "kernel_size": [3, 3]}, "input_shape": [20, 20, 128]}, "max_pooling2d_15": {"class_name": "MaxPooling2D", "config": {"name": "max_pooling2d_15", "trainable": true, "data_format": "channels_last", "pool_size": [2, 2], "padding": "valid", "strides": [2, 2]}, "input_shape": [13, 13, 512]}, "vgg16_spatial_11_conv": {"class_name": "Conv2D", "config": {"padding": "valid", "kernel_initializer": {"class_name": "VarianceScaling", "config": {"distribution": "uniform", "scale": 1.0, "seed": null, "mode": "fan_avg"}}, "name": "vgg16_spatial_11_conv", "bias_regularizer": null, "filters": 512, "bias_constraint": null, "activation": "relu", "trainable": true, "data_format": "channels_last", "kernel_constraint": null, "strides": [1, 1], "dilation_rate": [1, 1], "kernel_regularizer": null, "bias_initializer": {"class_name": "Zeros", "config": {}}, "use_bias": true, "activity_regularizer": null, "kernel_size": [3, 3]}, "input_shape": [6, 6, 512]}, "vgg16_spatial_8_conv": {"class_name": "Conv2D", "config": {"padding": "valid", "kernel_initializer": {"class_name": "VarianceScaling", "config": {"distribution": "uniform", "scale": 1.0, "seed": null, "mode": "fan_avg"}}, "name": "vgg16_spatial_8_conv", "bias_regularizer": null, "filters": 512, "bias_constraint": null, "activation": "relu", "trainable": true, "data_format": "channels_last", "kernel_constraint": null, "strides": [1, 1], "dilation_rate": [1, 1], "kernel_regularizer": null, "bias_initializer": {"class_name": "Zeros", "config": {}}, "use_bias": true, "activity_regularizer": null, "kernel_size": [3, 3]}, "input_shape": [11, 11, 256]}, "vgg16_spatial_4_conv": {"class_name": "Conv2D", "config": {"padding": "valid", "kernel_initializer": {"class_name": "VarianceScaling", "config": {"distribution": "uniform", "scale": 1.0, "seed": null, "mode": "fan_avg"}}, "name": "vgg16_spatial_4_conv", "bias_regularizer": null, "filters": 128, "bias_constraint": null, "activation": "relu", "trainable": true, "data_format": "channels_last", "kernel_constraint": null, "strides": [1, 1], "dilation_rate": [1, 1], "kernel_regularizer": null, "bias_initializer": {"class_name": "Zeros", "config": {}}, "use_bias": true, "activity_regularizer": null, "kernel_size": [3, 3]}, "input_shape": [38, 38, 128]}, "vgg16_spatial_3_conv": {"class_name": "Conv2D", "config": {"padding": "valid", "kernel_initializer": {"class_name": "VarianceScaling", "config": {"distribution": "uniform", "scale": 1.0, "seed": null, "mode": "fan_avg"}}, "name": "vgg16_spatial_3_conv", "bias_regularizer": null, "filters": 128, "bias_constraint": null, "activation": "relu", "trainable": true, "data_format": "channels_last", "kernel_constraint": null, "strides": [1, 1], "dilation_rate": [1, 1], "kernel_regularizer": null, "bias_initializer": {"class_name": "Zeros", "config": {}}, "use_bias": true, "activity_regularizer": null, "kernel_size": [3, 3]}, "input_shape": [38, 38, 64]}, "max_pooling2d_11": {"class_name": "MaxPooling2D", "config": {"name": "max_pooling2d_11", "trainable": true, "data_format": "channels_last", "pool_size": [2, 2], "padding": "valid", "strides": [2, 2]}, "input_shape": [220, 220, 64]}, "max_pooling2d_13": {"class_name": "MaxPooling2D", "config": {"name": "max_pooling2d_13", "trainable": true, "data_format": "channels_last", "pool_size": [2, 2], "padding": "valid", "strides": [2, 2]}, "input_shape": [55, 55, 256]}, "max_pooling2d_12": {"class_name": "MaxPooling2D", "config": {"name": "max_pooling2d_12", "trainable": true, "data_format": "channels_last", "pool_size": [2, 2], "padding": "valid", "strides": [2, 2]}, "input_shape": [110, 110, 128]}, "vgg16_spatial_10_conv": {"class_name": "Conv2D", "config": {"padding": "valid", "kernel_initializer": {"class_name": "VarianceScaling", "config": {"distribution": "uniform", "scale": 1.0, "seed": null, "mode": "fan_avg"}}, "name": "vgg16_spatial_10_conv", "bias_regularizer": null, "filters": 512, "bias_constraint": null, "activation": "relu", "trainable": true, "data_format": "channels_last", "kernel_constraint": null, "strides": [1, 1], "dilation_rate": [1, 1], "kernel_regularizer": null, "bias_initializer": {"class_name": "Zeros", "config": {}}, "use_bias": true, "activity_regularizer": null, "kernel_size": [3, 3]}, "input_shape": [11, 11, 512]}, "max_pooling2d_14": {"class_name": "MaxPooling2D", "config": {"name": "max_pooling2d_14", "trainable": true, "data_format": "channels_last", "pool_size": [2, 2], "padding": "valid", "strides": [2, 2]}, "input_shape": [27, 27, 512]}, "zero_padding2d_7": {"class_name": "ZeroPadding2D", "config": {"padding": [[1, 1], [1, 1]], "trainable": true, "name": "zero_padding2d_7", "data_format": "channels_last"}, "input_shape": [55, 55, 256]}, "zero_padding2d_6": {"class_name": "ZeroPadding2D", "config": {"padding": [[1, 1], [1, 1]], "trainable": true, "name": "zero_padding2d_6", "data_format": "channels_last"}, "input_shape": [55, 55, 256]}, "zero_padding2d_5": {"class_name": "ZeroPadding2D", "config": {"padding": [[1, 1], [1, 1]], "trainable": true, "name": "zero_padding2d_5", "data_format": "channels_last"}, "input_shape": [55, 55, 128]}, "zero_padding2d_4": {"class_name": "ZeroPadding2D", "config": {"padding": [[1, 1], [1, 1]], "trainable": true, "name": "zero_padding2d_4", "data_format": "channels_last"}, "input_shape": [110, 110, 128]}, "zero_padding2d_3": {"class_name": "ZeroPadding2D", "config": {"padding": [[1, 1], [1, 1]], "trainable": true, "name": "zero_padding2d_3", "data_format": "channels_last"}, "input_shape": [110, 110, 64]}, "zero_padding2d_2": {"class_name": "ZeroPadding2D", "config": {"padding": [[1, 1], [1, 1]], "trainable": true, "name": "zero_padding2d_2", "data_format": "channels_last"}, "input_shape": [220, 220, 64]}, "lambda_18": {"class_name": "Lambda", "config": {"function": ["YwEAAAAFAAAACAAAABMAAABzSwAAAGcAAIgAAERdQABcBAB9AQB9AgB9AwB9BAB8AABkAABkAACF\nAgB8AQB8AgCFAgB8AwB8BACFAgBkAABkAACFAgBmBAAZXgIAcQcAUygBAAAATigAAAAAKAUAAAB0\nAQAAAHh0AgAAAGxidAIAAAByYnQCAAAAdWJ0AgAAAGRiKAEAAAB0CAAAAGJvdW5kYXJ5KAAAAABz\nCwAAAHV0aWxzL3h5LnB5dAgAAAA8bGFtYmRhPmcAAABzAgAAAAAB\n", null, [[[0, 20, 0, 20], [18, 38, 0, 20], [36, 57, 0, 20], [0, 20, 18, 38], [18, 38, 18, 38], [36, 57, 18, 38], [0, 20, 36, 57], [18, 38, 36, 57], [36, 57, 36, 57]]]], "name": "lambda_18", "trainable": true, "function_type": "lambda", "arguments": {}, "output_shape": null, "output_shape_type": "raw"}, "input_shape": [57, 57, 128]}, "lambda_19": {"class_name": "Lambda", "config": {"function": ["YwEAAAAFAAAACAAAABMAAABzSwAAAGcAAIgAAERdQABcBAB9AQB9AgB9AwB9BAB8AABkAABkAACF\nAgB8AQB8AgCFAgB8AwB8BACFAgBkAABkAACFAgBmBAAZXgIAcQcAUygBAAAATigAAAAAKAUAAAB0\nAQAAAHh0AgAAAGxidAIAAAByYnQCAAAAdWJ0AgAAAGRiKAEAAAB0CAAAAGJvdW5kYXJ5KAAAAABz\nCwAAAHV0aWxzL3h5LnB5dAgAAAA8bGFtYmRhPmcAAABzAgAAAAAB\n", null, [[[0, 20, 0, 20], [18, 38, 0, 20], [36, 57, 0, 20], [0, 20, 18, 38], [18, 38, 18, 38], [36, 57, 18, 38], [0, 20, 36, 57], [18, 38, 36, 57], [36, 57, 36, 57]]]], "name": "lambda_19", "trainable": true, "function_type": "lambda", "arguments": {}, "output_shape": null, "output_shape_type": "raw"}, "input_shape": [57, 57, 256]}, "lambda_16": {"class_name": "Lambda", "config": {"function": ["YwEAAAAFAAAACAAAABMAAABzSwAAAGcAAIgAAERdQABcBAB9AQB9AgB9AwB9BAB8AABkAABkAACF\nAgB8AQB8AgCFAgB8AwB8BACFAgBkAABkAACFAgBmBAAZXgIAcQcAUygBAAAATigAAAAAKAUAAAB0\nAQAAAHh0AgAAAGxidAIAAAByYnQCAAAAdWJ0AgAAAGRiKAEAAAB0CAAAAGJvdW5kYXJ5KAAAAABz\nCwAAAHV0aWxzL3h5LnB5dAgAAAA8bGFtYmRhPmcAAABzAgAAAAAB\n", null, [[[0, 38, 0, 38], [36, 74, 0, 38], [72, 112, 0, 38], [0, 38, 36, 74], [36, 74, 36, 74], [72, 112, 36, 74], [0, 38, 72, 112], [36, 74, 72, 112], [72, 112, 72, 112]]]], "name": "lambda_16", "trainable": true, "function_type": "lambda", "arguments": {}, "output_shape": null, "output_shape_type": "raw"}, "input_shape": [112, 112, 64]}, "lambda_17": {"class_name": "Lambda", "config": {"function": ["YwEAAAAFAAAACAAAABMAAABzSwAAAGcAAIgAAERdQABcBAB9AQB9AgB9AwB9BAB8AABkAABkAACF\nAgB8AQB8AgCFAgB8AwB8BACFAgBkAABkAACFAgBmBAAZXgIAcQcAUygBAAAATigAAAAAKAUAAAB0\nAQAAAHh0AgAAAGxidAIAAAByYnQCAAAAdWJ0AgAAAGRiKAEAAAB0CAAAAGJvdW5kYXJ5KAAAAABz\nCwAAAHV0aWxzL3h5LnB5dAgAAAA8bGFtYmRhPmcAAABzAgAAAAAB\n", null, [[[0, 38, 0, 38], [36, 74, 0, 38], [72, 112, 0, 38], [0, 38, 36, 74], [36, 74, 36, 74], [72, 112, 36, 74], [0, 38, 72, 112], [36, 74, 72, 112], [72, 112, 72, 112]]]], "name": "lambda_17", "trainable": true, "function_type": "lambda", "arguments": {}, "output_shape": null, "output_shape_type": "raw"}, "input_shape": [112, 112, 128]}, "lambda_14": {"class_name": "Lambda", "config": {"function": ["YwEAAAAFAAAACAAAABMAAABzSwAAAGcAAIgAAERdQABcBAB9AQB9AgB9AwB9BAB8AABkAABkAACF\nAgB8AQB8AgCFAgB8AwB8BACFAgBkAABkAACFAgBmBAAZXgIAcQcAUygBAAAATigAAAAAKAUAAAB0\nAQAAAHh0AgAAAGxidAIAAAByYnQCAAAAdWJ0AgAAAGRiKAEAAAB0CAAAAGJvdW5kYXJ5KAAAAABz\nCwAAAHV0aWxzL3h5LnB5dAgAAAA8bGFtYmRhPmcAAABzAgAAAAAB\n", null, [[[0, 75, 0, 75], [73, 148, 0, 75], [146, 222, 0, 75], [0, 75, 73, 148], [73, 148, 73, 148], [146, 222, 73, 148], [0, 75, 146, 222], [73, 148, 146, 222], [146, 222, 146, 222]]]], "name": "lambda_14", "trainable": true, "function_type": "lambda", "arguments": {}, "output_shape": null, "output_shape_type": "raw"}, "input_shape": [222, 222, 3]}, "lambda_15": {"class_name": "Lambda", "config": {"function": ["YwEAAAAFAAAACAAAABMAAABzSwAAAGcAAIgAAERdQABcBAB9AQB9AgB9AwB9BAB8AABkAABkAACF\nAgB8AQB8AgCFAgB8AwB8BACFAgBkAABkAACFAgBmBAAZXgIAcQcAUygBAAAATigAAAAAKAUAAAB0\nAQAAAHh0AgAAAGxidAIAAAByYnQCAAAAdWJ0AgAAAGRiKAEAAAB0CAAAAGJvdW5kYXJ5KAAAAABz\nCwAAAHV0aWxzL3h5LnB5dAgAAAA8bGFtYmRhPmcAAABzAgAAAAAB\n", null, [[[0, 75, 0, 75], [73, 148, 0, 75], [146, 222, 0, 75], [0, 75, 73, 148], [73, 148, 73, 148], [146, 222, 73, 148], [0, 75, 146, 222], [73, 148, 146, 222], [146, 222, 146, 222]]]], "name": "lambda_15", "trainable": true, "function_type": "lambda", "arguments": {}, "output_shape": null, "output_shape_type": "raw"}, "input_shape": [222, 222, 64]}, "vgg16_spatial_9_conv": {"class_name": "Conv2D", "config": {"padding": "valid", "kernel_initializer": {"class_name": "VarianceScaling", "config": {"distribution": "uniform", "scale": 1.0, "seed": null, "mode": "fan_avg"}}, "name": "vgg16_spatial_9_conv", "bias_regularizer": null, "filters": 512, "bias_constraint": null, "activation": "relu", "trainable": true, "data_format": "channels_last", "kernel_constraint": null, "strides": [1, 1], "dilation_rate": [1, 1], "kernel_regularizer": null, "bias_initializer": {"class_name": "Zeros", "config": {}}, "use_bias": true, "activity_regularizer": null, "kernel_size": [3, 3]}, "input_shape": [11, 11, 512]}, "zero_padding2d_9": {"class_name": "ZeroPadding2D", "config": {"padding": [[1, 1], [1, 1]], "trainable": true, "name": "zero_padding2d_9", "data_format": "channels_last"}, "input_shape": [27, 27, 512]}, "input_3": {"class_name": "InputLayer", "config": {"dtype": "float32", "batch_input_shape": [null, 220, 220, 3], "name": "input_3", "sparse": false}, "input_shape": [220, 220, 3]}, "zero_padding2d_1": {"class_name": "ZeroPadding2D", "config": {"padding": [[1, 1], [1, 1]], "trainable": true, "name": "zero_padding2d_1", "data_format": "channels_last"}, "input_shape": [220, 220, 3]}, "zero_padding2d_13": {"class_name": "ZeroPadding2D", "config": {"padding": [[1, 1], [1, 1]], "trainable": true, "name": "zero_padding2d_13", "data_format": "channels_last"}, "input_shape": [13, 13, 512]}, "zero_padding2d_12": {"class_name": "ZeroPadding2D", "config": {"padding": [[1, 1], [1, 1]], "trainable": true, "name": "zero_padding2d_12", "data_format": "channels_last"}, "input_shape": [13, 13, 512]}, "zero_padding2d_11": {"class_name": "ZeroPadding2D", "config": {"padding": [[1, 1], [1, 1]], "trainable": true, "name": "zero_padding2d_11", "data_format": "channels_last"}, "input_shape": [13, 13, 512]}, "vgg16_spatial_7_conv": {"class_name": "Conv2D", "config": {"padding": "valid", "kernel_initializer": {"class_name": "VarianceScaling", "config": {"distribution": "uniform", "scale": 1.0, "seed": null, "mode": "fan_avg"}}, "name": "vgg16_spatial_7_conv", "bias_regularizer": null, "filters": 256, "bias_constraint": null, "activation": "relu", "trainable": true, "data_format": "channels_last", "kernel_constraint": null, "strides": [1, 1], "dilation_rate": [1, 1], "kernel_regularizer": null, "bias_initializer": {"class_name": "Zeros", "config": {}}, "use_bias": true, "activity_regularizer": null, "kernel_size": [3, 3]}, "input_shape": [20, 20, 256]}, "lambda_26": {"class_name": "Lambda", "config": {"function": ["YwEAAAAFAAAACAAAABMAAABzSwAAAGcAAIgAAERdQABcBAB9AQB9AgB9AwB9BAB8AABkAABkAACF\nAgB8AQB8AgCFAgB8AwB8BACFAgBkAABkAACFAgBmBAAZXgIAcQcAUygBAAAATigAAAAAKAUAAAB0\nAQAAAHh0AgAAAGxidAIAAAByYnQCAAAAdWJ0AgAAAGRiKAEAAAB0CAAAAGJvdW5kYXJ5KAAAAABz\nCwAAAHV0aWxzL3h5LnB5dAgAAAA8bGFtYmRhPmcAAABzAgAAAAAB\n", null, [[[0, 6, 0, 6], [4, 10, 0, 6], [8, 15, 0, 6], [0, 6, 4, 10], [4, 10, 4, 10], [8, 15, 4, 10], [0, 6, 8, 15], [4, 10, 8, 15], [8, 15, 8, 15]]]], "name": "lambda_26", "trainable": true, "function_type": "lambda", "arguments": {}, "output_shape": null, "output_shape_type": "raw"}, "input_shape": [15, 15, 512]}, "zero_padding2d_10": {"class_name": "ZeroPadding2D", "config": {"padding": [[1, 1], [1, 1]], "trainable": true, "name": "zero_padding2d_10", "data_format": "channels_last"}, "input_shape": [27, 27, 512]}, "vgg16_spatial_6_conv": {"class_name": "Conv2D", "config": {"padding": "valid", "kernel_initializer": {"class_name": "VarianceScaling", "config": {"distribution": "uniform", "scale": 1.0, "seed": null, "mode": "fan_avg"}}, "name": "vgg16_spatial_6_conv", "bias_regularizer": null, "filters": 256, "bias_constraint": null, "activation": "relu", "trainable": true, "data_format": "channels_last", "kernel_constraint": null, "strides": [1, 1], "dilation_rate": [1, 1], "kernel_regularizer": null, "bias_initializer": {"class_name": "Zeros", "config": {}}, "use_bias": true, "activity_regularizer": null, "kernel_size": [3, 3]}, "input_shape": [20, 20, 256]}, "lambda_23": {"class_name": "Lambda", "config": {"function": ["YwEAAAAFAAAACAAAABMAAABzSwAAAGcAAIgAAERdQABcBAB9AQB9AgB9AwB9BAB8AABkAABkAACF\nAgB8AQB8AgCFAgB8AwB8BACFAgBkAABkAACFAgBmBAAZXgIAcQcAUygBAAAATigAAAAAKAUAAAB0\nAQAAAHh0AgAAAGxidAIAAAByYnQCAAAAdWJ0AgAAAGRiKAEAAAB0CAAAAGJvdW5kYXJ5KAAAAABz\nCwAAAHV0aWxzL3h5LnB5dAgAAAA8bGFtYmRhPmcAAABzAgAAAAAB\n", null, [[[0, 11, 0, 11], [9, 20, 0, 11], [18, 29, 0, 11], [0, 11, 9, 20], [9, 20, 9, 20], [18, 29, 9, 20], [0, 11, 18, 29], [9, 20, 18, 29], [18, 29, 18, 29]]]], "name": "lambda_23", "trainable": true, "function_type": "lambda", "arguments": {}, "output_shape": null, "output_shape_type": "raw"}, "input_shape": [29, 29, 512]}, "lambda_22": {"class_name": "Lambda", "config": {"function": ["YwEAAAAFAAAACAAAABMAAABzSwAAAGcAAIgAAERdQABcBAB9AQB9AgB9AwB9BAB8AABkAABkAACF\nAgB8AQB8AgCFAgB8AwB8BACFAgBkAABkAACFAgBmBAAZXgIAcQcAUygBAAAATigAAAAAKAUAAAB0\nAQAAAHh0AgAAAGxidAIAAAByYnQCAAAAdWJ0AgAAAGRiKAEAAAB0CAAAAGJvdW5kYXJ5KAAAAABz\nCwAAAHV0aWxzL3h5LnB5dAgAAAA8bGFtYmRhPmcAAABzAgAAAAAB\n", null, [[[0, 11, 0, 11], [9, 20, 0, 11], [18, 29, 0, 11], [0, 11, 9, 20], [9, 20, 9, 20], [18, 29, 9, 20], [0, 11, 18, 29], [9, 20, 18, 29], [18, 29, 18, 29]]]], "name": "lambda_22", "trainable": true, "function_type": "lambda", "arguments": {}, "output_shape": null, "output_shape_type": "raw"}, "input_shape": [29, 29, 512]}, "lambda_21": {"class_name": "Lambda", "config": {"function": ["YwEAAAAFAAAACAAAABMAAABzSwAAAGcAAIgAAERdQABcBAB9AQB9AgB9AwB9BAB8AABkAABkAACF\nAgB8AQB8AgCFAgB8AwB8BACFAgBkAABkAACFAgBmBAAZXgIAcQcAUygBAAAATigAAAAAKAUAAAB0\nAQAAAHh0AgAAAGxidAIAAAByYnQCAAAAdWJ0AgAAAGRiKAEAAAB0CAAAAGJvdW5kYXJ5KAAAAABz\nCwAAAHV0aWxzL3h5LnB5dAgAAAA8bGFtYmRhPmcAAABzAgAAAAAB\n", null, [[[0, 11, 0, 11], [9, 20, 0, 11], [18, 29, 0, 11], [0, 11, 9, 20], [9, 20, 9, 20], [18, 29, 9, 20], [0, 11, 18, 29], [9, 20, 18, 29], [18, 29, 18, 29]]]], "name": "lambda_21", "trainable": true, "function_type": "lambda", "arguments": {}, "output_shape": null, "output_shape_type": "raw"}, "input_shape": [29, 29, 256]}, "lambda_20": {"class_name": "Lambda", "config": {"function": ["YwEAAAAFAAAACAAAABMAAABzSwAAAGcAAIgAAERdQABcBAB9AQB9AgB9AwB9BAB8AABkAABkAACF\nAgB8AQB8AgCFAgB8AwB8BACFAgBkAABkAACFAgBmBAAZXgIAcQcAUygBAAAATigAAAAAKAUAAAB0\nAQAAAHh0AgAAAGxidAIAAAByYnQCAAAAdWJ0AgAAAGRiKAEAAAB0CAAAAGJvdW5kYXJ5KAAAAABz\nCwAAAHV0aWxzL3h5LnB5dAgAAAA8bGFtYmRhPmcAAABzAgAAAAAB\n", null, [[[0, 20, 0, 20], [18, 38, 0, 20], [36, 57, 0, 20], [0, 20, 18, 38], [18, 38, 18, 38], [36, 57, 18, 38], [0, 20, 36, 57], [18, 38, 36, 57], [36, 57, 36, 57]]]], "name": "lambda_20", "trainable": true, "function_type": "lambda", "arguments": {}, "output_shape": null, "output_shape_type": "raw"}, "input_shape": [57, 57, 256]}, "vgg16_spatial_1_conv": {"class_name": "Conv2D", "config": {"padding": "valid", "kernel_initializer": {"class_name": "VarianceScaling", "config": {"distribution": "uniform", "scale": 1.0, "seed": null, "mode": "fan_avg"}}, "name": "vgg16_spatial_1_conv", "bias_regularizer": null, "filters": 64, "bias_constraint": null, "activation": "relu", "trainable": true, "data_format": "channels_last", "kernel_constraint": null, "strides": [1, 1], "dilation_rate": [1, 1], "kernel_regularizer": null, "bias_initializer": {"class_name": "Zeros", "config": {}}, "use_bias": true, "activity_regularizer": null, "kernel_size": [3, 3]}, "input_shape": [75, 75, 3]}, "lambda_25": {"class_name": "Lambda", "config": {"function": ["YwEAAAAFAAAACAAAABMAAABzSwAAAGcAAIgAAERdQABcBAB9AQB9AgB9AwB9BAB8AABkAABkAACF\nAgB8AQB8AgCFAgB8AwB8BACFAgBkAABkAACFAgBmBAAZXgIAcQcAUygBAAAATigAAAAAKAUAAAB0\nAQAAAHh0AgAAAGxidAIAAAByYnQCAAAAdWJ0AgAAAGRiKAEAAAB0CAAAAGJvdW5kYXJ5KAAAAABz\nCwAAAHV0aWxzL3h5LnB5dAgAAAA8bGFtYmRhPmcAAABzAgAAAAAB\n", null, [[[0, 6, 0, 6], [4, 10, 0, 6], [8, 15, 0, 6], [0, 6, 4, 10], [4, 10, 4, 10], [8, 15, 4, 10], [0, 6, 8, 15], [4, 10, 8, 15], [8, 15, 8, 15]]]], "name": "lambda_25", "trainable": true, "function_type": "lambda", "arguments": {}, "output_shape": null, "output_shape_type": "raw"}, "input_shape": [15, 15, 512]}, "lambda_24": {"class_name": "Lambda", "config": {"function": ["YwEAAAAFAAAACAAAABMAAABzSwAAAGcAAIgAAERdQABcBAB9AQB9AgB9AwB9BAB8AABkAABkAACF\nAgB8AQB8AgCFAgB8AwB8BACFAgBkAABkAACFAgBmBAAZXgIAcQcAUygBAAAATigAAAAAKAUAAAB0\nAQAAAHh0AgAAAGxidAIAAAByYnQCAAAAdWJ0AgAAAGRiKAEAAAB0CAAAAGJvdW5kYXJ5KAAAAABz\nCwAAAHV0aWxzL3h5LnB5dAgAAAA8bGFtYmRhPmcAAABzAgAAAAAB\n", null, [[[0, 6, 0, 6], [4, 10, 0, 6], [8, 15, 0, 6], [0, 6, 4, 10], [4, 10, 4, 10], [8, 15, 4, 10], [0, 6, 8, 15], [4, 10, 8, 15], [8, 15, 8, 15]]]], "name": "lambda_24", "trainable": true, "function_type": "lambda", "arguments": {}, "output_shape": null, "output_shape_type": "raw"}, "input_shape": [15, 15, 512]}, "vgg16_spatial_13_conv": {"class_name": "Conv2D", "config": {"padding": "valid", "kernel_initializer": {"class_name": "VarianceScaling", "config": {"distribution": "uniform", "scale": 1.0, "seed": null, "mode": "fan_avg"}}, "name": "vgg16_spatial_13_conv", "bias_regularizer": null, "filters": 512, "bias_constraint": null, "activation": "relu", "trainable": true, "data_format": "channels_last", "kernel_constraint": null, "strides": [1, 1], "dilation_rate": [1, 1], "kernel_regularizer": null, "bias_initializer": {"class_name": "Zeros", "config": {}}, "use_bias": true, "activity_regularizer": null, "kernel_size": [3, 3]}, "input_shape": [6, 6, 512]}, "zero_padding2d_8": {"class_name": "ZeroPadding2D", "config": {"padding": [[1, 1], [1, 1]], "trainable": true, "name": "zero_padding2d_8", "data_format": "channels_last"}, "input_shape": [27, 27, 256]}, "vgg16_spatial_12_conv": {"class_name": "Conv2D", "config": {"padding": "valid", "kernel_initializer": {"class_name": "VarianceScaling", "config": {"distribution": "uniform", "scale": 1.0, "seed": null, "mode": "fan_avg"}}, "name": "vgg16_spatial_12_conv", "bias_regularizer": null, "filters": 512, "bias_constraint": null, "activation": "relu", "trainable": true, "data_format": "channels_last", "kernel_constraint": null, "strides": [1, 1], "dilation_rate": [1, 1], "kernel_regularizer": null, "bias_initializer": {"class_name": "Zeros", "config": {}}, "use_bias": true, "activity_regularizer": null, "kernel_size": [3, 3]}, "input_shape": [6, 6, 512]}}