{"lambda_10": {"class_name": "Lambda", "config": {"function": ["YwEAAAADAAAACAAAABMAAABzRQAAAGcAAIgAAERdOgBcAgB9AQB9AgB8AABkAABkAACFAgBkAABk\nAACFAgBkAABkAACFAgB8AQB8AgCFAgBmBAAZXgIAcQcAUygBAAAATigAAAAAKAMAAAB0AQAAAHh0\nAgAAAGxidAIAAAByYigBAAAAdAgAAABib3VuZGFyeSgAAAAAcw8AAAB1dGlscy9maWx0ZXIucHl0\nCAAAADxsYW1iZGE+FwAAAHQAAAAA\n", null, [[[0, 170], [170, 340], [340, 512]]]], "name": "lambda_10", "trainable": true, "function_type": "lambda", "arguments": {}, "output_shape": null, "output_shape_type": "raw"}, "input_shape": [27, 27, 512]}, "vgg16_filter_13_conv_1": {"class_name": "Conv2D", "config": {"padding": "same", "kernel_initializer": {"class_name": "VarianceScaling", "config": {"distribution": "uniform", "scale": 1.0, "seed": null, "mode": "fan_avg"}}, "name": "vgg16_filter_13_conv_1", "bias_regularizer": null, "filters": 512, "bias_constraint": null, "activation": "linear", "trainable": true, "data_format": "channels_last", "kernel_constraint": null, "strides": [1, 1], "dilation_rate": [1, 1], "kernel_regularizer": null, "bias_initializer": {"class_name": "Zeros", "config": {}}, "use_bias": false, "activity_regularizer": null, "kernel_size": [3, 3]}, "input_shape": [13, 13, 170]}, "vgg16_filter_13_conv_0": {"class_name": "Conv2D", "config": {"padding": "same", "kernel_initializer": {"class_name": "VarianceScaling", "config": {"distribution": "uniform", "scale": 1.0, "seed": null, "mode": "fan_avg"}}, "name": "vgg16_filter_13_conv_0", "bias_regularizer": null, "filters": 512, "bias_constraint": null, "activation": "linear", "trainable": true, "data_format": "channels_last", "kernel_constraint": null, "strides": [1, 1], "dilation_rate": [1, 1], "kernel_regularizer": null, "bias_initializer": {"class_name": "Zeros", "config": {}}, "use_bias": false, "activity_regularizer": null, "kernel_size": [3, 3]}, "input_shape": [13, 13, 170]}, "vgg16_filter_10_conv_1": {"class_name": "Conv2D", "config": {"padding": "same", "kernel_initializer": {"class_name": "VarianceScaling", "config": {"distribution": "uniform", "scale": 1.0, "seed": null, "mode": "fan_avg"}}, "name": "vgg16_filter_10_conv_1", "bias_regularizer": null, "filters": 512, "bias_constraint": null, "activation": "linear", "trainable": true, "data_format": "channels_last", "kernel_constraint": null, "strides": [1, 1], "dilation_rate": [1, 1], "kernel_regularizer": null, "bias_initializer": {"class_name": "Zeros", "config": {}}, "use_bias": false, "activity_regularizer": null, "kernel_size": [3, 3]}, "input_shape": [27, 27, 170]}, "vgg16_filter_13_conv_2": {"class_name": "Conv2D", "config": {"padding": "same", "kernel_initializer": {"class_name": "VarianceScaling", "config": {"distribution": "uniform", "scale": 1.0, "seed": null, "mode": "fan_avg"}}, "name": "vgg16_filter_13_conv_2", "bias_regularizer": null, "filters": 512, "bias_constraint": null, "activation": "linear", "trainable": true, "data_format": "channels_last", "kernel_constraint": null, "strides": [1, 1], "dilation_rate": [1, 1], "kernel_regularizer": null, "bias_initializer": {"class_name": "Zeros", "config": {}}, "use_bias": true, "activity_regularizer": null, "kernel_size": [3, 3]}, "input_shape": [13, 13, 172]}, "vgg16_filter_12_conv_1": {"class_name": "Conv2D", "config": {"padding": "same", "kernel_initializer": {"class_name": "VarianceScaling", "config": {"distribution": "uniform", "scale": 1.0, "seed": null, "mode": "fan_avg"}}, "name": "vgg16_filter_12_conv_1", "bias_regularizer": null, "filters": 512, "bias_constraint": null, "activation": "linear", "trainable": true, "data_format": "channels_last", "kernel_constraint": null, "strides": [1, 1], "dilation_rate": [1, 1], "kernel_regularizer": null, "bias_initializer": {"class_name": "Zeros", "config": {}}, "use_bias": false, "activity_regularizer": null, "kernel_size": [3, 3]}, "input_shape": [13, 13, 170]}, "add_1": {"class_name": "Add", "config": {"trainable": true, "name": "add_1"}, "input_shape": [[null, 220, 220, 64], [null, 220, 220, 64]]}, "add_3": {"class_name": "Add", "config": {"trainable": true, "name": "add_3"}, "input_shape": [[null, 110, 110, 128], [null, 110, 110, 128]]}, "add_2": {"class_name": "Add", "config": {"trainable": true, "name": "add_2"}, "input_shape": [[null, 220, 220, 64], [null, 220, 220, 64]]}, "add_5": {"class_name": "Add", "config": {"trainable": true, "name": "add_5"}, "input_shape": [[null, 55, 55, 256], [null, 55, 55, 256]]}, "add_4": {"class_name": "Add", "config": {"trainable": true, "name": "add_4"}, "input_shape": [[null, 110, 110, 128], [null, 110, 110, 128]]}, "add_7": {"class_name": "Add", "config": {"trainable": true, "name": "add_7"}, "input_shape": [[null, 55, 55, 256], [null, 55, 55, 256]]}, "add_6": {"class_name": "Add", "config": {"trainable": true, "name": "add_6"}, "input_shape": [[null, 55, 55, 256], [null, 55, 55, 256]]}, "add_9": {"class_name": "Add", "config": {"trainable": true, "name": "add_9"}, "input_shape": [[null, 27, 27, 512], [null, 27, 27, 512]]}, "add_8": {"class_name": "Add", "config": {"trainable": true, "name": "add_8"}, "input_shape": [[null, 27, 27, 512], [null, 27, 27, 512]]}, "activation_10": {"class_name": "Activation", "config": {"activation": "relu", "trainable": true, "name": "activation_10"}, "input_shape": [27, 27, 512]}, "activation_1": {"class_name": "Activation", "config": {"activation": "relu", "trainable": true, "name": "activation_1"}, "input_shape": [220, 220, 64]}, "vgg16_filter_11_conv_0": {"class_name": "Conv2D", "config": {"padding": "same", "kernel_initializer": {"class_name": "VarianceScaling", "config": {"distribution": "uniform", "scale": 1.0, "seed": null, "mode": "fan_avg"}}, "name": "vgg16_filter_11_conv_0", "bias_regularizer": null, "filters": 512, "bias_constraint": null, "activation": "linear", "trainable": true, "data_format": "channels_last", "kernel_constraint": null, "strides": [1, 1], "dilation_rate": [1, 1], "kernel_regularizer": null, "bias_initializer": {"class_name": "Zeros", "config": {}}, "use_bias": false, "activity_regularizer": null, "kernel_size": [3, 3]}, "input_shape": [13, 13, 170]}, "activation_3": {"class_name": "Activation", "config": {"activation": "relu", "trainable": true, "name": "activation_3"}, "input_shape": [110, 110, 128]}, "activation_2": {"class_name": "Activation", "config": {"activation": "relu", "trainable": true, "name": "activation_2"}, "input_shape": [220, 220, 64]}, "activation_5": {"class_name": "Activation", "config": {"activation": "relu", "trainable": true, "name": "activation_5"}, "input_shape": [55, 55, 256]}, "activation_4": {"class_name": "Activation", "config": {"activation": "relu", "trainable": true, "name": "activation_4"}, "input_shape": [110, 110, 128]}, "activation_7": {"class_name": "Activation", "config": {"activation": "relu", "trainable": true, "name": "activation_7"}, "input_shape": [55, 55, 256]}, "activation_6": {"class_name": "Activation", "config": {"activation": "relu", "trainable": true, "name": "activation_6"}, "input_shape": [55, 55, 256]}, "vgg16_filter_4_conv_0": {"class_name": "Conv2D", "config": {"padding": "same", "kernel_initializer": {"class_name": "VarianceScaling", "config": {"distribution": "uniform", "scale": 1.0, "seed": null, "mode": "fan_avg"}}, "name": "vgg16_filter_4_conv_0", "bias_regularizer": null, "filters": 128, "bias_constraint": null, "activation": "linear", "trainable": true, "data_format": "channels_last", "kernel_constraint": null, "strides": [1, 1], "dilation_rate": [1, 1], "kernel_regularizer": null, "bias_initializer": {"class_name": "Zeros", "config": {}}, "use_bias": false, "activity_regularizer": null, "kernel_size": [3, 3]}, "input_shape": [110, 110, 42]}, "vgg16_filter_4_conv_1": {"class_name": "Conv2D", "config": {"padding": "same", "kernel_initializer": {"class_name": "VarianceScaling", "config": {"distribution": "uniform", "scale": 1.0, "seed": null, "mode": "fan_avg"}}, "name": "vgg16_filter_4_conv_1", "bias_regularizer": null, "filters": 128, "bias_constraint": null, "activation": "linear", "trainable": true, "data_format": "channels_last", "kernel_constraint": null, "strides": [1, 1], "dilation_rate": [1, 1], "kernel_regularizer": null, "bias_initializer": {"class_name": "Zeros", "config": {}}, "use_bias": false, "activity_regularizer": null, "kernel_size": [3, 3]}, "input_shape": [110, 110, 42]}, "vgg16_filter_4_conv_2": {"class_name": "Conv2D", "config": {"padding": "same", "kernel_initializer": {"class_name": "VarianceScaling", "config": {"distribution": "uniform", "scale": 1.0, "seed": null, "mode": "fan_avg"}}, "name": "vgg16_filter_4_conv_2", "bias_regularizer": null, "filters": 128, "bias_constraint": null, "activation": "linear", "trainable": true, "data_format": "channels_last", "kernel_constraint": null, "strides": [1, 1], "dilation_rate": [1, 1], "kernel_regularizer": null, "bias_initializer": {"class_name": "Zeros", "config": {}}, "use_bias": true, "activity_regularizer": null, "kernel_size": [3, 3]}, "input_shape": [110, 110, 44]}, "add_13": {"class_name": "Add", "config": {"trainable": true, "name": "add_13"}, "input_shape": [[null, 13, 13, 512], [null, 13, 13, 512]]}, "activation_13": {"class_name": "Activation", "config": {"activation": "relu", "trainable": true, "name": "activation_13"}, "input_shape": [13, 13, 512]}, "input_2": {"class_name": "InputLayer", "config": {"dtype": "float32", "batch_input_shape": [null, 220, 220, 3], "name": "input_2", "sparse": false}, "input_shape": [220, 220, 3]}, "vgg16_filter_3_conv_1": {"class_name": "Conv2D", "config": {"padding": "same", "kernel_initializer": {"class_name": "VarianceScaling", "config": {"distribution": "uniform", "scale": 1.0, "seed": null, "mode": "fan_avg"}}, "name": "vgg16_filter_3_conv_1", "bias_regularizer": null, "filters": 128, "bias_constraint": null, "activation": "linear", "trainable": true, "data_format": "channels_last", "kernel_constraint": null, "strides": [1, 1], "dilation_rate": [1, 1], "kernel_regularizer": null, "bias_initializer": {"class_name": "Zeros", "config": {}}, "use_bias": false, "activity_regularizer": null, "kernel_size": [3, 3]}, "input_shape": [110, 110, 21]}, "vgg16_filter_3_conv_0": {"class_name": "Conv2D", "config": {"padding": "same", "kernel_initializer": {"class_name": "VarianceScaling", "config": {"distribution": "uniform", "scale": 1.0, "seed": null, "mode": "fan_avg"}}, "name": "vgg16_filter_3_conv_0", "bias_regularizer": null, "filters": 128, "bias_constraint": null, "activation": "linear", "trainable": true, "data_format": "channels_last", "kernel_constraint": null, "strides": [1, 1], "dilation_rate": [1, 1], "kernel_regularizer": null, "bias_initializer": {"class_name": "Zeros", "config": {}}, "use_bias": false, "activity_regularizer": null, "kernel_size": [3, 3]}, "input_shape": [110, 110, 21]}, "lambda_11": {"class_name": "Lambda", "config": {"function": ["YwEAAAADAAAACAAAABMAAABzRQAAAGcAAIgAAERdOgBcAgB9AQB9AgB8AABkAABkAACFAgBkAABk\nAACFAgBkAABkAACFAgB8AQB8AgCFAgBmBAAZXgIAcQcAUygBAAAATigAAAAAKAMAAAB0AQAAAHh0\nAgAAAGxidAIAAAByYigBAAAAdAgAAABib3VuZGFyeSgAAAAAcw8AAAB1dGlscy9maWx0ZXIucHl0\nCAAAADxsYW1iZGE+FwAAAHQAAAAA\n", null, [[[0, 170], [170, 340], [340, 512]]]], "name": "lambda_11", "trainable": true, "function_type": "lambda", "arguments": {}, "output_shape": null, "output_shape_type": "raw"}, "input_shape": [13, 13, 512]}, "vgg16_filter_3_conv_2": {"class_name": "Conv2D", "config": {"padding": "same", "kernel_initializer": {"class_name": "VarianceScaling", "config": {"distribution": "uniform", "scale": 1.0, "seed": null, "mode": "fan_avg"}}, "name": "vgg16_filter_3_conv_2", "bias_regularizer": null, "filters": 128, "bias_constraint": null, "activation": "linear", "trainable": true, "data_format": "channels_last", "kernel_constraint": null, "strides": [1, 1], "dilation_rate": [1, 1], "kernel_regularizer": null, "bias_initializer": {"class_name": "Zeros", "config": {}}, "use_bias": true, "activity_regularizer": null, "kernel_size": [3, 3]}, "input_shape": [110, 110, 22]}, "vgg16_filter_8_conv_0": {"class_name": "Conv2D", "config": {"padding": "same", "kernel_initializer": {"class_name": "VarianceScaling", "config": {"distribution": "uniform", "scale": 1.0, "seed": null, "mode": "fan_avg"}}, "name": "vgg16_filter_8_conv_0", "bias_regularizer": null, "filters": 512, "bias_constraint": null, "activation": "linear", "trainable": true, "data_format": "channels_last", "kernel_constraint": null, "strides": [1, 1], "dilation_rate": [1, 1], "kernel_regularizer": null, "bias_initializer": {"class_name": "Zeros", "config": {}}, "use_bias": false, "activity_regularizer": null, "kernel_size": [3, 3]}, "input_shape": [27, 27, 85]}, "vgg16_filter_1_conv_2": {"class_name": "Conv2D", "config": {"padding": "same", "kernel_initializer": {"class_name": "VarianceScaling", "config": {"distribution": "uniform", "scale": 1.0, "seed": null, "mode": "fan_avg"}}, "name": "vgg16_filter_1_conv_2", "bias_regularizer": null, "filters": 64, "bias_constraint": null, "activation": "linear", "trainable": true, "data_format": "channels_last", "kernel_constraint": null, "strides": [1, 1], "dilation_rate": [1, 1], "kernel_regularizer": null, "bias_initializer": {"class_name": "Zeros", "config": {}}, "use_bias": true, "activity_regularizer": null, "kernel_size": [3, 3]}, "input_shape": [220, 220, 1]}, "vgg16_filter_1_conv_1": {"class_name": "Conv2D", "config": {"padding": "same", "kernel_initializer": {"class_name": "VarianceScaling", "config": {"distribution": "uniform", "scale": 1.0, "seed": null, "mode": "fan_avg"}}, "name": "vgg16_filter_1_conv_1", "bias_regularizer": null, "filters": 64, "bias_constraint": null, "activation": "linear", "trainable": true, "data_format": "channels_last", "kernel_constraint": null, "strides": [1, 1], "dilation_rate": [1, 1], "kernel_regularizer": null, "bias_initializer": {"class_name": "Zeros", "config": {}}, "use_bias": false, "activity_regularizer": null, "kernel_size": [3, 3]}, "input_shape": [220, 220, 1]}, "vgg16_filter_1_conv_0": {"class_name": "Conv2D", "config": {"padding": "same", "kernel_initializer": {"class_name": "VarianceScaling", "config": {"distribution": "uniform", "scale": 1.0, "seed": null, "mode": "fan_avg"}}, "name": "vgg16_filter_1_conv_0", "bias_regularizer": null, "filters": 64, "bias_constraint": null, "activation": "linear", "trainable": true, "data_format": "channels_last", "kernel_constraint": null, "strides": [1, 1], "dilation_rate": [1, 1], "kernel_regularizer": null, "bias_initializer": {"class_name": "Zeros", "config": {}}, "use_bias": false, "activity_regularizer": null, "kernel_size": [3, 3]}, "input_shape": [220, 220, 1]}, "activation_12": {"class_name": "Activation", "config": {"activation": "relu", "trainable": true, "name": "activation_12"}, "input_shape": [13, 13, 512]}, "add_12": {"class_name": "Add", "config": {"trainable": true, "name": "add_12"}, "input_shape": [[null, 13, 13, 512], [null, 13, 13, 512]]}, "max_pooling2d_9": {"class_name": "MaxPooling2D", "config": {"name": "max_pooling2d_9", "trainable": true, "data_format": "channels_last", "pool_size": [2, 2], "padding": "valid", "strides": [2, 2]}, "input_shape": [27, 27, 512]}, "max_pooling2d_8": {"class_name": "MaxPooling2D", "config": {"name": "max_pooling2d_8", "trainable": true, "data_format": "channels_last", "pool_size": [2, 2], "padding": "valid", "strides": [2, 2]}, "input_shape": [55, 55, 256]}, "vgg16_filter_5_conv_2": {"class_name": "Conv2D", "config": {"padding": "same", "kernel_initializer": {"class_name": "VarianceScaling", "config": {"distribution": "uniform", "scale": 1.0, "seed": null, "mode": "fan_avg"}}, "name": "vgg16_filter_5_conv_2", "bias_regularizer": null, "filters": 256, "bias_constraint": null, "activation": "linear", "trainable": true, "data_format": "channels_last", "kernel_constraint": null, "strides": [1, 1], "dilation_rate": [1, 1], "kernel_regularizer": null, "bias_initializer": {"class_name": "Zeros", "config": {}}, "use_bias": true, "activity_regularizer": null, "kernel_size": [3, 3]}, "input_shape": [55, 55, 44]}, "add_11": {"class_name": "Add", "config": {"trainable": true, "name": "add_11"}, "input_shape": [[null, 13, 13, 512], [null, 13, 13, 512]]}, "add_10": {"class_name": "Add", "config": {"trainable": true, "name": "add_10"}, "input_shape": [[null, 27, 27, 512], [null, 27, 27, 512]]}, "max_pooling2d_7": {"class_name": "MaxPooling2D", "config": {"name": "max_pooling2d_7", "trainable": true, "data_format": "channels_last", "pool_size": [2, 2], "padding": "valid", "strides": [2, 2]}, "input_shape": [110, 110, 128]}, "max_pooling2d_6": {"class_name": "MaxPooling2D", "config": {"name": "max_pooling2d_6", "trainable": true, "data_format": "channels_last", "pool_size": [2, 2], "padding": "valid", "strides": [2, 2]}, "input_shape": [220, 220, 64]}, "vgg16_filter_7_conv_1": {"class_name": "Conv2D", "config": {"padding": "same", "kernel_initializer": {"class_name": "VarianceScaling", "config": {"distribution": "uniform", "scale": 1.0, "seed": null, "mode": "fan_avg"}}, "name": "vgg16_filter_7_conv_1", "bias_regularizer": null, "filters": 256, "bias_constraint": null, "activation": "linear", "trainable": true, "data_format": "channels_last", "kernel_constraint": null, "strides": [1, 1], "dilation_rate": [1, 1], "kernel_regularizer": null, "bias_initializer": {"class_name": "Zeros", "config": {}}, "use_bias": false, "activity_regularizer": null, "kernel_size": [3, 3]}, "input_shape": [55, 55, 85]}, "lambda_6": {"class_name": "Lambda", "config": {"function": ["YwEAAAADAAAACAAAABMAAABzRQAAAGcAAIgAAERdOgBcAgB9AQB9AgB8AABkAABkAACFAgBkAABk\nAACFAgBkAABkAACFAgB8AQB8AgCFAgBmBAAZXgIAcQcAUygBAAAATigAAAAAKAMAAAB0AQAAAHh0\nAgAAAGxidAIAAAByYigBAAAAdAgAAABib3VuZGFyeSgAAAAAcw8AAAB1dGlscy9maWx0ZXIucHl0\nCAAAADxsYW1iZGE+FwAAAHQAAAAA\n", null, [[[0, 85], [85, 170], [170, 256]]]], "name": "lambda_6", "trainable": true, "function_type": "lambda", "arguments": {}, "output_shape": null, "output_shape_type": "raw"}, "input_shape": [55, 55, 256]}, "lambda_13": {"class_name": "Lambda", "config": {"function": ["YwEAAAADAAAACAAAABMAAABzRQAAAGcAAIgAAERdOgBcAgB9AQB9AgB8AABkAABkAACFAgBkAABk\nAACFAgBkAABkAACFAgB8AQB8AgCFAgBmBAAZXgIAcQcAUygBAAAATigAAAAAKAMAAAB0AQAAAHh0\nAgAAAGxidAIAAAByYigBAAAAdAgAAABib3VuZGFyeSgAAAAAcw8AAAB1dGlscy9maWx0ZXIucHl0\nCAAAADxsYW1iZGE+FwAAAHQAAAAA\n", null, [[[0, 170], [170, 340], [340, 512]]]], "name": "lambda_13", "trainable": true, "function_type": "lambda", "arguments": {}, "output_shape": null, "output_shape_type": "raw"}, "input_shape": [13, 13, 512]}, "vgg16_filter_7_conv_0": {"class_name": "Conv2D", "config": {"padding": "same", "kernel_initializer": {"class_name": "VarianceScaling", "config": {"distribution": "uniform", "scale": 1.0, "seed": null, "mode": "fan_avg"}}, "name": "vgg16_filter_7_conv_0", "bias_regularizer": null, "filters": 256, "bias_constraint": null, "activation": "linear", "trainable": true, "data_format": "channels_last", "kernel_constraint": null, "strides": [1, 1], "dilation_rate": [1, 1], "kernel_regularizer": null, "bias_initializer": {"class_name": "Zeros", "config": {}}, "use_bias": false, "activity_regularizer": null, "kernel_size": [3, 3]}, "input_shape": [55, 55, 85]}, "activation_11": {"class_name": "Activation", "config": {"activation": "relu", "trainable": true, "name": "activation_11"}, "input_shape": [13, 13, 512]}, "lambda_7": {"class_name": "Lambda", "config": {"function": ["YwEAAAADAAAACAAAABMAAABzRQAAAGcAAIgAAERdOgBcAgB9AQB9AgB8AABkAABkAACFAgBkAABk\nAACFAgBkAABkAACFAgB8AQB8AgCFAgBmBAAZXgIAcQcAUygBAAAATigAAAAAKAMAAAB0AQAAAHh0\nAgAAAGxidAIAAAByYigBAAAAdAgAAABib3VuZGFyeSgAAAAAcw8AAAB1dGlscy9maWx0ZXIucHl0\nCAAAADxsYW1iZGE+FwAAAHQAAAAA\n", null, [[[0, 85], [85, 170], [170, 256]]]], "name": "lambda_7", "trainable": true, "function_type": "lambda", "arguments": {}, "output_shape": null, "output_shape_type": "raw"}, "input_shape": [55, 55, 256]}, "vgg16_filter_2_conv_2": {"class_name": "Conv2D", "config": {"padding": "same", "kernel_initializer": {"class_name": "VarianceScaling", "config": {"distribution": "uniform", "scale": 1.0, "seed": null, "mode": "fan_avg"}}, "name": "vgg16_filter_2_conv_2", "bias_regularizer": null, "filters": 64, "bias_constraint": null, "activation": "linear", "trainable": true, "data_format": "channels_last", "kernel_constraint": null, "strides": [1, 1], "dilation_rate": [1, 1], "kernel_regularizer": null, "bias_initializer": {"class_name": "Zeros", "config": {}}, "use_bias": true, "activity_regularizer": null, "kernel_size": [3, 3]}, "input_shape": [220, 220, 22]}, "vgg16_filter_2_conv_0": {"class_name": "Conv2D", "config": {"padding": "same", "kernel_initializer": {"class_name": "VarianceScaling", "config": {"distribution": "uniform", "scale": 1.0, "seed": null, "mode": "fan_avg"}}, "name": "vgg16_filter_2_conv_0", "bias_regularizer": null, "filters": 64, "bias_constraint": null, "activation": "linear", "trainable": true, "data_format": "channels_last", "kernel_constraint": null, "strides": [1, 1], "dilation_rate": [1, 1], "kernel_regularizer": null, "bias_initializer": {"class_name": "Zeros", "config": {}}, "use_bias": false, "activity_regularizer": null, "kernel_size": [3, 3]}, "input_shape": [220, 220, 21]}, "vgg16_filter_2_conv_1": {"class_name": "Conv2D", "config": {"padding": "same", "kernel_initializer": {"class_name": "VarianceScaling", "config": {"distribution": "uniform", "scale": 1.0, "seed": null, "mode": "fan_avg"}}, "name": "vgg16_filter_2_conv_1", "bias_regularizer": null, "filters": 64, "bias_constraint": null, "activation": "linear", "trainable": true, "data_format": "channels_last", "kernel_constraint": null, "strides": [1, 1], "dilation_rate": [1, 1], "kernel_regularizer": null, "bias_initializer": {"class_name": "Zeros", "config": {}}, "use_bias": false, "activity_regularizer": null, "kernel_size": [3, 3]}, "input_shape": [220, 220, 21]}, "max_pooling2d_10": {"class_name": "MaxPooling2D", "config": {"name": "max_pooling2d_10", "trainable": true, "data_format": "channels_last", "pool_size": [2, 2], "padding": "valid", "strides": [2, 2]}, "input_shape": [13, 13, 512]}, "vgg16_filter_7_conv_2": {"class_name": "Conv2D", "config": {"padding": "same", "kernel_initializer": {"class_name": "VarianceScaling", "config": {"distribution": "uniform", "scale": 1.0, "seed": null, "mode": "fan_avg"}}, "name": "vgg16_filter_7_conv_2", "bias_regularizer": null, "filters": 256, "bias_constraint": null, "activation": "linear", "trainable": true, "data_format": "channels_last", "kernel_constraint": null, "strides": [1, 1], "dilation_rate": [1, 1], "kernel_regularizer": null, "bias_initializer": {"class_name": "Zeros", "config": {}}, "use_bias": true, "activity_regularizer": null, "kernel_size": [3, 3]}, "input_shape": [55, 55, 86]}, "vgg16_filter_12_conv_2": {"class_name": "Conv2D", "config": {"padding": "same", "kernel_initializer": {"class_name": "VarianceScaling", "config": {"distribution": "uniform", "scale": 1.0, "seed": null, "mode": "fan_avg"}}, "name": "vgg16_filter_12_conv_2", "bias_regularizer": null, "filters": 512, "bias_constraint": null, "activation": "linear", "trainable": true, "data_format": "channels_last", "kernel_constraint": null, "strides": [1, 1], "dilation_rate": [1, 1], "kernel_regularizer": null, "bias_initializer": {"class_name": "Zeros", "config": {}}, "use_bias": true, "activity_regularizer": null, "kernel_size": [3, 3]}, "input_shape": [13, 13, 172]}, "vgg16_filter_11_conv_1": {"class_name": "Conv2D", "config": {"padding": "same", "kernel_initializer": {"class_name": "VarianceScaling", "config": {"distribution": "uniform", "scale": 1.0, "seed": null, "mode": "fan_avg"}}, "name": "vgg16_filter_11_conv_1", "bias_regularizer": null, "filters": 512, "bias_constraint": null, "activation": "linear", "trainable": true, "data_format": "channels_last", "kernel_constraint": null, "strides": [1, 1], "dilation_rate": [1, 1], "kernel_regularizer": null, "bias_initializer": {"class_name": "Zeros", "config": {}}, "use_bias": false, "activity_regularizer": null, "kernel_size": [3, 3]}, "input_shape": [13, 13, 170]}, "vgg16_filter_12_conv_0": {"class_name": "Conv2D", "config": {"padding": "same", "kernel_initializer": {"class_name": "VarianceScaling", "config": {"distribution": "uniform", "scale": 1.0, "seed": null, "mode": "fan_avg"}}, "name": "vgg16_filter_12_conv_0", "bias_regularizer": null, "filters": 512, "bias_constraint": null, "activation": "linear", "trainable": true, "data_format": "channels_last", "kernel_constraint": null, "strides": [1, 1], "dilation_rate": [1, 1], "kernel_regularizer": null, "bias_initializer": {"class_name": "Zeros", "config": {}}, "use_bias": false, "activity_regularizer": null, "kernel_size": [3, 3]}, "input_shape": [13, 13, 170]}, "vgg16_filter_9_conv_2": {"class_name": "Conv2D", "config": {"padding": "same", "kernel_initializer": {"class_name": "VarianceScaling", "config": {"distribution": "uniform", "scale": 1.0, "seed": null, "mode": "fan_avg"}}, "name": "vgg16_filter_9_conv_2", "bias_regularizer": null, "filters": 512, "bias_constraint": null, "activation": "linear", "trainable": true, "data_format": "channels_last", "kernel_constraint": null, "strides": [1, 1], "dilation_rate": [1, 1], "kernel_regularizer": null, "bias_initializer": {"class_name": "Zeros", "config": {}}, "use_bias": true, "activity_regularizer": null, "kernel_size": [3, 3]}, "input_shape": [27, 27, 172]}, "lambda_4": {"class_name": "Lambda", "config": {"function": ["YwEAAAADAAAACAAAABMAAABzRQAAAGcAAIgAAERdOgBcAgB9AQB9AgB8AABkAABkAACFAgBkAABk\nAACFAgBkAABkAACFAgB8AQB8AgCFAgBmBAAZXgIAcQcAUygBAAAATigAAAAAKAMAAAB0AQAAAHh0\nAgAAAGxidAIAAAByYigBAAAAdAgAAABib3VuZGFyeSgAAAAAcw8AAAB1dGlscy9maWx0ZXIucHl0\nCAAAADxsYW1iZGE+FwAAAHQAAAAA\n", null, [[[0, 42], [42, 84], [84, 128]]]], "name": "lambda_4", "trainable": true, "function_type": "lambda", "arguments": {}, "output_shape": null, "output_shape_type": "raw"}, "input_shape": [110, 110, 128]}, "lambda_5": {"class_name": "Lambda", "config": {"function": ["YwEAAAADAAAACAAAABMAAABzRQAAAGcAAIgAAERdOgBcAgB9AQB9AgB8AABkAABkAACFAgBkAABk\nAACFAgBkAABkAACFAgB8AQB8AgCFAgBmBAAZXgIAcQcAUygBAAAATigAAAAAKAMAAAB0AQAAAHh0\nAgAAAGxidAIAAAByYigBAAAAdAgAAABib3VuZGFyeSgAAAAAcw8AAAB1dGlscy9maWx0ZXIucHl0\nCAAAADxsYW1iZGE+FwAAAHQAAAAA\n", null, [[[0, 42], [42, 84], [84, 128]]]], "name": "lambda_5", "trainable": true, "function_type": "lambda", "arguments": {}, "output_shape": null, "output_shape_type": "raw"}, "input_shape": [55, 55, 128]}, "vgg16_filter_5_conv_1": {"class_name": "Conv2D", "config": {"padding": "same", "kernel_initializer": {"class_name": "VarianceScaling", "config": {"distribution": "uniform", "scale": 1.0, "seed": null, "mode": "fan_avg"}}, "name": "vgg16_filter_5_conv_1", "bias_regularizer": null, "filters": 256, "bias_constraint": null, "activation": "linear", "trainable": true, "data_format": "channels_last", "kernel_constraint": null, "strides": [1, 1], "dilation_rate": [1, 1], "kernel_regularizer": null, "bias_initializer": {"class_name": "Zeros", "config": {}}, "use_bias": false, "activity_regularizer": null, "kernel_size": [3, 3]}, "input_shape": [55, 55, 42]}, "vgg16_filter_5_conv_0": {"class_name": "Conv2D", "config": {"padding": "same", "kernel_initializer": {"class_name": "VarianceScaling", "config": {"distribution": "uniform", "scale": 1.0, "seed": null, "mode": "fan_avg"}}, "name": "vgg16_filter_5_conv_0", "bias_regularizer": null, "filters": 256, "bias_constraint": null, "activation": "linear", "trainable": true, "data_format": "channels_last", "kernel_constraint": null, "strides": [1, 1], "dilation_rate": [1, 1], "kernel_regularizer": null, "bias_initializer": {"class_name": "Zeros", "config": {}}, "use_bias": false, "activity_regularizer": null, "kernel_size": [3, 3]}, "input_shape": [55, 55, 42]}, "lambda_1": {"class_name": "Lambda", "config": {"function": ["YwEAAAADAAAACAAAABMAAABzRQAAAGcAAIgAAERdOgBcAgB9AQB9AgB8AABkAABkAACFAgBkAABk\nAACFAgBkAABkAACFAgB8AQB8AgCFAgBmBAAZXgIAcQcAUygBAAAATigAAAAAKAMAAAB0AQAAAHh0\nAgAAAGxidAIAAAByYigBAAAAdAgAAABib3VuZGFyeSgAAAAAcw8AAAB1dGlscy9maWx0ZXIucHl0\nCAAAADxsYW1iZGE+FwAAAHQAAAAA\n", null, [[[0, 1], [1, 2], [2, 3]]]], "name": "lambda_1", "trainable": true, "function_type": "lambda", "arguments": {}, "output_shape": null, "output_shape_type": "raw"}, "input_shape": [220, 220, 3]}, "lambda_2": {"class_name": "Lambda", "config": {"function": ["YwEAAAADAAAACAAAABMAAABzRQAAAGcAAIgAAERdOgBcAgB9AQB9AgB8AABkAABkAACFAgBkAABk\nAACFAgBkAABkAACFAgB8AQB8AgCFAgBmBAAZXgIAcQcAUygBAAAATigAAAAAKAMAAAB0AQAAAHh0\nAgAAAGxidAIAAAByYigBAAAAdAgAAABib3VuZGFyeSgAAAAAcw8AAAB1dGlscy9maWx0ZXIucHl0\nCAAAADxsYW1iZGE+FwAAAHQAAAAA\n", null, [[[0, 21], [21, 42], [42, 64]]]], "name": "lambda_2", "trainable": true, "function_type": "lambda", "arguments": {}, "output_shape": null, "output_shape_type": "raw"}, "input_shape": [220, 220, 64]}, "lambda_3": {"class_name": "Lambda", "config": {"function": ["YwEAAAADAAAACAAAABMAAABzRQAAAGcAAIgAAERdOgBcAgB9AQB9AgB8AABkAABkAACFAgBkAABk\nAACFAgBkAABkAACFAgB8AQB8AgCFAgBmBAAZXgIAcQcAUygBAAAATigAAAAAKAMAAAB0AQAAAHh0\nAgAAAGxidAIAAAByYigBAAAAdAgAAABib3VuZGFyeSgAAAAAcw8AAAB1dGlscy9maWx0ZXIucHl0\nCAAAADxsYW1iZGE+FwAAAHQAAAAA\n", null, [[[0, 21], [21, 42], [42, 64]]]], "name": "lambda_3", "trainable": true, "function_type": "lambda", "arguments": {}, "output_shape": null, "output_shape_type": "raw"}, "input_shape": [110, 110, 64]}, "lambda_12": {"class_name": "Lambda", "config": {"function": ["YwEAAAADAAAACAAAABMAAABzRQAAAGcAAIgAAERdOgBcAgB9AQB9AgB8AABkAABkAACFAgBkAABk\nAACFAgBkAABkAACFAgB8AQB8AgCFAgBmBAAZXgIAcQcAUygBAAAATigAAAAAKAMAAAB0AQAAAHh0\nAgAAAGxidAIAAAByYigBAAAAdAgAAABib3VuZGFyeSgAAAAAcw8AAAB1dGlscy9maWx0ZXIucHl0\nCAAAADxsYW1iZGE+FwAAAHQAAAAA\n", null, [[[0, 170], [170, 340], [340, 512]]]], "name": "lambda_12", "trainable": true, "function_type": "lambda", "arguments": {}, "output_shape": null, "output_shape_type": "raw"}, "input_shape": [13, 13, 512]}, "vgg16_filter_9_conv_0": {"class_name": "Conv2D", "config": {"padding": "same", "kernel_initializer": {"class_name": "VarianceScaling", "config": {"distribution": "uniform", "scale": 1.0, "seed": null, "mode": "fan_avg"}}, "name": "vgg16_filter_9_conv_0", "bias_regularizer": null, "filters": 512, "bias_constraint": null, "activation": "linear", "trainable": true, "data_format": "channels_last", "kernel_constraint": null, "strides": [1, 1], "dilation_rate": [1, 1], "kernel_regularizer": null, "bias_initializer": {"class_name": "Zeros", "config": {}}, "use_bias": false, "activity_regularizer": null, "kernel_size": [3, 3]}, "input_shape": [27, 27, 170]}, "lambda_8": {"class_name": "Lambda", "config": {"function": ["YwEAAAADAAAACAAAABMAAABzRQAAAGcAAIgAAERdOgBcAgB9AQB9AgB8AABkAABkAACFAgBkAABk\nAACFAgBkAABkAACFAgB8AQB8AgCFAgBmBAAZXgIAcQcAUygBAAAATigAAAAAKAMAAAB0AQAAAHh0\nAgAAAGxidAIAAAByYigBAAAAdAgAAABib3VuZGFyeSgAAAAAcw8AAAB1dGlscy9maWx0ZXIucHl0\nCAAAADxsYW1iZGE+FwAAAHQAAAAA\n", null, [[[0, 85], [85, 170], [170, 256]]]], "name": "lambda_8", "trainable": true, "function_type": "lambda", "arguments": {}, "output_shape": null, "output_shape_type": "raw"}, "input_shape": [27, 27, 256]}, "lambda_9": {"class_name": "Lambda", "config": {"function": ["YwEAAAADAAAACAAAABMAAABzRQAAAGcAAIgAAERdOgBcAgB9AQB9AgB8AABkAABkAACFAgBkAABk\nAACFAgBkAABkAACFAgB8AQB8AgCFAgBmBAAZXgIAcQcAUygBAAAATigAAAAAKAMAAAB0AQAAAHh0\nAgAAAGxidAIAAAByYigBAAAAdAgAAABib3VuZGFyeSgAAAAAcw8AAAB1dGlscy9maWx0ZXIucHl0\nCAAAADxsYW1iZGE+FwAAAHQAAAAA\n", null, [[[0, 170], [170, 340], [340, 512]]]], "name": "lambda_9", "trainable": true, "function_type": "lambda", "arguments": {}, "output_shape": null, "output_shape_type": "raw"}, "input_shape": [27, 27, 512]}, "vgg16_filter_8_conv_1": {"class_name": "Conv2D", "config": {"padding": "same", "kernel_initializer": {"class_name": "VarianceScaling", "config": {"distribution": "uniform", "scale": 1.0, "seed": null, "mode": "fan_avg"}}, "name": "vgg16_filter_8_conv_1", "bias_regularizer": null, "filters": 512, "bias_constraint": null, "activation": "linear", "trainable": true, "data_format": "channels_last", "kernel_constraint": null, "strides": [1, 1], "dilation_rate": [1, 1], "kernel_regularizer": null, "bias_initializer": {"class_name": "Zeros", "config": {}}, "use_bias": false, "activity_regularizer": null, "kernel_size": [3, 3]}, "input_shape": [27, 27, 85]}, "vgg16_filter_10_conv_0": {"class_name": "Conv2D", "config": {"padding": "same", "kernel_initializer": {"class_name": "VarianceScaling", "config": {"distribution": "uniform", "scale": 1.0, "seed": null, "mode": "fan_avg"}}, "name": "vgg16_filter_10_conv_0", "bias_regularizer": null, "filters": 512, "bias_constraint": null, "activation": "linear", "trainable": true, "data_format": "channels_last", "kernel_constraint": null, "strides": [1, 1], "dilation_rate": [1, 1], "kernel_regularizer": null, "bias_initializer": {"class_name": "Zeros", "config": {}}, "use_bias": false, "activity_regularizer": null, "kernel_size": [3, 3]}, "input_shape": [27, 27, 170]}, "activation_9": {"class_name": "Activation", "config": {"activation": "relu", "trainable": true, "name": "activation_9"}, "input_shape": [27, 27, 512]}, "vgg16_filter_10_conv_2": {"class_name": "Conv2D", "config": {"padding": "same", "kernel_initializer": {"class_name": "VarianceScaling", "config": {"distribution": "uniform", "scale": 1.0, "seed": null, "mode": "fan_avg"}}, "name": "vgg16_filter_10_conv_2", "bias_regularizer": null, "filters": 512, "bias_constraint": null, "activation": "linear", "trainable": true, "data_format": "channels_last", "kernel_constraint": null, "strides": [1, 1], "dilation_rate": [1, 1], "kernel_regularizer": null, "bias_initializer": {"class_name": "Zeros", "config": {}}, "use_bias": true, "activity_regularizer": null, "kernel_size": [3, 3]}, "input_shape": [27, 27, 172]}, "vgg16_filter_8_conv_2": {"class_name": "Conv2D", "config": {"padding": "same", "kernel_initializer": {"class_name": "VarianceScaling", "config": {"distribution": "uniform", "scale": 1.0, "seed": null, "mode": "fan_avg"}}, "name": "vgg16_filter_8_conv_2", "bias_regularizer": null, "filters": 512, "bias_constraint": null, "activation": "linear", "trainable": true, "data_format": "channels_last", "kernel_constraint": null, "strides": [1, 1], "dilation_rate": [1, 1], "kernel_regularizer": null, "bias_initializer": {"class_name": "Zeros", "config": {}}, "use_bias": true, "activity_regularizer": null, "kernel_size": [3, 3]}, "input_shape": [27, 27, 86]}, "activation_8": {"class_name": "Activation", "config": {"activation": "relu", "trainable": true, "name": "activation_8"}, "input_shape": [27, 27, 512]}, "vgg16_filter_6_conv_2": {"class_name": "Conv2D", "config": {"padding": "same", "kernel_initializer": {"class_name": "VarianceScaling", "config": {"distribution": "uniform", "scale": 1.0, "seed": null, "mode": "fan_avg"}}, "name": "vgg16_filter_6_conv_2", "bias_regularizer": null, "filters": 256, "bias_constraint": null, "activation": "linear", "trainable": true, "data_format": "channels_last", "kernel_constraint": null, "strides": [1, 1], "dilation_rate": [1, 1], "kernel_regularizer": null, "bias_initializer": {"class_name": "Zeros", "config": {}}, "use_bias": true, "activity_regularizer": null, "kernel_size": [3, 3]}, "input_shape": [55, 55, 86]}, "vgg16_filter_6_conv_0": {"class_name": "Conv2D", "config": {"padding": "same", "kernel_initializer": {"class_name": "VarianceScaling", "config": {"distribution": "uniform", "scale": 1.0, "seed": null, "mode": "fan_avg"}}, "name": "vgg16_filter_6_conv_0", "bias_regularizer": null, "filters": 256, "bias_constraint": null, "activation": "linear", "trainable": true, "data_format": "channels_last", "kernel_constraint": null, "strides": [1, 1], "dilation_rate": [1, 1], "kernel_regularizer": null, "bias_initializer": {"class_name": "Zeros", "config": {}}, "use_bias": false, "activity_regularizer": null, "kernel_size": [3, 3]}, "input_shape": [55, 55, 85]}, "vgg16_filter_6_conv_1": {"class_name": "Conv2D", "config": {"padding": "same", "kernel_initializer": {"class_name": "VarianceScaling", "config": {"distribution": "uniform", "scale": 1.0, "seed": null, "mode": "fan_avg"}}, "name": "vgg16_filter_6_conv_1", "bias_regularizer": null, "filters": 256, "bias_constraint": null, "activation": "linear", "trainable": true, "data_format": "channels_last", "kernel_constraint": null, "strides": [1, 1], "dilation_rate": [1, 1], "kernel_regularizer": null, "bias_initializer": {"class_name": "Zeros", "config": {}}, "use_bias": false, "activity_regularizer": null, "kernel_size": [3, 3]}, "input_shape": [55, 55, 85]}, "vgg16_filter_9_conv_1": {"class_name": "Conv2D", "config": {"padding": "same", "kernel_initializer": {"class_name": "VarianceScaling", "config": {"distribution": "uniform", "scale": 1.0, "seed": null, "mode": "fan_avg"}}, "name": "vgg16_filter_9_conv_1", "bias_regularizer": null, "filters": 512, "bias_constraint": null, "activation": "linear", "trainable": true, "data_format": "channels_last", "kernel_constraint": null, "strides": [1, 1], "dilation_rate": [1, 1], "kernel_regularizer": null, "bias_initializer": {"class_name": "Zeros", "config": {}}, "use_bias": false, "activity_regularizer": null, "kernel_size": [3, 3]}, "input_shape": [27, 27, 170]}, "vgg16_filter_11_conv_2": {"class_name": "Conv2D", "config": {"padding": "same", "kernel_initializer": {"class_name": "VarianceScaling", "config": {"distribution": "uniform", "scale": 1.0, "seed": null, "mode": "fan_avg"}}, "name": "vgg16_filter_11_conv_2", "bias_regularizer": null, "filters": 512, "bias_constraint": null, "activation": "linear", "trainable": true, "data_format": "channels_last", "kernel_constraint": null, "strides": [1, 1], "dilation_rate": [1, 1], "kernel_regularizer": null, "bias_initializer": {"class_name": "Zeros", "config": {}}, "use_bias": true, "activity_regularizer": null, "kernel_size": [3, 3]}, "input_shape": [13, 13, 172]}}